…
, 'dataset': 'cifar10', 'use_gpu': True, 'input_size': 32, 'epochs': 300, 'batch_size': 512, 'test_batch': 200, 'eval_freq': 2, 'workers': 6, 'optimize': {'momentum': 0.9, 'weight_decay': 0.0001, 'nesterov': True}, 'mixup': False, 'mixup_alpha': 0.4, 'augmentation': {'normalize': True, 'random_crop': True, 'random_horizontal_filp': True, 'cutout': False, 'holes': 1, 'length': 8}, 'lr_scheduler': {'type': 'STEP', 'base_lr': 0.1, 'lr_epochs': [150, 225], 'lr_mults': 0.1, 'min_lr': 0.0, 'lower_bound': -6.0, 'upper_bound': 3.0}}
[2019-10-21 15:07:15,789] - [train.py line:147] : DenseNet(
  (conv_1): Conv2d(3, 32, kernel_size=(3, 3), stride=(1, 1), padding=(1, 1), bias=False)
  (dense1): Sequential(
    (0): Bottleneck(
      (bn_1): BatchNorm2d(32, eps=1e-05, momentum=0.1, affine=True, track_running_stats=True)
      (conv_1): Conv2d(32, 64, kernel_size=(1, 1), stride=(1, 1), bias=False)
      (bn_2): BatchNorm2d(64, eps=1e-05, momentum=0.1, affine=True, track_running_stats=True)
      (conv_2): Conv2d(64, 16, kernel_size=(3, 3), stride=(1, 1), padding=(1, 1), bias=False)
    )
    (1): Bottleneck(
      (bn_1): BatchNorm2d(48, eps=1e-05, momentum=0.1, affine=True, track_running_stats=True)
      (conv_1): Conv2d(48, 64, kernel_size=(1, 1), stride=(1, 1), bias=False)
      (bn_2): BatchNorm2d(64, eps=1e-05, momentum=0.1, affine=True, track_running_stats=True)
      (conv_2): Conv2d(64, 16, kernel_size=(3, 3), stride=(1, 1), padding=(1, 1), bias=False)
    )
    (2): Bottleneck(
      (bn_1): BatchNorm2d(64, eps=1e-05, momentum=0.1, affine=True, track_running_stats=True)
      (conv_1): Conv2d(64, 64, kernel_size=(1, 1), stride=(1, 1), bias=False)
      (bn_2): BatchNorm2d(64, eps=1e-05, momentum=0.1, affine=True, track_running_stats=True)
      (conv_2): Conv2d(64, 16, kernel_size=(3, 3), stride=(1, 1), padding=(1, 1), bias=False)
    )
    (3): Bottleneck(
      (bn_1): BatchNorm2d(80, eps=1e-05, momentum=0.1, affine=True, track_running_stats=True)
      (conv_1): Conv2d(80, 64, kernel_size=(1, 1), stride=(1, 1), bias=False)
      (bn_2): BatchNorm2d(64, eps=1e-05, momentum=0.1, affine=True, track_running_stats=True)
      (conv_2): Conv2d(64, 16, kernel_size=(3, 3), stride=(1, 1), padding=(1, 1), bias=False)
    )
    (4): Bottleneck(
      (bn_1): BatchNorm2d(96, eps=1e-05, momentum=0.1, affine=True, track_running_stats=True)
      (conv_1): Conv2d(96, 64, kernel_size=(1, 1), stride=(1, 1), bias=False)
      (bn_2): BatchNorm2d(64, eps=1e-05, momentum=0.1, affine=True, track_running_stats=True)
      (conv_2): Conv2d(64, 16, kernel_size=(3, 3), stride=(1, 1), padding=(1, 1), bias=False)
    )
    (5): Bottleneck(
      (bn_1): BatchNorm2d(112, eps=1e-05, momentum=0.1, affine=True, track_running_stats=True)
      (conv_1): Conv2d(112, 64, kernel_size=(1, 1), stride=(1, 1), bias=False)
      (bn_2): BatchNorm2d(64, eps=1e-05, momentum=0.1, affine=True, track_running_stats=True)
      (conv_2): Conv2d(64, 16, kernel_size=(3, 3), stride=(1, 1), padding=(1, 1), bias=False)
    )
    (6): Bottleneck(
      (bn_1): BatchNorm2d(128, eps=1e-05, momentum=0.1, affine=True, track_running_stats=True)
      (conv_1): Conv2d(128, 64, kernel_size=(1, 1), stride=(1, 1), bias=False)
      (bn_2): BatchNorm2d(64, eps=1e-05, momentum=0.1, affine=True, track_running_stats=True)
      (conv_2): Conv2d(64, 16, kernel_size=(3, 3), stride=(1, 1), padding=(1, 1), bias=False)
    )
    (7): Bottleneck(
      (bn_1): BatchNorm2d(144, eps=1e-05, momentum=0.1, affine=True, track_running_stats=True)
      (conv_1): Conv2d(144, 64, kernel_size=(1, 1), stride=(1, 1), bias=False)
      (bn_2): BatchNorm2d(64, eps=1e-05, momentum=0.1, affine=True, track_running_stats=True)
      (conv_2): Conv2d(64, 16, kernel_size=(3, 3), stride=(1, 1), padding=(1, 1), bias=False)
    )
    (8): Bottleneck(
      (bn_1): BatchNorm2d(160, eps=1e-05, momentum=0.1, affine=True, track_running_stats=True)
      (conv_1): Conv2d(160, 64, kernel_size=(1, 1), stride=(1, 1), bias=False)
      (bn_2): BatchNorm2d(64, eps=1e-05, momentum=0.1, affine=True, track_running_stats=True)
      (conv_2): Conv2d(64, 16, kernel_size=(3, 3), stride=(1, 1), padding=(1, 1), bias=False)
    )
    (9): Bottleneck(
      (bn_1): BatchNorm2d(176, eps=1e-05, momentum=0.1, affine=True, track_running_stats=True)
      (conv_1): Conv2d(176, 64, kernel_size=(1, 1), stride=(1, 1), bias=False)
      (bn_2): BatchNorm2d(64, eps=1e-05, momentum=0.1, affine=True, track_running_stats=True)
      (conv_2): Conv2d(64, 16, kernel_size=(3, 3), stride=(1, 1), padding=(1, 1), bias=False)
    )
    (10): Bottleneck(
      (bn_1): BatchNorm2d(192, eps=1e-05, momentum=0.1, affine=True, track_running_stats=True)
      (conv_1): Conv2d(192, 64, kernel_size=(1, 1), stride=(1, 1), bias=False)
      (bn_2): BatchNorm2d(64, eps=1e-05, momentum=0.1, affine=True, track_running_stats=True)
      (conv_2): Conv2d(64, 16, kernel_size=(3, 3), stride=(1, 1), padding=(1, 1), bias=False)
    )
    (11): Bottleneck(
      (bn_1): BatchNorm2d(208, eps=1e-05, momentum=0.1, affine=True, track_running_stats=True)
      (conv_1): Conv2d(208, 64, kernel_size=(1, 1), stride=(1, 1), bias=False)
      (bn_2): BatchNorm2d(64, eps=1e-05, momentum=0.1, affine=True, track_running_stats=True)
      (conv_2): Conv2d(64, 16, kernel_size=(3, 3), stride=(1, 1), padding=(1, 1), bias=False)
    )
    (12): Bottleneck(
      (bn_1): BatchNorm2d(224, eps=1e-05, momentum=0.1, affine=True, track_running_stats=True)
      (conv_1): Conv2d(224, 64, kernel_size=(1, 1), stride=(1, 1), bias=False)
      (bn_2): BatchNorm2d(64, eps=1e-05, momentum=0.1, affine=True, track_running_stats=True)
      (conv_2): Conv2d(64, 16, kernel_size=(3, 3), stride=(1, 1), padding=(1, 1), bias=False)
    )
    (13): Bottleneck(
      (bn_1): BatchNorm2d(240, eps=1e-05, momentum=0.1, affine=True, track_running_stats=True)
      (conv_1): Conv2d(240, 64, kernel_size=(1, 1), stride=(1, 1), bias=False)
      (bn_2): BatchNorm2d(64, eps=1e-05, momentum=0.1, affine=True, track_running_stats=True)
      (conv_2): Conv2d(64, 16, kernel_size=(3, 3), stride=(1, 1), padding=(1, 1), bias=False)
    )
    (14): Bottleneck(
      (bn_1): BatchNorm2d(256, eps=1e-05, momentum=0.1, affine=True, track_running_stats=True)
      (conv_1): Conv2d(256, 64, kernel_size=(1, 1), stride=(1, 1), bias=False)
      (bn_2): BatchNorm2d(64, eps=1e-05, momentum=0.1, affine=True, track_running_stats=True)
      (conv_2): Conv2d(64, 16, kernel_size=(3, 3), stride=(1, 1), padding=(1, 1), bias=False)
    )
    (15): Bottleneck(
      (bn_1): BatchNorm2d(272, eps=1e-05, momentum=0.1, affine=True, track_running_stats=True)
      (conv_1): Conv2d(272, 64, kernel_size=(1, 1), stride=(1, 1), bias=False)
      (bn_2): BatchNorm2d(64, eps=1e-05, momentum=0.1, affine=True, track_running_stats=True)
      (conv_2): Conv2d(64, 16, kernel_size=(3, 3), stride=(1, 1), padding=(1, 1), bias=False)
    )
    (16): Bottleneck(
      (bn_1): BatchNorm2d(288, eps=1e-05, momentum=0.1, affine=True, track_running_stats=True)
      (conv_1): Conv2d(288, 64, kernel_size=(1, 1), stride=(1, 1), bias=False)
      (bn_2): BatchNorm2d(64, eps=1e-05, momentum=0.1, affine=True, track_running_stats=True)
      (conv_2): Conv2d(64, 16, kernel_size=(3, 3), stride=(1, 1), padding=(1, 1), bias=False)
    )
    (17): Bottleneck(
      (bn_1): BatchNorm2d(304, eps=1e-05, momentum=0.1, affine=True, track_running_stats=True)
      (conv_1): Conv2d(304, 64, kernel_size=(1, 1), stride=(1, 1), bias=False)
      (bn_2): BatchNorm2d(64, eps=1e-05, momentum=0.1, affine=True, track_running_stats=True)
      (conv_2): Conv2d(64, 16, kernel_size=(3, 3), stride=(1, 1), padding=(1, 1), bias=False)
    )
    (18): Bottleneck(
      (bn_1): BatchNorm2d(320, eps=1e-05, momentum=0.1, affine=True, track_running_stats=True)
      (conv_1): Conv2d(320, 64, kernel_size=(1, 1), stride=(1, 1), bias=False)
      (bn_2): BatchNorm2d(64, eps=1e-05, momentum=0.1, affine=True, track_running_stats=True)
      (conv_2): Conv2d(64, 16, kernel_size=(3, 3), stride=(1, 1), padding=(1, 1), bias=False)
    )
  )
  (trans_1): Transition(
    (bn): BatchNorm2d(336, eps=1e-05, momentum=0.1, affine=True, track_running_stats=True)
    (conv): Conv2d(336, 168, kernel_size=(1, 1), stride=(1, 1), bias=False)
  )
  (dense2): Sequential(
    (0): Bottleneck(
      (bn_1): BatchNorm2d(168, eps=1e-05, momentum=0.1, affine=True, track_running_stats=True)
      (conv_1): Conv2d(168, 64, kernel_size=(1, 1), stride=(1, 1), bias=False)
      (bn_2): BatchNorm2d(64, eps=1e-05, momentum=0.1, affine=True, track_running_stats=True)
      (conv_2): Conv2d(64, 16, kernel_size=(3, 3), stride=(1, 1), padding=(1, 1), bias=False)
    )
    (1): Bottleneck(
      (bn_1): BatchNorm2d(184, eps=1e-05, momentum=0.1, affine=True, track_running_stats=True)
      (conv_1): Conv2d(184, 64, kernel_size=(1, 1), stride=(1, 1), bias=False)
      (bn_2): BatchNorm2d(64, eps=1e-05, momentum=0.1, affine=True, track_running_stats=True)
      (conv_2): Conv2d(64, 16, kernel_size=(3, 3), stride=(1, 1), padding=(1, 1), bias=False)
    )
    (2): Bottleneck(
      (bn_1): BatchNorm2d(200, eps=1e-05, momentum=0.1, affine=True, track_running_stats=True)
      (conv_1): Conv2d(200, 64, kernel_size=(1, 1), stride=(1, 1), bias=False)
      (bn_2): BatchNorm2d(64, eps=1e-05, momentum=0.1, affine=True, track_running_stats=True)
      (conv_2): Conv2d(64, 16, kernel_size=(3, 3), stride=(1, 1), padding=(1, 1), bias=False)
    )
    (3): Bottleneck(
      (bn_1): BatchNorm2d(216, eps=1e-05, momentum=0.1, affine=True, track_running_stats=True)
      (conv_1): Conv2d(216, 64, kernel_size=(1, 1), stride=(1, 1), bias=False)
      (bn_2): BatchNorm2d(64, eps=1e-05, momentum=0.1, affine=True, track_running_stats=True)
      (conv_2): Conv2d(64, 16, kernel_size=(3, 3), stride=(1, 1), padding=(1, 1), bias=False)
    )
    (4): Bottleneck(
      (bn_1): BatchNorm2d(232, eps=1e-05, momentum=0.1, affine=True, track_running_stats=True)
      (conv_1): Conv2d(232, 64, kernel_size=(1, 1), stride=(1, 1), bias=False)
      (bn_2): BatchNorm2d(64, eps=1e-05, momentum=0.1, affine=True, track_running_stats=True)
      (conv_2): Conv2d(64, 16, kernel_size=(3, 3), stride=(1, 1), padding=(1, 1), bias=False)
    )
    (5): Bottleneck(
      (bn_1): BatchNorm2d(248, eps=1e-05, momentum=0.1, affine=True, track_running_stats=True)
      (conv_1): Conv2d(248, 64, kernel_size=(1, 1), stride=(1, 1), bias=False)
      (bn_2): BatchNorm2d(64, eps=1e-05, momentum=0.1, affine=True, track_running_stats=True)
      (conv_2): Conv2d(64, 16, kernel_size=(3, 3), stride=(1, 1), padding=(1, 1), bias=False)
    )
    (6): Bottleneck(
      (bn_1): BatchNorm2d(264, eps=1e-05, momentum=0.1, affine=True, track_running_stats=True)
      (conv_1): Conv2d(264, 64, kernel_size=(1, 1), stride=(1, 1), bias=False)
      (bn_2): BatchNorm2d(64, eps=1e-05, momentum=0.1, affine=True, track_running_stats=True)
      (conv_2): Conv2d(64, 16, kernel_size=(3, 3), stride=(1, 1), padding=(1, 1), bias=False)
    )
    (7): Bottleneck(
      (bn_1): BatchNorm2d(280, eps=1e-05, momentum=0.1, affine=True, track_running_stats=True)
      (conv_1): Conv2d(280, 64, kernel_size=(1, 1), stride=(1, 1), bias=False)
      (bn_2): BatchNorm2d(64, eps=1e-05, momentum=0.1, affine=True, track_running_stats=True)
      (conv_2): Conv2d(64, 16, kernel_size=(3, 3), stride=(1, 1), padding=(1, 1), bias=False)
    )
    (8): Bottleneck(
      (bn_1): BatchNorm2d(296, eps=1e-05, momentum=0.1, affine=True, track_running_stats=True)
      (conv_1): Conv2d(296, 64, kernel_size=(1, 1), stride=(1, 1), bias=False)
      (bn_2): BatchNorm2d(64, eps=1e-05, momentum=0.1, affine=True, track_running_stats=True)
      (conv_2): Conv2d(64, 16, kernel_size=(3, 3), stride=(1, 1), padding=(1, 1), bias=False)
    )
    (9): Bottleneck(
      (bn_1): BatchNorm2d(312, eps=1e-05, momentum=0.1, affine=True, track_running_stats=True)
      (conv_1): Conv2d(312, 64, kernel_size=(1, 1), stride=(1, 1), bias=False)
      (bn_2): BatchNorm2d(64, eps=1e-05, momentum=0.1, affine=True, track_running_stats=True)
      (conv_2): Conv2d(64, 16, kernel_size=(3, 3), stride=(1, 1), padding=(1, 1), bias=False)
    )
    (10): Bottleneck(
      (bn_1): BatchNorm2d(328, eps=1e-05, momentum=0.1, affine=True, track_running_stats=True)
      (conv_1): Conv2d(328, 64, kernel_size=(1, 1), stride=(1, 1), bias=False)
      (bn_2): BatchNorm2d(64, eps=1e-05, momentum=0.1, affine=True, track_running_stats=True)
      (conv_2): Conv2d(64, 16, kernel_size=(3, 3), stride=(1, 1), padding=(1, 1), bias=False)
    )
    (11): Bottleneck(
      (bn_1): BatchNorm2d(344, eps=1e-05, momentum=0.1, affine=True, track_running_stats=True)
      (conv_1): Conv2d(344, 64, kernel_size=(1, 1), stride=(1, 1), bias=False)
      (bn_2): BatchNorm2d(64, eps=1e-05, momentum=0.1, affine=True, track_running_stats=True)
      (conv_2): Conv2d(64, 16, kernel_size=(3, 3), stride=(1, 1), padding=(1, 1), bias=False)
    )
    (12): Bottleneck(
      (bn_1): BatchNorm2d(360, eps=1e-05, momentum=0.1, affine=True, track_running_stats=True)
      (conv_1): Conv2d(360, 64, kernel_size=(1, 1), stride=(1, 1), bias=False)
      (bn_2): BatchNorm2d(64, eps=1e-05, momentum=0.1, affine=True, track_running_stats=True)
      (conv_2): Conv2d(64, 16, kernel_size=(3, 3), stride=(1, 1), padding=(1, 1), bias=False)
    )
    (13): Bottleneck(
      (bn_1): BatchNorm2d(376, eps=1e-05, momentum=0.1, affine=True, track_running_stats=True)
      (conv_1): Conv2d(376, 64, kernel_size=(1, 1), stride=(1, 1), bias=False)
      (bn_2): BatchNorm2d(64, eps=1e-05, momentum=0.1, affine=True, track_running_stats=True)
      (conv_2): Conv2d(64, 16, kernel_size=(3, 3), stride=(1, 1), padding=(1, 1), bias=False)
    )
    (14): Bottleneck(
      (bn_1): BatchNorm2d(392, eps=1e-05, momentum=0.1, affine=True, track_running_stats=True)
      (conv_1): Conv2d(392, 64, kernel_size=(1, 1), stride=(1, 1), bias=False)
      (bn_2): BatchNorm2d(64, eps=1e-05, momentum=0.1, affine=True, track_running_stats=True)
      (conv_2): Conv2d(64, 16, kernel_size=(3, 3), stride=(1, 1), padding=(1, 1), bias=False)
    )
    (15): Bottleneck(
      (bn_1): BatchNorm2d(408, eps=1e-05, momentum=0.1, affine=True, track_running_stats=True)
      (conv_1): Conv2d(408, 64, kernel_size=(1, 1), stride=(1, 1), bias=False)
      (bn_2): BatchNorm2d(64, eps=1e-05, momentum=0.1, affine=True, track_running_stats=True)
      (conv_2): Conv2d(64, 16, kernel_size=(3, 3), stride=(1, 1), padding=(1, 1), bias=False)
    )
    (16): Bottleneck(
      (bn_1): BatchNorm2d(424, eps=1e-05, momentum=0.1, affine=True, track_running_stats=True)
      (conv_1): Conv2d(424, 64, kernel_size=(1, 1), stride=(1, 1), bias=False)
      (bn_2): BatchNorm2d(64, eps=1e-05, momentum=0.1, affine=True, track_running_stats=True)
      (conv_2): Conv2d(64, 16, kernel_size=(3, 3), stride=(1, 1), padding=(1, 1), bias=False)
    )
    (17): Bottleneck(
      (bn_1): BatchNorm2d(440, eps=1e-05, momentum=0.1, affine=True, track_running_stats=True)
      (conv_1): Conv2d(440, 64, kernel_size=(1, 1), stride=(1, 1), bias=False)
      (bn_2): BatchNorm2d(64, eps=1e-05, momentum=0.1, affine=True, track_running_stats=True)
      (conv_2): Conv2d(64, 16, kernel_size=(3, 3), stride=(1, 1), padding=(1, 1), bias=False)
    )
    (18): Bottleneck(
      (bn_1): BatchNorm2d(456, eps=1e-05, momentum=0.1, affine=True, track_running_stats=True)
      (conv_1): Conv2d(456, 64, kernel_size=(1, 1), stride=(1, 1), bias=False)
      (bn_2): BatchNorm2d(64, eps=1e-05, momentum=0.1, affine=True, track_running_stats=True)
      (conv_2): Conv2d(64, 16, kernel_size=(3, 3), stride=(1, 1), padding=(1, 1), bias=False)
    )
  )
  (trans_2): Transition(
    (bn): BatchNorm2d(472, eps=1e-05, momentum=0.1, affine=True, track_running_stats=True)
    (conv): Conv2d(472, 236, kernel_size=(1, 1), stride=(1, 1), bias=False)
  )
  (dense_3): Sequential(
    (0): Bottleneck(
      (bn_1): BatchNorm2d(236, eps=1e-05, momentum=0.1, affine=True, track_running_stats=True)
      (conv_1): Conv2d(236, 64, kernel_size=(1, 1), stride=(1, 1), bias=False)
      (bn_2): BatchNorm2d(64, eps=1e-05, momentum=0.1, affine=True, track_running_stats=True)
      (conv_2): Conv2d(64, 16, kernel_size=(3, 3), stride=(1, 1), padding=(1, 1), bias=False)
    )
    (1): Bottleneck(
      (bn_1): BatchNorm2d(252, eps=1e-05, momentum=0.1, affine=True, track_running_stats=True)
      (conv_1): Conv2d(252, 64, kernel_size=(1, 1), stride=(1, 1), bias=False)
      (bn_2): BatchNorm2d(64, eps=1e-05, momentum=0.1, affine=True, track_running_stats=True)
      (conv_2): Conv2d(64, 16, kernel_size=(3, 3), stride=(1, 1), padding=(1, 1), bias=False)
    )
    (2): Bottleneck(
      (bn_1): BatchNorm2d(268, eps=1e-05, momentum=0.1, affine=True, track_running_stats=True)
      (conv_1): Conv2d(268, 64, kernel_size=(1, 1), stride=(1, 1), bias=False)
      (bn_2): BatchNorm2d(64, eps=1e-05, momentum=0.1, affine=True, track_running_stats=True)
      (conv_2): Conv2d(64, 16, kernel_size=(3, 3), stride=(1, 1), padding=(1, 1), bias=False)
    )
    (3): Bottleneck(
      (bn_1): BatchNorm2d(284, eps=1e-05, momentum=0.1, affine=True, track_running_stats=True)
      (conv_1): Conv2d(284, 64, kernel_size=(1, 1), stride=(1, 1), bias=False)
      (bn_2): BatchNorm2d(64, eps=1e-05, momentum=0.1, affine=True, track_running_stats=True)
      (conv_2): Conv2d(64, 16, kernel_size=(3, 3), stride=(1, 1), padding=(1, 1), bias=False)
    )
    (4): Bottleneck(
      (bn_1): BatchNorm2d(300, eps=1e-05, momentum=0.1, affine=True, track_running_stats=True)
      (conv_1): Conv2d(300, 64, kernel_size=(1, 1), stride=(1, 1), bias=False)
      (bn_2): BatchNorm2d(64, eps=1e-05, momentum=0.1, affine=True, track_running_stats=True)
      (conv_2): Conv2d(64, 16, kernel_size=(3, 3), stride=(1, 1), padding=(1, 1), bias=False)
    )
    (5): Bottleneck(
      (bn_1): BatchNorm2d(316, eps=1e-05, momentum=0.1, affine=True, track_running_stats=True)
      (conv_1): Conv2d(316, 64, kernel_size=(1, 1), stride=(1, 1), bias=False)
      (bn_2): BatchNorm2d(64, eps=1e-05, momentum=0.1, affine=True, track_running_stats=True)
      (conv_2): Conv2d(64, 16, kernel_size=(3, 3), stride=(1, 1), padding=(1, 1), bias=False)
    )
    (6): Bottleneck(
      (bn_1): BatchNorm2d(332, eps=1e-05, momentum=0.1, affine=True, track_running_stats=True)
      (conv_1): Conv2d(332, 64, kernel_size=(1, 1), stride=(1, 1), bias=False)
      (bn_2): BatchNorm2d(64, eps=1e-05, momentum=0.1, affine=True, track_running_stats=True)
      (conv_2): Conv2d(64, 16, kernel_size=(3, 3), stride=(1, 1), padding=(1, 1), bias=False)
    )
    (7): Bottleneck(
      (bn_1): BatchNorm2d(348, eps=1e-05, momentum=0.1, affine=True, track_running_stats=True)
      (conv_1): Conv2d(348, 64, kernel_size=(1, 1), stride=(1, 1), bias=False)
      (bn_2): BatchNorm2d(64, eps=1e-05, momentum=0.1, affine=True, track_running_stats=True)
      (conv_2): Conv2d(64, 16, kernel_size=(3, 3), stride=(1, 1), padding=(1, 1), bias=False)
    )
    (8): Bottleneck(
      (bn_1): BatchNorm2d(364, eps=1e-05, momentum=0.1, affine=True, track_running_stats=True)
      (conv_1): Conv2d(364, 64, kernel_size=(1, 1), stride=(1, 1), bias=False)
      (bn_2): BatchNorm2d(64, eps=1e-05, momentum=0.1, affine=True, track_running_stats=True)
      (conv_2): Conv2d(64, 16, kernel_size=(3, 3), stride=(1, 1), padding=(1, 1), bias=False)
    )
    (9): Bottleneck(
      (bn_1): BatchNorm2d(380, eps=1e-05, momentum=0.1, affine=True, track_running_stats=True)
      (conv_1): Conv2d(380, 64, kernel_size=(1, 1), stride=(1, 1), bias=False)
      (bn_2): BatchNorm2d(64, eps=1e-05, momentum=0.1, affine=True, track_running_stats=True)
      (conv_2): Conv2d(64, 16, kernel_size=(3, 3), stride=(1, 1), padding=(1, 1), bias=False)
    )
    (10): Bottleneck(
      (bn_1): BatchNorm2d(396, eps=1e-05, momentum=0.1, affine=True, track_running_stats=True)
      (conv_1): Conv2d(396, 64, kernel_size=(1, 1), stride=(1, 1), bias=False)
      (bn_2): BatchNorm2d(64, eps=1e-05, momentum=0.1, affine=True, track_running_stats=True)
      (conv_2): Conv2d(64, 16, kernel_size=(3, 3), stride=(1, 1), padding=(1, 1), bias=False)
    )
    (11): Bottleneck(
      (bn_1): BatchNorm2d(412, eps=1e-05, momentum=0.1, affine=True, track_running_stats=True)
      (conv_1): Conv2d(412, 64, kernel_size=(1, 1), stride=(1, 1), bias=False)
      (bn_2): BatchNorm2d(64, eps=1e-05, momentum=0.1, affine=True, track_running_stats=True)
      (conv_2): Conv2d(64, 16, kernel_size=(3, 3), stride=(1, 1), padding=(1, 1), bias=False)
    )
    (12): Bottleneck(
      (bn_1): BatchNorm2d(428, eps=1e-05, momentum=0.1, affine=True, track_running_stats=True)
      (conv_1): Conv2d(428, 64, kernel_size=(1, 1), stride=(1, 1), bias=False)
      (bn_2): BatchNorm2d(64, eps=1e-05, momentum=0.1, affine=True, track_running_stats=True)
      (conv_2): Conv2d(64, 16, kernel_size=(3, 3), stride=(1, 1), padding=(1, 1), bias=False)
    )
    (13): Bottleneck(
      (bn_1): BatchNorm2d(444, eps=1e-05, momentum=0.1, affine=True, track_running_stats=True)
      (conv_1): Conv2d(444, 64, kernel_size=(1, 1), stride=(1, 1), bias=False)
      (bn_2): BatchNorm2d(64, eps=1e-05, momentum=0.1, affine=True, track_running_stats=True)
      (conv_2): Conv2d(64, 16, kernel_size=(3, 3), stride=(1, 1), padding=(1, 1), bias=False)
    )
    (14): Bottleneck(
      (bn_1): BatchNorm2d(460, eps=1e-05, momentum=0.1, affine=True, track_running_stats=True)
      (conv_1): Conv2d(460, 64, kernel_size=(1, 1), stride=(1, 1), bias=False)
      (bn_2): BatchNorm2d(64, eps=1e-05, momentum=0.1, affine=True, track_running_stats=True)
      (conv_2): Conv2d(64, 16, kernel_size=(3, 3), stride=(1, 1), padding=(1, 1), bias=False)
    )
    (15): Bottleneck(
      (bn_1): BatchNorm2d(476, eps=1e-05, momentum=0.1, affine=True, track_running_stats=True)
      (conv_1): Conv2d(476, 64, kernel_size=(1, 1), stride=(1, 1), bias=False)
      (bn_2): BatchNorm2d(64, eps=1e-05, momentum=0.1, affine=True, track_running_stats=True)
      (conv_2): Conv2d(64, 16, kernel_size=(3, 3), stride=(1, 1), padding=(1, 1), bias=False)
    )
    (16): Bottleneck(
      (bn_1): BatchNorm2d(492, eps=1e-05, momentum=0.1, affine=True, track_running_stats=True)
      (conv_1): Conv2d(492, 64, kernel_size=(1, 1), stride=(1, 1), bias=False)
      (bn_2): BatchNorm2d(64, eps=1e-05, momentum=0.1, affine=True, track_running_stats=True)
      (conv_2): Conv2d(64, 16, kernel_size=(3, 3), stride=(1, 1), padding=(1, 1), bias=False)
    )
    (17): Bottleneck(
      (bn_1): BatchNorm2d(508, eps=1e-05, momentum=0.1, affine=True, track_running_stats=True)
      (conv_1): Conv2d(508, 64, kernel_size=(1, 1), stride=(1, 1), bias=False)
      (bn_2): BatchNorm2d(64, eps=1e-05, momentum=0.1, affine=True, track_running_stats=True)
      (conv_2): Conv2d(64, 16, kernel_size=(3, 3), stride=(1, 1), padding=(1, 1), bias=False)
    )
    (18): Bottleneck(
      (bn_1): BatchNorm2d(524, eps=1e-05, momentum=0.1, affine=True, track_running_stats=True)
      (conv_1): Conv2d(524, 64, kernel_size=(1, 1), stride=(1, 1), bias=False)
      (bn_2): BatchNorm2d(64, eps=1e-05, momentum=0.1, affine=True, track_running_stats=True)
      (conv_2): Conv2d(64, 16, kernel_size=(3, 3), stride=(1, 1), padding=(1, 1), bias=False)
    )
  )
  (bn): BatchNorm2d(540, eps=1e-05, momentum=0.1, affine=True, track_running_stats=True)
  (fc): Linear(in_features=540, out_features=10, bias=True)
)
[2019-10-21 15:07:15,810] - [train.py line:148] :  == total parameters: 1797890
[2019-10-21 15:07:25,954] - [train.py line:187] :             =======  Training  =======

[2019-10-21 15:07:25,960] - [train.py line:39] :  === Epoch: [1/300] === 
[2019-10-21 15:14:09,036] - [train.py line:143] : {'architecture': 'densenet140bc', 'data_path': './data', 'ckpt_path': './', 'ckpt_name': 'densenet140bc', 'num_classes': 10, 'dataset': 'cifar10', 'use_gpu': True, 'input_size': 32, 'epochs': 300, 'batch_size': 256, 'test_batch': 200, 'eval_freq': 2, 'workers': 6, 'optimize': {'momentum': 0.9, 'weight_decay': 0.0001, 'nesterov': True}, 'mixup': False, 'mixup_alpha': 0.4, 'augmentation': {'normalize': True, 'random_crop': True, 'random_horizontal_filp': True, 'cutout': False, 'holes': 1, 'length': 8}, 'lr_scheduler': {'type': 'STEP', 'base_lr': 0.1, 'lr_epochs': [150, 225], 'lr_mults': 0.1, 'min_lr': 0.0, 'lower_bound': -6.0, 'upper_bound': 3.0}}
[2019-10-21 15:14:09,193] - [train.py line:147] : DenseNet(
  (conv_1): Conv2d(3, 40, kernel_size=(3, 3), stride=(1, 1), padding=(1, 1), bias=False)
  (dense1): Sequential(
    (0): Bottleneck(
      (bn_1): BatchNorm2d(40, eps=1e-05, momentum=0.1, affine=True, track_running_stats=True)
      (conv_1): Conv2d(40, 80, kernel_size=(1, 1), stride=(1, 1), bias=False)
      (bn_2): BatchNorm2d(80, eps=1e-05, momentum=0.1, affine=True, track_running_stats=True)
      (conv_2): Conv2d(80, 20, kernel_size=(3, 3), stride=(1, 1), padding=(1, 1), bias=False)
    )
    (1): Bottleneck(
      (bn_1): BatchNorm2d(60, eps=1e-05, momentum=0.1, affine=True, track_running_stats=True)
      (conv_1): Conv2d(60, 80, kernel_size=(1, 1), stride=(1, 1), bias=False)
      (bn_2): BatchNorm2d(80, eps=1e-05, momentum=0.1, affine=True, track_running_stats=True)
      (conv_2): Conv2d(80, 20, kernel_size=(3, 3), stride=(1, 1), padding=(1, 1), bias=False)
    )
    (2): Bottleneck(
      (bn_1): BatchNorm2d(80, eps=1e-05, momentum=0.1, affine=True, track_running_stats=True)
      (conv_1): Conv2d(80, 80, kernel_size=(1, 1), stride=(1, 1), bias=False)
      (bn_2): BatchNorm2d(80, eps=1e-05, momentum=0.1, affine=True, track_running_stats=True)
      (conv_2): Conv2d(80, 20, kernel_size=(3, 3), stride=(1, 1), padding=(1, 1), bias=False)
    )
    (3): Bottleneck(
      (bn_1): BatchNorm2d(100, eps=1e-05, momentum=0.1, affine=True, track_running_stats=True)
      (conv_1): Conv2d(100, 80, kernel_size=(1, 1), stride=(1, 1), bias=False)
      (bn_2): BatchNorm2d(80, eps=1e-05, momentum=0.1, affine=True, track_running_stats=True)
      (conv_2): Conv2d(80, 20, kernel_size=(3, 3), stride=(1, 1), padding=(1, 1), bias=False)
    )
    (4): Bottleneck(
      (bn_1): BatchNorm2d(120, eps=1e-05, momentum=0.1, affine=True, track_running_stats=True)
      (conv_1): Conv2d(120, 80, kernel_size=(1, 1), stride=(1, 1), bias=False)
      (bn_2): BatchNorm2d(80, eps=1e-05, momentum=0.1, affine=True, track_running_stats=True)
      (conv_2): Conv2d(80, 20, kernel_size=(3, 3), stride=(1, 1), padding=(1, 1), bias=False)
    )
    (5): Bottleneck(
      (bn_1): BatchNorm2d(140, eps=1e-05, momentum=0.1, affine=True, track_running_stats=True)
      (conv_1): Conv2d(140, 80, kernel_size=(1, 1), stride=(1, 1), bias=False)
      (bn_2): BatchNorm2d(80, eps=1e-05, momentum=0.1, affine=True, track_running_stats=True)
      (conv_2): Conv2d(80, 20, kernel_size=(3, 3), stride=(1, 1), padding=(1, 1), bias=False)
    )
    (6): Bottleneck(
      (bn_1): BatchNorm2d(160, eps=1e-05, momentum=0.1, affine=True, track_running_stats=True)
      (conv_1): Conv2d(160, 80, kernel_size=(1, 1), stride=(1, 1), bias=False)
      (bn_2): BatchNorm2d(80, eps=1e-05, momentum=0.1, affine=True, track_running_stats=True)
      (conv_2): Conv2d(80, 20, kernel_size=(3, 3), stride=(1, 1), padding=(1, 1), bias=False)
    )
    (7): Bottleneck(
      (bn_1): BatchNorm2d(180, eps=1e-05, momentum=0.1, affine=True, track_running_stats=True)
      (conv_1): Conv2d(180, 80, kernel_size=(1, 1), stride=(1, 1), bias=False)
      (bn_2): BatchNorm2d(80, eps=1e-05, momentum=0.1, affine=True, track_running_stats=True)
      (conv_2): Conv2d(80, 20, kernel_size=(3, 3), stride=(1, 1), padding=(1, 1), bias=False)
    )
    (8): Bottleneck(
      (bn_1): BatchNorm2d(200, eps=1e-05, momentum=0.1, affine=True, track_running_stats=True)
      (conv_1): Conv2d(200, 80, kernel_size=(1, 1), stride=(1, 1), bias=False)
      (bn_2): BatchNorm2d(80, eps=1e-05, momentum=0.1, affine=True, track_running_stats=True)
      (conv_2): Conv2d(80, 20, kernel_size=(3, 3), stride=(1, 1), padding=(1, 1), bias=False)
    )
    (9): Bottleneck(
      (bn_1): BatchNorm2d(220, eps=1e-05, momentum=0.1, affine=True, track_running_stats=True)
      (conv_1): Conv2d(220, 80, kernel_size=(1, 1), stride=(1, 1), bias=False)
      (bn_2): BatchNorm2d(80, eps=1e-05, momentum=0.1, affine=True, track_running_stats=True)
      (conv_2): Conv2d(80, 20, kernel_size=(3, 3), stride=(1, 1), padding=(1, 1), bias=False)
    )
    (10): Bottleneck(
      (bn_1): BatchNorm2d(240, eps=1e-05, momentum=0.1, affine=True, track_running_stats=True)
      (conv_1): Conv2d(240, 80, kernel_size=(1, 1), stride=(1, 1), bias=False)
      (bn_2): BatchNorm2d(80, eps=1e-05, momentum=0.1, affine=True, track_running_stats=True)
      (conv_2): Conv2d(80, 20, kernel_size=(3, 3), stride=(1, 1), padding=(1, 1), bias=False)
    )
    (11): Bottleneck(
      (bn_1): BatchNorm2d(260, eps=1e-05, momentum=0.1, affine=True, track_running_stats=True)
      (conv_1): Conv2d(260, 80, kernel_size=(1, 1), stride=(1, 1), bias=False)
      (bn_2): BatchNorm2d(80, eps=1e-05, momentum=0.1, affine=True, track_running_stats=True)
      (conv_2): Conv2d(80, 20, kernel_size=(3, 3), stride=(1, 1), padding=(1, 1), bias=False)
    )
    (12): Bottleneck(
      (bn_1): BatchNorm2d(280, eps=1e-05, momentum=0.1, affine=True, track_running_stats=True)
      (conv_1): Conv2d(280, 80, kernel_size=(1, 1), stride=(1, 1), bias=False)
      (bn_2): BatchNorm2d(80, eps=1e-05, momentum=0.1, affine=True, track_running_stats=True)
      (conv_2): Conv2d(80, 20, kernel_size=(3, 3), stride=(1, 1), padding=(1, 1), bias=False)
    )
    (13): Bottleneck(
      (bn_1): BatchNorm2d(300, eps=1e-05, momentum=0.1, affine=True, track_running_stats=True)
      (conv_1): Conv2d(300, 80, kernel_size=(1, 1), stride=(1, 1), bias=False)
      (bn_2): BatchNorm2d(80, eps=1e-05, momentum=0.1, affine=True, track_running_stats=True)
      (conv_2): Conv2d(80, 20, kernel_size=(3, 3), stride=(1, 1), padding=(1, 1), bias=False)
    )
    (14): Bottleneck(
      (bn_1): BatchNorm2d(320, eps=1e-05, momentum=0.1, affine=True, track_running_stats=True)
      (conv_1): Conv2d(320, 80, kernel_size=(1, 1), stride=(1, 1), bias=False)
      (bn_2): BatchNorm2d(80, eps=1e-05, momentum=0.1, affine=True, track_running_stats=True)
      (conv_2): Conv2d(80, 20, kernel_size=(3, 3), stride=(1, 1), padding=(1, 1), bias=False)
    )
    (15): Bottleneck(
      (bn_1): BatchNorm2d(340, eps=1e-05, momentum=0.1, affine=True, track_running_stats=True)
      (conv_1): Conv2d(340, 80, kernel_size=(1, 1), stride=(1, 1), bias=False)
      (bn_2): BatchNorm2d(80, eps=1e-05, momentum=0.1, affine=True, track_running_stats=True)
      (conv_2): Conv2d(80, 20, kernel_size=(3, 3), stride=(1, 1), padding=(1, 1), bias=False)
    )
    (16): Bottleneck(
      (bn_1): BatchNorm2d(360, eps=1e-05, momentum=0.1, affine=True, track_running_stats=True)
      (conv_1): Conv2d(360, 80, kernel_size=(1, 1), stride=(1, 1), bias=False)
      (bn_2): BatchNorm2d(80, eps=1e-05, momentum=0.1, affine=True, track_running_stats=True)
      (conv_2): Conv2d(80, 20, kernel_size=(3, 3), stride=(1, 1), padding=(1, 1), bias=False)
    )
    (17): Bottleneck(
      (bn_1): BatchNorm2d(380, eps=1e-05, momentum=0.1, affine=True, track_running_stats=True)
      (conv_1): Conv2d(380, 80, kernel_size=(1, 1), stride=(1, 1), bias=False)
      (bn_2): BatchNorm2d(80, eps=1e-05, momentum=0.1, affine=True, track_running_stats=True)
      (conv_2): Conv2d(80, 20, kernel_size=(3, 3), stride=(1, 1), padding=(1, 1), bias=False)
    )
    (18): Bottleneck(
      (bn_1): BatchNorm2d(400, eps=1e-05, momentum=0.1, affine=True, track_running_stats=True)
      (conv_1): Conv2d(400, 80, kernel_size=(1, 1), stride=(1, 1), bias=False)
      (bn_2): BatchNorm2d(80, eps=1e-05, momentum=0.1, affine=True, track_running_stats=True)
      (conv_2): Conv2d(80, 20, kernel_size=(3, 3), stride=(1, 1), padding=(1, 1), bias=False)
    )
    (19): Bottleneck(
      (bn_1): BatchNorm2d(420, eps=1e-05, momentum=0.1, affine=True, track_running_stats=True)
      (conv_1): Conv2d(420, 80, kernel_size=(1, 1), stride=(1, 1), bias=False)
      (bn_2): BatchNorm2d(80, eps=1e-05, momentum=0.1, affine=True, track_running_stats=True)
      (conv_2): Conv2d(80, 20, kernel_size=(3, 3), stride=(1, 1), padding=(1, 1), bias=False)
    )
    (20): Bottleneck(
      (bn_1): BatchNorm2d(440, eps=1e-05, momentum=0.1, affine=True, track_running_stats=True)
      (conv_1): Conv2d(440, 80, kernel_size=(1, 1), stride=(1, 1), bias=False)
      (bn_2): BatchNorm2d(80, eps=1e-05, momentum=0.1, affine=True, track_running_stats=True)
      (conv_2): Conv2d(80, 20, kernel_size=(3, 3), stride=(1, 1), padding=(1, 1), bias=False)
    )
    (21): Bottleneck(
      (bn_1): BatchNorm2d(460, eps=1e-05, momentum=0.1, affine=True, track_running_stats=True)
      (conv_1): Conv2d(460, 80, kernel_size=(1, 1), stride=(1, 1), bias=False)
      (bn_2): BatchNorm2d(80, eps=1e-05, momentum=0.1, affine=True, track_running_stats=True)
      (conv_2): Conv2d(80, 20, kernel_size=(3, 3), stride=(1, 1), padding=(1, 1), bias=False)
    )
  )
  (trans_1): Transition(
    (bn): BatchNorm2d(480, eps=1e-05, momentum=0.1, affine=True, track_running_stats=True)
    (conv): Conv2d(480, 240, kernel_size=(1, 1), stride=(1, 1), bias=False)
  )
  (dense2): Sequential(
    (0): Bottleneck(
      (bn_1): BatchNorm2d(240, eps=1e-05, momentum=0.1, affine=True, track_running_stats=True)
      (conv_1): Conv2d(240, 80, kernel_size=(1, 1), stride=(1, 1), bias=False)
      (bn_2): BatchNorm2d(80, eps=1e-05, momentum=0.1, affine=True, track_running_stats=True)
      (conv_2): Conv2d(80, 20, kernel_size=(3, 3), stride=(1, 1), padding=(1, 1), bias=False)
    )
    (1): Bottleneck(
      (bn_1): BatchNorm2d(260, eps=1e-05, momentum=0.1, affine=True, track_running_stats=True)
      (conv_1): Conv2d(260, 80, kernel_size=(1, 1), stride=(1, 1), bias=False)
      (bn_2): BatchNorm2d(80, eps=1e-05, momentum=0.1, affine=True, track_running_stats=True)
      (conv_2): Conv2d(80, 20, kernel_size=(3, 3), stride=(1, 1), padding=(1, 1), bias=False)
    )
    (2): Bottleneck(
      (bn_1): BatchNorm2d(280, eps=1e-05, momentum=0.1, affine=True, track_running_stats=True)
      (conv_1): Conv2d(280, 80, kernel_size=(1, 1), stride=(1, 1), bias=False)
      (bn_2): BatchNorm2d(80, eps=1e-05, momentum=0.1, affine=True, track_running_stats=True)
      (conv_2): Conv2d(80, 20, kernel_size=(3, 3), stride=(1, 1), padding=(1, 1), bias=False)
    )
    (3): Bottleneck(
      (bn_1): BatchNorm2d(300, eps=1e-05, momentum=0.1, affine=True, track_running_stats=True)
      (conv_1): Conv2d(300, 80, kernel_size=(1, 1), stride=(1, 1), bias=False)
      (bn_2): BatchNorm2d(80, eps=1e-05, momentum=0.1, affine=True, track_running_stats=True)
      (conv_2): Conv2d(80, 20, kernel_size=(3, 3), stride=(1, 1), padding=(1, 1), bias=False)
    )
    (4): Bottleneck(
      (bn_1): BatchNorm2d(320, eps=1e-05, momentum=0.1, affine=True, track_running_stats=True)
      (conv_1): Conv2d(320, 80, kernel_size=(1, 1), stride=(1, 1), bias=False)
      (bn_2): BatchNorm2d(80, eps=1e-05, momentum=0.1, affine=True, track_running_stats=True)
      (conv_2): Conv2d(80, 20, kernel_size=(3, 3), stride=(1, 1), padding=(1, 1), bias=False)
    )
    (5): Bottleneck(
      (bn_1): BatchNorm2d(340, eps=1e-05, momentum=0.1, affine=True, track_running_stats=True)
      (conv_1): Conv2d(340, 80, kernel_size=(1, 1), stride=(1, 1), bias=False)
      (bn_2): BatchNorm2d(80, eps=1e-05, momentum=0.1, affine=True, track_running_stats=True)
      (conv_2): Conv2d(80, 20, kernel_size=(3, 3), stride=(1, 1), padding=(1, 1), bias=False)
    )
    (6): Bottleneck(
      (bn_1): BatchNorm2d(360, eps=1e-05, momentum=0.1, affine=True, track_running_stats=True)
      (conv_1): Conv2d(360, 80, kernel_size=(1, 1), stride=(1, 1), bias=False)
      (bn_2): BatchNorm2d(80, eps=1e-05, momentum=0.1, affine=True, track_running_stats=True)
      (conv_2): Conv2d(80, 20, kernel_size=(3, 3), stride=(1, 1), padding=(1, 1), bias=False)
    )
    (7): Bottleneck(
      (bn_1): BatchNorm2d(380, eps=1e-05, momentum=0.1, affine=True, track_running_stats=True)
      (conv_1): Conv2d(380, 80, kernel_size=(1, 1), stride=(1, 1), bias=False)
      (bn_2): BatchNorm2d(80, eps=1e-05, momentum=0.1, affine=True, track_running_stats=True)
      (conv_2): Conv2d(80, 20, kernel_size=(3, 3), stride=(1, 1), padding=(1, 1), bias=False)
    )
    (8): Bottleneck(
      (bn_1): BatchNorm2d(400, eps=1e-05, momentum=0.1, affine=True, track_running_stats=True)
      (conv_1): Conv2d(400, 80, kernel_size=(1, 1), stride=(1, 1), bias=False)
      (bn_2): BatchNorm2d(80, eps=1e-05, momentum=0.1, affine=True, track_running_stats=True)
      (conv_2): Conv2d(80, 20, kernel_size=(3, 3), stride=(1, 1), padding=(1, 1), bias=False)
    )
    (9): Bottleneck(
      (bn_1): BatchNorm2d(420, eps=1e-05, momentum=0.1, affine=True, track_running_stats=True)
      (conv_1): Conv2d(420, 80, kernel_size=(1, 1), stride=(1, 1), bias=False)
      (bn_2): BatchNorm2d(80, eps=1e-05, momentum=0.1, affine=True, track_running_stats=True)
      (conv_2): Conv2d(80, 20, kernel_size=(3, 3), stride=(1, 1), padding=(1, 1), bias=False)
    )
    (10): Bottleneck(
      (bn_1): BatchNorm2d(440, eps=1e-05, momentum=0.1, affine=True, track_running_stats=True)
      (conv_1): Conv2d(440, 80, kernel_size=(1, 1), stride=(1, 1), bias=False)
      (bn_2): BatchNorm2d(80, eps=1e-05, momentum=0.1, affine=True, track_running_stats=True)
      (conv_2): Conv2d(80, 20, kernel_size=(3, 3), stride=(1, 1), padding=(1, 1), bias=False)
    )
    (11): Bottleneck(
      (bn_1): BatchNorm2d(460, eps=1e-05, momentum=0.1, affine=True, track_running_stats=True)
      (conv_1): Conv2d(460, 80, kernel_size=(1, 1), stride=(1, 1), bias=False)
      (bn_2): BatchNorm2d(80, eps=1e-05, momentum=0.1, affine=True, track_running_stats=True)
      (conv_2): Conv2d(80, 20, kernel_size=(3, 3), stride=(1, 1), padding=(1, 1), bias=False)
    )
    (12): Bottleneck(
      (bn_1): BatchNorm2d(480, eps=1e-05, momentum=0.1, affine=True, track_running_stats=True)
      (conv_1): Conv2d(480, 80, kernel_size=(1, 1), stride=(1, 1), bias=False)
      (bn_2): BatchNorm2d(80, eps=1e-05, momentum=0.1, affine=True, track_running_stats=True)
      (conv_2): Conv2d(80, 20, kernel_size=(3, 3), stride=(1, 1), padding=(1, 1), bias=False)
    )
    (13): Bottleneck(
      (bn_1): BatchNorm2d(500, eps=1e-05, momentum=0.1, affine=True, track_running_stats=True)
      (conv_1): Conv2d(500, 80, kernel_size=(1, 1), stride=(1, 1), bias=False)
      (bn_2): BatchNorm2d(80, eps=1e-05, momentum=0.1, affine=True, track_running_stats=True)
      (conv_2): Conv2d(80, 20, kernel_size=(3, 3), stride=(1, 1), padding=(1, 1), bias=False)
    )
    (14): Bottleneck(
      (bn_1): BatchNorm2d(520, eps=1e-05, momentum=0.1, affine=True, track_running_stats=True)
      (conv_1): Conv2d(520, 80, kernel_size=(1, 1), stride=(1, 1), bias=False)
      (bn_2): BatchNorm2d(80, eps=1e-05, momentum=0.1, affine=True, track_running_stats=True)
      (conv_2): Conv2d(80, 20, kernel_size=(3, 3), stride=(1, 1), padding=(1, 1), bias=False)
    )
    (15): Bottleneck(
      (bn_1): BatchNorm2d(540, eps=1e-05, momentum=0.1, affine=True, track_running_stats=True)
      (conv_1): Conv2d(540, 80, kernel_size=(1, 1), stride=(1, 1), bias=False)
      (bn_2): BatchNorm2d(80, eps=1e-05, momentum=0.1, affine=True, track_running_stats=True)
      (conv_2): Conv2d(80, 20, kernel_size=(3, 3), stride=(1, 1), padding=(1, 1), bias=False)
    )
    (16): Bottleneck(
      (bn_1): BatchNorm2d(560, eps=1e-05, momentum=0.1, affine=True, track_running_stats=True)
      (conv_1): Conv2d(560, 80, kernel_size=(1, 1), stride=(1, 1), bias=False)
      (bn_2): BatchNorm2d(80, eps=1e-05, momentum=0.1, affine=True, track_running_stats=True)
      (conv_2): Conv2d(80, 20, kernel_size=(3, 3), stride=(1, 1), padding=(1, 1), bias=False)
    )
    (17): Bottleneck(
      (bn_1): BatchNorm2d(580, eps=1e-05, momentum=0.1, affine=True, track_running_stats=True)
      (conv_1): Conv2d(580, 80, kernel_size=(1, 1), stride=(1, 1), bias=False)
      (bn_2): BatchNorm2d(80, eps=1e-05, momentum=0.1, affine=True, track_running_stats=True)
      (conv_2): Conv2d(80, 20, kernel_size=(3, 3), stride=(1, 1), padding=(1, 1), bias=False)
    )
    (18): Bottleneck(
      (bn_1): BatchNorm2d(600, eps=1e-05, momentum=0.1, affine=True, track_running_stats=True)
      (conv_1): Conv2d(600, 80, kernel_size=(1, 1), stride=(1, 1), bias=False)
      (bn_2): BatchNorm2d(80, eps=1e-05, momentum=0.1, affine=True, track_running_stats=True)
      (conv_2): Conv2d(80, 20, kernel_size=(3, 3), stride=(1, 1), padding=(1, 1), bias=False)
    )
    (19): Bottleneck(
      (bn_1): BatchNorm2d(620, eps=1e-05, momentum=0.1, affine=True, track_running_stats=True)
      (conv_1): Conv2d(620, 80, kernel_size=(1, 1), stride=(1, 1), bias=False)
      (bn_2): BatchNorm2d(80, eps=1e-05, momentum=0.1, affine=True, track_running_stats=True)
      (conv_2): Conv2d(80, 20, kernel_size=(3, 3), stride=(1, 1), padding=(1, 1), bias=False)
    )
    (20): Bottleneck(
      (bn_1): BatchNorm2d(640, eps=1e-05, momentum=0.1, affine=True, track_running_stats=True)
      (conv_1): Conv2d(640, 80, kernel_size=(1, 1), stride=(1, 1), bias=False)
      (bn_2): BatchNorm2d(80, eps=1e-05, momentum=0.1, affine=True, track_running_stats=True)
      (conv_2): Conv2d(80, 20, kernel_size=(3, 3), stride=(1, 1), padding=(1, 1), bias=False)
    )
    (21): Bottleneck(
      (bn_1): BatchNorm2d(660, eps=1e-05, momentum=0.1, affine=True, track_running_stats=True)
      (conv_1): Conv2d(660, 80, kernel_size=(1, 1), stride=(1, 1), bias=False)
      (bn_2): BatchNorm2d(80, eps=1e-05, momentum=0.1, affine=True, track_running_stats=True)
      (conv_2): Conv2d(80, 20, kernel_size=(3, 3), stride=(1, 1), padding=(1, 1), bias=False)
    )
  )
  (trans_2): Transition(
    (bn): BatchNorm2d(680, eps=1e-05, momentum=0.1, affine=True, track_running_stats=True)
    (conv): Conv2d(680, 340, kernel_size=(1, 1), stride=(1, 1), bias=False)
  )
  (dense_3): Sequential(
    (0): Bottleneck(
      (bn_1): BatchNorm2d(340, eps=1e-05, momentum=0.1, affine=True, track_running_stats=True)
      (conv_1): Conv2d(340, 80, kernel_size=(1, 1), stride=(1, 1), bias=False)
      (bn_2): BatchNorm2d(80, eps=1e-05, momentum=0.1, affine=True, track_running_stats=True)
      (conv_2): Conv2d(80, 20, kernel_size=(3, 3), stride=(1, 1), padding=(1, 1), bias=False)
    )
    (1): Bottleneck(
      (bn_1): BatchNorm2d(360, eps=1e-05, momentum=0.1, affine=True, track_running_stats=True)
      (conv_1): Conv2d(360, 80, kernel_size=(1, 1), stride=(1, 1), bias=False)
      (bn_2): BatchNorm2d(80, eps=1e-05, momentum=0.1, affine=True, track_running_stats=True)
      (conv_2): Conv2d(80, 20, kernel_size=(3, 3), stride=(1, 1), padding=(1, 1), bias=False)
    )
    (2): Bottleneck(
      (bn_1): BatchNorm2d(380, eps=1e-05, momentum=0.1, affine=True, track_running_stats=True)
      (conv_1): Conv2d(380, 80, kernel_size=(1, 1), stride=(1, 1), bias=False)
      (bn_2): BatchNorm2d(80, eps=1e-05, momentum=0.1, affine=True, track_running_stats=True)
      (conv_2): Conv2d(80, 20, kernel_size=(3, 3), stride=(1, 1), padding=(1, 1), bias=False)
    )
    (3): Bottleneck(
      (bn_1): BatchNorm2d(400, eps=1e-05, momentum=0.1, affine=True, track_running_stats=True)
      (conv_1): Conv2d(400, 80, kernel_size=(1, 1), stride=(1, 1), bias=False)
      (bn_2): BatchNorm2d(80, eps=1e-05, momentum=0.1, affine=True, track_running_stats=True)
      (conv_2): Conv2d(80, 20, kernel_size=(3, 3), stride=(1, 1), padding=(1, 1), bias=False)
    )
    (4): Bottleneck(
      (bn_1): BatchNorm2d(420, eps=1e-05, momentum=0.1, affine=True, track_running_stats=True)
      (conv_1): Conv2d(420, 80, kernel_size=(1, 1), stride=(1, 1), bias=False)
      (bn_2): BatchNorm2d(80, eps=1e-05, momentum=0.1, affine=True, track_running_stats=True)
      (conv_2): Conv2d(80, 20, kernel_size=(3, 3), stride=(1, 1), padding=(1, 1), bias=False)
    )
    (5): Bottleneck(
      (bn_1): BatchNorm2d(440, eps=1e-05, momentum=0.1, affine=True, track_running_stats=True)
      (conv_1): Conv2d(440, 80, kernel_size=(1, 1), stride=(1, 1), bias=False)
      (bn_2): BatchNorm2d(80, eps=1e-05, momentum=0.1, affine=True, track_running_stats=True)
      (conv_2): Conv2d(80, 20, kernel_size=(3, 3), stride=(1, 1), padding=(1, 1), bias=False)
    )
    (6): Bottleneck(
      (bn_1): BatchNorm2d(460, eps=1e-05, momentum=0.1, affine=True, track_running_stats=True)
      (conv_1): Conv2d(460, 80, kernel_size=(1, 1), stride=(1, 1), bias=False)
      (bn_2): BatchNorm2d(80, eps=1e-05, momentum=0.1, affine=True, track_running_stats=True)
      (conv_2): Conv2d(80, 20, kernel_size=(3, 3), stride=(1, 1), padding=(1, 1), bias=False)
    )
    (7): Bottleneck(
      (bn_1): BatchNorm2d(480, eps=1e-05, momentum=0.1, affine=True, track_running_stats=True)
      (conv_1): Conv2d(480, 80, kernel_size=(1, 1), stride=(1, 1), bias=False)
      (bn_2): BatchNorm2d(80, eps=1e-05, momentum=0.1, affine=True, track_running_stats=True)
      (conv_2): Conv2d(80, 20, kernel_size=(3, 3), stride=(1, 1), padding=(1, 1), bias=False)
    )
    (8): Bottleneck(
      (bn_1): BatchNorm2d(500, eps=1e-05, momentum=0.1, affine=True, track_running_stats=True)
      (conv_1): Conv2d(500, 80, kernel_size=(1, 1), stride=(1, 1), bias=False)
      (bn_2): BatchNorm2d(80, eps=1e-05, momentum=0.1, affine=True, track_running_stats=True)
      (conv_2): Conv2d(80, 20, kernel_size=(3, 3), stride=(1, 1), padding=(1, 1), bias=False)
    )
    (9): Bottleneck(
      (bn_1): BatchNorm2d(520, eps=1e-05, momentum=0.1, affine=True, track_running_stats=True)
      (conv_1): Conv2d(520, 80, kernel_size=(1, 1), stride=(1, 1), bias=False)
      (bn_2): BatchNorm2d(80, eps=1e-05, momentum=0.1, affine=True, track_running_stats=True)
      (conv_2): Conv2d(80, 20, kernel_size=(3, 3), stride=(1, 1), padding=(1, 1), bias=False)
    )
    (10): Bottleneck(
      (bn_1): BatchNorm2d(540, eps=1e-05, momentum=0.1, affine=True, track_running_stats=True)
      (conv_1): Conv2d(540, 80, kernel_size=(1, 1), stride=(1, 1), bias=False)
      (bn_2): BatchNorm2d(80, eps=1e-05, momentum=0.1, affine=True, track_running_stats=True)
      (conv_2): Conv2d(80, 20, kernel_size=(3, 3), stride=(1, 1), padding=(1, 1), bias=False)
    )
    (11): Bottleneck(
      (bn_1): BatchNorm2d(560, eps=1e-05, momentum=0.1, affine=True, track_running_stats=True)
      (conv_1): Conv2d(560, 80, kernel_size=(1, 1), stride=(1, 1), bias=False)
      (bn_2): BatchNorm2d(80, eps=1e-05, momentum=0.1, affine=True, track_running_stats=True)
      (conv_2): Conv2d(80, 20, kernel_size=(3, 3), stride=(1, 1), padding=(1, 1), bias=False)
    )
    (12): Bottleneck(
      (bn_1): BatchNorm2d(580, eps=1e-05, momentum=0.1, affine=True, track_running_stats=True)
      (conv_1): Conv2d(580, 80, kernel_size=(1, 1), stride=(1, 1), bias=False)
      (bn_2): BatchNorm2d(80, eps=1e-05, momentum=0.1, affine=True, track_running_stats=True)
      (conv_2): Conv2d(80, 20, kernel_size=(3, 3), stride=(1, 1), padding=(1, 1), bias=False)
    )
    (13): Bottleneck(
      (bn_1): BatchNorm2d(600, eps=1e-05, momentum=0.1, affine=True, track_running_stats=True)
      (conv_1): Conv2d(600, 80, kernel_size=(1, 1), stride=(1, 1), bias=False)
      (bn_2): BatchNorm2d(80, eps=1e-05, momentum=0.1, affine=True, track_running_stats=True)
      (conv_2): Conv2d(80, 20, kernel_size=(3, 3), stride=(1, 1), padding=(1, 1), bias=False)
    )
    (14): Bottleneck(
      (bn_1): BatchNorm2d(620, eps=1e-05, momentum=0.1, affine=True, track_running_stats=True)
      (conv_1): Conv2d(620, 80, kernel_size=(1, 1), stride=(1, 1), bias=False)
      (bn_2): BatchNorm2d(80, eps=1e-05, momentum=0.1, affine=True, track_running_stats=True)
      (conv_2): Conv2d(80, 20, kernel_size=(3, 3), stride=(1, 1), padding=(1, 1), bias=False)
    )
    (15): Bottleneck(
      (bn_1): BatchNorm2d(640, eps=1e-05, momentum=0.1, affine=True, track_running_stats=True)
      (conv_1): Conv2d(640, 80, kernel_size=(1, 1), stride=(1, 1), bias=False)
      (bn_2): BatchNorm2d(80, eps=1e-05, momentum=0.1, affine=True, track_running_stats=True)
      (conv_2): Conv2d(80, 20, kernel_size=(3, 3), stride=(1, 1), padding=(1, 1), bias=False)
    )
    (16): Bottleneck(
      (bn_1): BatchNorm2d(660, eps=1e-05, momentum=0.1, affine=True, track_running_stats=True)
      (conv_1): Conv2d(660, 80, kernel_size=(1, 1), stride=(1, 1), bias=False)
      (bn_2): BatchNorm2d(80, eps=1e-05, momentum=0.1, affine=True, track_running_stats=True)
      (conv_2): Conv2d(80, 20, kernel_size=(3, 3), stride=(1, 1), padding=(1, 1), bias=False)
    )
    (17): Bottleneck(
      (bn_1): BatchNorm2d(680, eps=1e-05, momentum=0.1, affine=True, track_running_stats=True)
      (conv_1): Conv2d(680, 80, kernel_size=(1, 1), stride=(1, 1), bias=False)
      (bn_2): BatchNorm2d(80, eps=1e-05, momentum=0.1, affine=True, track_running_stats=True)
      (conv_2): Conv2d(80, 20, kernel_size=(3, 3), stride=(1, 1), padding=(1, 1), bias=False)
    )
    (18): Bottleneck(
      (bn_1): BatchNorm2d(700, eps=1e-05, momentum=0.1, affine=True, track_running_stats=True)
      (conv_1): Conv2d(700, 80, kernel_size=(1, 1), stride=(1, 1), bias=False)
      (bn_2): BatchNorm2d(80, eps=1e-05, momentum=0.1, affine=True, track_running_stats=True)
      (conv_2): Conv2d(80, 20, kernel_size=(3, 3), stride=(1, 1), padding=(1, 1), bias=False)
    )
    (19): Bottleneck(
      (bn_1): BatchNorm2d(720, eps=1e-05, momentum=0.1, affine=True, track_running_stats=True)
      (conv_1): Conv2d(720, 80, kernel_size=(1, 1), stride=(1, 1), bias=False)
      (bn_2): BatchNorm2d(80, eps=1e-05, momentum=0.1, affine=True, track_running_stats=True)
      (conv_2): Conv2d(80, 20, kernel_size=(3, 3), stride=(1, 1), padding=(1, 1), bias=False)
    )
    (20): Bottleneck(
      (bn_1): BatchNorm2d(740, eps=1e-05, momentum=0.1, affine=True, track_running_stats=True)
      (conv_1): Conv2d(740, 80, kernel_size=(1, 1), stride=(1, 1), bias=False)
      (bn_2): BatchNorm2d(80, eps=1e-05, momentum=0.1, affine=True, track_running_stats=True)
      (conv_2): Conv2d(80, 20, kernel_size=(3, 3), stride=(1, 1), padding=(1, 1), bias=False)
    )
    (21): Bottleneck(
      (bn_1): BatchNorm2d(760, eps=1e-05, momentum=0.1, affine=True, track_running_stats=True)
      (conv_1): Conv2d(760, 80, kernel_size=(1, 1), stride=(1, 1), bias=False)
      (bn_2): BatchNorm2d(80, eps=1e-05, momentum=0.1, affine=True, track_running_stats=True)
      (conv_2): Conv2d(80, 20, kernel_size=(3, 3), stride=(1, 1), padding=(1, 1), bias=False)
    )
  )
  (bn): BatchNorm2d(780, eps=1e-05, momentum=0.1, affine=True, track_running_stats=True)
  (fc): Linear(in_features=780, out_features=10, bias=True)
)
[2019-10-21 15:14:09,215] - [train.py line:148] :  == total parameters: 3575130
[2019-10-21 15:14:19,924] - [train.py line:187] :             =======  Training  =======

[2019-10-21 15:14:19,931] - [train.py line:39] :  === Epoch: [1/300] === 
[2019-10-21 15:18:22,227] - [train.py line:143] : {'architecture': 'densenet150bc', 'data_path': './data', 'ckpt_path': './', 'ckpt_name': 'densenet150bc', 'num_classes': 10, 'dataset': 'cifar10', 'use_gpu': True, 'input_size': 32, 'epochs': 300, 'batch_size': 256, 'test_batch': 200, 'eval_freq': 2, 'workers': 6, 'optimize': {'momentum': 0.9, 'weight_decay': 0.0001, 'nesterov': True}, 'mixup': False, 'mixup_alpha': 0.4, 'augmentation': {'normalize': True, 'random_crop': True, 'random_horizontal_filp': True, 'cutout': False, 'holes': 1, 'length': 8}, 'lr_scheduler': {'type': 'STEP', 'base_lr': 0.1, 'lr_epochs': [150, 225], 'lr_mults': 0.1, 'min_lr': 0.0, 'lower_bound': -6.0, 'upper_bound': 3.0}}
[2019-10-21 15:18:22,405] - [train.py line:147] : DenseNet(
  (conv_1): Conv2d(3, 40, kernel_size=(3, 3), stride=(1, 1), padding=(1, 1), bias=False)
  (dense1): Sequential(
    (0): Bottleneck(
      (bn_1): BatchNorm2d(40, eps=1e-05, momentum=0.1, affine=True, track_running_stats=True)
      (conv_1): Conv2d(40, 80, kernel_size=(1, 1), stride=(1, 1), bias=False)
      (bn_2): BatchNorm2d(80, eps=1e-05, momentum=0.1, affine=True, track_running_stats=True)
      (conv_2): Conv2d(80, 20, kernel_size=(3, 3), stride=(1, 1), padding=(1, 1), bias=False)
    )
    (1): Bottleneck(
      (bn_1): BatchNorm2d(60, eps=1e-05, momentum=0.1, affine=True, track_running_stats=True)
      (conv_1): Conv2d(60, 80, kernel_size=(1, 1), stride=(1, 1), bias=False)
      (bn_2): BatchNorm2d(80, eps=1e-05, momentum=0.1, affine=True, track_running_stats=True)
      (conv_2): Conv2d(80, 20, kernel_size=(3, 3), stride=(1, 1), padding=(1, 1), bias=False)
    )
    (2): Bottleneck(
      (bn_1): BatchNorm2d(80, eps=1e-05, momentum=0.1, affine=True, track_running_stats=True)
      (conv_1): Conv2d(80, 80, kernel_size=(1, 1), stride=(1, 1), bias=False)
      (bn_2): BatchNorm2d(80, eps=1e-05, momentum=0.1, affine=True, track_running_stats=True)
      (conv_2): Conv2d(80, 20, kernel_size=(3, 3), stride=(1, 1), padding=(1, 1), bias=False)
    )
    (3): Bottleneck(
      (bn_1): BatchNorm2d(100, eps=1e-05, momentum=0.1, affine=True, track_running_stats=True)
      (conv_1): Conv2d(100, 80, kernel_size=(1, 1), stride=(1, 1), bias=False)
      (bn_2): BatchNorm2d(80, eps=1e-05, momentum=0.1, affine=True, track_running_stats=True)
      (conv_2): Conv2d(80, 20, kernel_size=(3, 3), stride=(1, 1), padding=(1, 1), bias=False)
    )
    (4): Bottleneck(
      (bn_1): BatchNorm2d(120, eps=1e-05, momentum=0.1, affine=True, track_running_stats=True)
      (conv_1): Conv2d(120, 80, kernel_size=(1, 1), stride=(1, 1), bias=False)
      (bn_2): BatchNorm2d(80, eps=1e-05, momentum=0.1, affine=True, track_running_stats=True)
      (conv_2): Conv2d(80, 20, kernel_size=(3, 3), stride=(1, 1), padding=(1, 1), bias=False)
    )
    (5): Bottleneck(
      (bn_1): BatchNorm2d(140, eps=1e-05, momentum=0.1, affine=True, track_running_stats=True)
      (conv_1): Conv2d(140, 80, kernel_size=(1, 1), stride=(1, 1), bias=False)
      (bn_2): BatchNorm2d(80, eps=1e-05, momentum=0.1, affine=True, track_running_stats=True)
      (conv_2): Conv2d(80, 20, kernel_size=(3, 3), stride=(1, 1), padding=(1, 1), bias=False)
    )
    (6): Bottleneck(
      (bn_1): BatchNorm2d(160, eps=1e-05, momentum=0.1, affine=True, track_running_stats=True)
      (conv_1): Conv2d(160, 80, kernel_size=(1, 1), stride=(1, 1), bias=False)
      (bn_2): BatchNorm2d(80, eps=1e-05, momentum=0.1, affine=True, track_running_stats=True)
      (conv_2): Conv2d(80, 20, kernel_size=(3, 3), stride=(1, 1), padding=(1, 1), bias=False)
    )
    (7): Bottleneck(
      (bn_1): BatchNorm2d(180, eps=1e-05, momentum=0.1, affine=True, track_running_stats=True)
      (conv_1): Conv2d(180, 80, kernel_size=(1, 1), stride=(1, 1), bias=False)
      (bn_2): BatchNorm2d(80, eps=1e-05, momentum=0.1, affine=True, track_running_stats=True)
      (conv_2): Conv2d(80, 20, kernel_size=(3, 3), stride=(1, 1), padding=(1, 1), bias=False)
    )
    (8): Bottleneck(
      (bn_1): BatchNorm2d(200, eps=1e-05, momentum=0.1, affine=True, track_running_stats=True)
      (conv_1): Conv2d(200, 80, kernel_size=(1, 1), stride=(1, 1), bias=False)
      (bn_2): BatchNorm2d(80, eps=1e-05, momentum=0.1, affine=True, track_running_stats=True)
      (conv_2): Conv2d(80, 20, kernel_size=(3, 3), stride=(1, 1), padding=(1, 1), bias=False)
    )
    (9): Bottleneck(
      (bn_1): BatchNorm2d(220, eps=1e-05, momentum=0.1, affine=True, track_running_stats=True)
      (conv_1): Conv2d(220, 80, kernel_size=(1, 1), stride=(1, 1), bias=False)
      (bn_2): BatchNorm2d(80, eps=1e-05, momentum=0.1, affine=True, track_running_stats=True)
      (conv_2): Conv2d(80, 20, kernel_size=(3, 3), stride=(1, 1), padding=(1, 1), bias=False)
    )
    (10): Bottleneck(
      (bn_1): BatchNorm2d(240, eps=1e-05, momentum=0.1, affine=True, track_running_stats=True)
      (conv_1): Conv2d(240, 80, kernel_size=(1, 1), stride=(1, 1), bias=False)
      (bn_2): BatchNorm2d(80, eps=1e-05, momentum=0.1, affine=True, track_running_stats=True)
      (conv_2): Conv2d(80, 20, kernel_size=(3, 3), stride=(1, 1), padding=(1, 1), bias=False)
    )
    (11): Bottleneck(
      (bn_1): BatchNorm2d(260, eps=1e-05, momentum=0.1, affine=True, track_running_stats=True)
      (conv_1): Conv2d(260, 80, kernel_size=(1, 1), stride=(1, 1), bias=False)
      (bn_2): BatchNorm2d(80, eps=1e-05, momentum=0.1, affine=True, track_running_stats=True)
      (conv_2): Conv2d(80, 20, kernel_size=(3, 3), stride=(1, 1), padding=(1, 1), bias=False)
    )
    (12): Bottleneck(
      (bn_1): BatchNorm2d(280, eps=1e-05, momentum=0.1, affine=True, track_running_stats=True)
      (conv_1): Conv2d(280, 80, kernel_size=(1, 1), stride=(1, 1), bias=False)
      (bn_2): BatchNorm2d(80, eps=1e-05, momentum=0.1, affine=True, track_running_stats=True)
      (conv_2): Conv2d(80, 20, kernel_size=(3, 3), stride=(1, 1), padding=(1, 1), bias=False)
    )
    (13): Bottleneck(
      (bn_1): BatchNorm2d(300, eps=1e-05, momentum=0.1, affine=True, track_running_stats=True)
      (conv_1): Conv2d(300, 80, kernel_size=(1, 1), stride=(1, 1), bias=False)
      (bn_2): BatchNorm2d(80, eps=1e-05, momentum=0.1, affine=True, track_running_stats=True)
      (conv_2): Conv2d(80, 20, kernel_size=(3, 3), stride=(1, 1), padding=(1, 1), bias=False)
    )
    (14): Bottleneck(
      (bn_1): BatchNorm2d(320, eps=1e-05, momentum=0.1, affine=True, track_running_stats=True)
      (conv_1): Conv2d(320, 80, kernel_size=(1, 1), stride=(1, 1), bias=False)
      (bn_2): BatchNorm2d(80, eps=1e-05, momentum=0.1, affine=True, track_running_stats=True)
      (conv_2): Conv2d(80, 20, kernel_size=(3, 3), stride=(1, 1), padding=(1, 1), bias=False)
    )
    (15): Bottleneck(
      (bn_1): BatchNorm2d(340, eps=1e-05, momentum=0.1, affine=True, track_running_stats=True)
      (conv_1): Conv2d(340, 80, kernel_size=(1, 1), stride=(1, 1), bias=False)
      (bn_2): BatchNorm2d(80, eps=1e-05, momentum=0.1, affine=True, track_running_stats=True)
      (conv_2): Conv2d(80, 20, kernel_size=(3, 3), stride=(1, 1), padding=(1, 1), bias=False)
    )
    (16): Bottleneck(
      (bn_1): BatchNorm2d(360, eps=1e-05, momentum=0.1, affine=True, track_running_stats=True)
      (conv_1): Conv2d(360, 80, kernel_size=(1, 1), stride=(1, 1), bias=False)
      (bn_2): BatchNorm2d(80, eps=1e-05, momentum=0.1, affine=True, track_running_stats=True)
      (conv_2): Conv2d(80, 20, kernel_size=(3, 3), stride=(1, 1), padding=(1, 1), bias=False)
    )
    (17): Bottleneck(
      (bn_1): BatchNorm2d(380, eps=1e-05, momentum=0.1, affine=True, track_running_stats=True)
      (conv_1): Conv2d(380, 80, kernel_size=(1, 1), stride=(1, 1), bias=False)
      (bn_2): BatchNorm2d(80, eps=1e-05, momentum=0.1, affine=True, track_running_stats=True)
      (conv_2): Conv2d(80, 20, kernel_size=(3, 3), stride=(1, 1), padding=(1, 1), bias=False)
    )
    (18): Bottleneck(
      (bn_1): BatchNorm2d(400, eps=1e-05, momentum=0.1, affine=True, track_running_stats=True)
      (conv_1): Conv2d(400, 80, kernel_size=(1, 1), stride=(1, 1), bias=False)
      (bn_2): BatchNorm2d(80, eps=1e-05, momentum=0.1, affine=True, track_running_stats=True)
      (conv_2): Conv2d(80, 20, kernel_size=(3, 3), stride=(1, 1), padding=(1, 1), bias=False)
    )
    (19): Bottleneck(
      (bn_1): BatchNorm2d(420, eps=1e-05, momentum=0.1, affine=True, track_running_stats=True)
      (conv_1): Conv2d(420, 80, kernel_size=(1, 1), stride=(1, 1), bias=False)
      (bn_2): BatchNorm2d(80, eps=1e-05, momentum=0.1, affine=True, track_running_stats=True)
      (conv_2): Conv2d(80, 20, kernel_size=(3, 3), stride=(1, 1), padding=(1, 1), bias=False)
    )
    (20): Bottleneck(
      (bn_1): BatchNorm2d(440, eps=1e-05, momentum=0.1, affine=True, track_running_stats=True)
      (conv_1): Conv2d(440, 80, kernel_size=(1, 1), stride=(1, 1), bias=False)
      (bn_2): BatchNorm2d(80, eps=1e-05, momentum=0.1, affine=True, track_running_stats=True)
      (conv_2): Conv2d(80, 20, kernel_size=(3, 3), stride=(1, 1), padding=(1, 1), bias=False)
    )
    (21): Bottleneck(
      (bn_1): BatchNorm2d(460, eps=1e-05, momentum=0.1, affine=True, track_running_stats=True)
      (conv_1): Conv2d(460, 80, kernel_size=(1, 1), stride=(1, 1), bias=False)
      (bn_2): BatchNorm2d(80, eps=1e-05, momentum=0.1, affine=True, track_running_stats=True)
      (conv_2): Conv2d(80, 20, kernel_size=(3, 3), stride=(1, 1), padding=(1, 1), bias=False)
    )
    (22): Bottleneck(
      (bn_1): BatchNorm2d(480, eps=1e-05, momentum=0.1, affine=True, track_running_stats=True)
      (conv_1): Conv2d(480, 80, kernel_size=(1, 1), stride=(1, 1), bias=False)
      (bn_2): BatchNorm2d(80, eps=1e-05, momentum=0.1, affine=True, track_running_stats=True)
      (conv_2): Conv2d(80, 20, kernel_size=(3, 3), stride=(1, 1), padding=(1, 1), bias=False)
    )
    (23): Bottleneck(
      (bn_1): BatchNorm2d(500, eps=1e-05, momentum=0.1, affine=True, track_running_stats=True)
      (conv_1): Conv2d(500, 80, kernel_size=(1, 1), stride=(1, 1), bias=False)
      (bn_2): BatchNorm2d(80, eps=1e-05, momentum=0.1, affine=True, track_running_stats=True)
      (conv_2): Conv2d(80, 20, kernel_size=(3, 3), stride=(1, 1), padding=(1, 1), bias=False)
    )
  )
  (trans_1): Transition(
    (bn): BatchNorm2d(520, eps=1e-05, momentum=0.1, affine=True, track_running_stats=True)
    (conv): Conv2d(520, 260, kernel_size=(1, 1), stride=(1, 1), bias=False)
  )
  (dense2): Sequential(
    (0): Bottleneck(
      (bn_1): BatchNorm2d(260, eps=1e-05, momentum=0.1, affine=True, track_running_stats=True)
      (conv_1): Conv2d(260, 80, kernel_size=(1, 1), stride=(1, 1), bias=False)
      (bn_2): BatchNorm2d(80, eps=1e-05, momentum=0.1, affine=True, track_running_stats=True)
      (conv_2): Conv2d(80, 20, kernel_size=(3, 3), stride=(1, 1), padding=(1, 1), bias=False)
    )
    (1): Bottleneck(
      (bn_1): BatchNorm2d(280, eps=1e-05, momentum=0.1, affine=True, track_running_stats=True)
      (conv_1): Conv2d(280, 80, kernel_size=(1, 1), stride=(1, 1), bias=False)
      (bn_2): BatchNorm2d(80, eps=1e-05, momentum=0.1, affine=True, track_running_stats=True)
      (conv_2): Conv2d(80, 20, kernel_size=(3, 3), stride=(1, 1), padding=(1, 1), bias=False)
    )
    (2): Bottleneck(
      (bn_1): BatchNorm2d(300, eps=1e-05, momentum=0.1, affine=True, track_running_stats=True)
      (conv_1): Conv2d(300, 80, kernel_size=(1, 1), stride=(1, 1), bias=False)
      (bn_2): BatchNorm2d(80, eps=1e-05, momentum=0.1, affine=True, track_running_stats=True)
      (conv_2): Conv2d(80, 20, kernel_size=(3, 3), stride=(1, 1), padding=(1, 1), bias=False)
    )
    (3): Bottleneck(
      (bn_1): BatchNorm2d(320, eps=1e-05, momentum=0.1, affine=True, track_running_stats=True)
      (conv_1): Conv2d(320, 80, kernel_size=(1, 1), stride=(1, 1), bias=False)
      (bn_2): BatchNorm2d(80, eps=1e-05, momentum=0.1, affine=True, track_running_stats=True)
      (conv_2): Conv2d(80, 20, kernel_size=(3, 3), stride=(1, 1), padding=(1, 1), bias=False)
    )
    (4): Bottleneck(
      (bn_1): BatchNorm2d(340, eps=1e-05, momentum=0.1, affine=True, track_running_stats=True)
      (conv_1): Conv2d(340, 80, kernel_size=(1, 1), stride=(1, 1), bias=False)
      (bn_2): BatchNorm2d(80, eps=1e-05, momentum=0.1, affine=True, track_running_stats=True)
      (conv_2): Conv2d(80, 20, kernel_size=(3, 3), stride=(1, 1), padding=(1, 1), bias=False)
    )
    (5): Bottleneck(
      (bn_1): BatchNorm2d(360, eps=1e-05, momentum=0.1, affine=True, track_running_stats=True)
      (conv_1): Conv2d(360, 80, kernel_size=(1, 1), stride=(1, 1), bias=False)
      (bn_2): BatchNorm2d(80, eps=1e-05, momentum=0.1, affine=True, track_running_stats=True)
      (conv_2): Conv2d(80, 20, kernel_size=(3, 3), stride=(1, 1), padding=(1, 1), bias=False)
    )
    (6): Bottleneck(
      (bn_1): BatchNorm2d(380, eps=1e-05, momentum=0.1, affine=True, track_running_stats=True)
      (conv_1): Conv2d(380, 80, kernel_size=(1, 1), stride=(1, 1), bias=False)
      (bn_2): BatchNorm2d(80, eps=1e-05, momentum=0.1, affine=True, track_running_stats=True)
      (conv_2): Conv2d(80, 20, kernel_size=(3, 3), stride=(1, 1), padding=(1, 1), bias=False)
    )
    (7): Bottleneck(
      (bn_1): BatchNorm2d(400, eps=1e-05, momentum=0.1, affine=True, track_running_stats=True)
      (conv_1): Conv2d(400, 80, kernel_size=(1, 1), stride=(1, 1), bias=False)
      (bn_2): BatchNorm2d(80, eps=1e-05, momentum=0.1, affine=True, track_running_stats=True)
      (conv_2): Conv2d(80, 20, kernel_size=(3, 3), stride=(1, 1), padding=(1, 1), bias=False)
    )
    (8): Bottleneck(
      (bn_1): BatchNorm2d(420, eps=1e-05, momentum=0.1, affine=True, track_running_stats=True)
      (conv_1): Conv2d(420, 80, kernel_size=(1, 1), stride=(1, 1), bias=False)
      (bn_2): BatchNorm2d(80, eps=1e-05, momentum=0.1, affine=True, track_running_stats=True)
      (conv_2): Conv2d(80, 20, kernel_size=(3, 3), stride=(1, 1), padding=(1, 1), bias=False)
    )
    (9): Bottleneck(
      (bn_1): BatchNorm2d(440, eps=1e-05, momentum=0.1, affine=True, track_running_stats=True)
      (conv_1): Conv2d(440, 80, kernel_size=(1, 1), stride=(1, 1), bias=False)
      (bn_2): BatchNorm2d(80, eps=1e-05, momentum=0.1, affine=True, track_running_stats=True)
      (conv_2): Conv2d(80, 20, kernel_size=(3, 3), stride=(1, 1), padding=(1, 1), bias=False)
    )
    (10): Bottleneck(
      (bn_1): BatchNorm2d(460, eps=1e-05, momentum=0.1, affine=True, track_running_stats=True)
      (conv_1): Conv2d(460, 80, kernel_size=(1, 1), stride=(1, 1), bias=False)
      (bn_2): BatchNorm2d(80, eps=1e-05, momentum=0.1, affine=True, track_running_stats=True)
      (conv_2): Conv2d(80, 20, kernel_size=(3, 3), stride=(1, 1), padding=(1, 1), bias=False)
    )
    (11): Bottleneck(
      (bn_1): BatchNorm2d(480, eps=1e-05, momentum=0.1, affine=True, track_running_stats=True)
      (conv_1): Conv2d(480, 80, kernel_size=(1, 1), stride=(1, 1), bias=False)
      (bn_2): BatchNorm2d(80, eps=1e-05, momentum=0.1, affine=True, track_running_stats=True)
      (conv_2): Conv2d(80, 20, kernel_size=(3, 3), stride=(1, 1), padding=(1, 1), bias=False)
    )
    (12): Bottleneck(
      (bn_1): BatchNorm2d(500, eps=1e-05, momentum=0.1, affine=True, track_running_stats=True)
      (conv_1): Conv2d(500, 80, kernel_size=(1, 1), stride=(1, 1), bias=False)
      (bn_2): BatchNorm2d(80, eps=1e-05, momentum=0.1, affine=True, track_running_stats=True)
      (conv_2): Conv2d(80, 20, kernel_size=(3, 3), stride=(1, 1), padding=(1, 1), bias=False)
    )
    (13): Bottleneck(
      (bn_1): BatchNorm2d(520, eps=1e-05, momentum=0.1, affine=True, track_running_stats=True)
      (conv_1): Conv2d(520, 80, kernel_size=(1, 1), stride=(1, 1), bias=False)
      (bn_2): BatchNorm2d(80, eps=1e-05, momentum=0.1, affine=True, track_running_stats=True)
      (conv_2): Conv2d(80, 20, kernel_size=(3, 3), stride=(1, 1), padding=(1, 1), bias=False)
    )
    (14): Bottleneck(
      (bn_1): BatchNorm2d(540, eps=1e-05, momentum=0.1, affine=True, track_running_stats=True)
      (conv_1): Conv2d(540, 80, kernel_size=(1, 1), stride=(1, 1), bias=False)
      (bn_2): BatchNorm2d(80, eps=1e-05, momentum=0.1, affine=True, track_running_stats=True)
      (conv_2): Conv2d(80, 20, kernel_size=(3, 3), stride=(1, 1), padding=(1, 1), bias=False)
    )
    (15): Bottleneck(
      (bn_1): BatchNorm2d(560, eps=1e-05, momentum=0.1, affine=True, track_running_stats=True)
      (conv_1): Conv2d(560, 80, kernel_size=(1, 1), stride=(1, 1), bias=False)
      (bn_2): BatchNorm2d(80, eps=1e-05, momentum=0.1, affine=True, track_running_stats=True)
      (conv_2): Conv2d(80, 20, kernel_size=(3, 3), stride=(1, 1), padding=(1, 1), bias=False)
    )
    (16): Bottleneck(
      (bn_1): BatchNorm2d(580, eps=1e-05, momentum=0.1, affine=True, track_running_stats=True)
      (conv_1): Conv2d(580, 80, kernel_size=(1, 1), stride=(1, 1), bias=False)
      (bn_2): BatchNorm2d(80, eps=1e-05, momentum=0.1, affine=True, track_running_stats=True)
      (conv_2): Conv2d(80, 20, kernel_size=(3, 3), stride=(1, 1), padding=(1, 1), bias=False)
    )
    (17): Bottleneck(
      (bn_1): BatchNorm2d(600, eps=1e-05, momentum=0.1, affine=True, track_running_stats=True)
      (conv_1): Conv2d(600, 80, kernel_size=(1, 1), stride=(1, 1), bias=False)
      (bn_2): BatchNorm2d(80, eps=1e-05, momentum=0.1, affine=True, track_running_stats=True)
      (conv_2): Conv2d(80, 20, kernel_size=(3, 3), stride=(1, 1), padding=(1, 1), bias=False)
    )
    (18): Bottleneck(
      (bn_1): BatchNorm2d(620, eps=1e-05, momentum=0.1, affine=True, track_running_stats=True)
      (conv_1): Conv2d(620, 80, kernel_size=(1, 1), stride=(1, 1), bias=False)
      (bn_2): BatchNorm2d(80, eps=1e-05, momentum=0.1, affine=True, track_running_stats=True)
      (conv_2): Conv2d(80, 20, kernel_size=(3, 3), stride=(1, 1), padding=(1, 1), bias=False)
    )
    (19): Bottleneck(
      (bn_1): BatchNorm2d(640, eps=1e-05, momentum=0.1, affine=True, track_running_stats=True)
      (conv_1): Conv2d(640, 80, kernel_size=(1, 1), stride=(1, 1), bias=False)
      (bn_2): BatchNorm2d(80, eps=1e-05, momentum=0.1, affine=True, track_running_stats=True)
      (conv_2): Conv2d(80, 20, kernel_size=(3, 3), stride=(1, 1), padding=(1, 1), bias=False)
    )
    (20): Bottleneck(
      (bn_1): BatchNorm2d(660, eps=1e-05, momentum=0.1, affine=True, track_running_stats=True)
      (conv_1): Conv2d(660, 80, kernel_size=(1, 1), stride=(1, 1), bias=False)
      (bn_2): BatchNorm2d(80, eps=1e-05, momentum=0.1, affine=True, track_running_stats=True)
      (conv_2): Conv2d(80, 20, kernel_size=(3, 3), stride=(1, 1), padding=(1, 1), bias=False)
    )
    (21): Bottleneck(
      (bn_1): BatchNorm2d(680, eps=1e-05, momentum=0.1, affine=True, track_running_stats=True)
      (conv_1): Conv2d(680, 80, kernel_size=(1, 1), stride=(1, 1), bias=False)
      (bn_2): BatchNorm2d(80, eps=1e-05, momentum=0.1, affine=True, track_running_stats=True)
      (conv_2): Conv2d(80, 20, kernel_size=(3, 3), stride=(1, 1), padding=(1, 1), bias=False)
    )
    (22): Bottleneck(
      (bn_1): BatchNorm2d(700, eps=1e-05, momentum=0.1, affine=True, track_running_stats=True)
      (conv_1): Conv2d(700, 80, kernel_size=(1, 1), stride=(1, 1), bias=False)
      (bn_2): BatchNorm2d(80, eps=1e-05, momentum=0.1, affine=True, track_running_stats=True)
      (conv_2): Conv2d(80, 20, kernel_size=(3, 3), stride=(1, 1), padding=(1, 1), bias=False)
    )
    (23): Bottleneck(
      (bn_1): BatchNorm2d(720, eps=1e-05, momentum=0.1, affine=True, track_running_stats=True)
      (conv_1): Conv2d(720, 80, kernel_size=(1, 1), stride=(1, 1), bias=False)
      (bn_2): BatchNorm2d(80, eps=1e-05, momentum=0.1, affine=True, track_running_stats=True)
      (conv_2): Conv2d(80, 20, kernel_size=(3, 3), stride=(1, 1), padding=(1, 1), bias=False)
    )
  )
  (trans_2): Transition(
    (bn): BatchNorm2d(740, eps=1e-05, momentum=0.1, affine=True, track_running_stats=True)
    (conv): Conv2d(740, 370, kernel_size=(1, 1), stride=(1, 1), bias=False)
  )
  (dense_3): Sequential(
    (0): Bottleneck(
      (bn_1): BatchNorm2d(370, eps=1e-05, momentum=0.1, affine=True, track_running_stats=True)
      (conv_1): Conv2d(370, 80, kernel_size=(1, 1), stride=(1, 1), bias=False)
      (bn_2): BatchNorm2d(80, eps=1e-05, momentum=0.1, affine=True, track_running_stats=True)
      (conv_2): Conv2d(80, 20, kernel_size=(3, 3), stride=(1, 1), padding=(1, 1), bias=False)
    )
    (1): Bottleneck(
      (bn_1): BatchNorm2d(390, eps=1e-05, momentum=0.1, affine=True, track_running_stats=True)
      (conv_1): Conv2d(390, 80, kernel_size=(1, 1), stride=(1, 1), bias=False)
      (bn_2): BatchNorm2d(80, eps=1e-05, momentum=0.1, affine=True, track_running_stats=True)
      (conv_2): Conv2d(80, 20, kernel_size=(3, 3), stride=(1, 1), padding=(1, 1), bias=False)
    )
    (2): Bottleneck(
      (bn_1): BatchNorm2d(410, eps=1e-05, momentum=0.1, affine=True, track_running_stats=True)
      (conv_1): Conv2d(410, 80, kernel_size=(1, 1), stride=(1, 1), bias=False)
      (bn_2): BatchNorm2d(80, eps=1e-05, momentum=0.1, affine=True, track_running_stats=True)
      (conv_2): Conv2d(80, 20, kernel_size=(3, 3), stride=(1, 1), padding=(1, 1), bias=False)
    )
    (3): Bottleneck(
      (bn_1): BatchNorm2d(430, eps=1e-05, momentum=0.1, affine=True, track_running_stats=True)
      (conv_1): Conv2d(430, 80, kernel_size=(1, 1), stride=(1, 1), bias=False)
      (bn_2): BatchNorm2d(80, eps=1e-05, momentum=0.1, affine=True, track_running_stats=True)
      (conv_2): Conv2d(80, 20, kernel_size=(3, 3), stride=(1, 1), padding=(1, 1), bias=False)
    )
    (4): Bottleneck(
      (bn_1): BatchNorm2d(450, eps=1e-05, momentum=0.1, affine=True, track_running_stats=True)
      (conv_1): Conv2d(450, 80, kernel_size=(1, 1), stride=(1, 1), bias=False)
      (bn_2): BatchNorm2d(80, eps=1e-05, momentum=0.1, affine=True, track_running_stats=True)
      (conv_2): Conv2d(80, 20, kernel_size=(3, 3), stride=(1, 1), padding=(1, 1), bias=False)
    )
    (5): Bottleneck(
      (bn_1): BatchNorm2d(470, eps=1e-05, momentum=0.1, affine=True, track_running_stats=True)
      (conv_1): Conv2d(470, 80, kernel_size=(1, 1), stride=(1, 1), bias=False)
      (bn_2): BatchNorm2d(80, eps=1e-05, momentum=0.1, affine=True, track_running_stats=True)
      (conv_2): Conv2d(80, 20, kernel_size=(3, 3), stride=(1, 1), padding=(1, 1), bias=False)
    )
    (6): Bottleneck(
      (bn_1): BatchNorm2d(490, eps=1e-05, momentum=0.1, affine=True, track_running_stats=True)
      (conv_1): Conv2d(490, 80, kernel_size=(1, 1), stride=(1, 1), bias=False)
      (bn_2): BatchNorm2d(80, eps=1e-05, momentum=0.1, affine=True, track_running_stats=True)
      (conv_2): Conv2d(80, 20, kernel_size=(3, 3), stride=(1, 1), padding=(1, 1), bias=False)
    )
    (7): Bottleneck(
      (bn_1): BatchNorm2d(510, eps=1e-05, momentum=0.1, affine=True, track_running_stats=True)
      (conv_1): Conv2d(510, 80, kernel_size=(1, 1), stride=(1, 1), bias=False)
      (bn_2): BatchNorm2d(80, eps=1e-05, momentum=0.1, affine=True, track_running_stats=True)
      (conv_2): Conv2d(80, 20, kernel_size=(3, 3), stride=(1, 1), padding=(1, 1), bias=False)
    )
    (8): Bottleneck(
      (bn_1): BatchNorm2d(530, eps=1e-05, momentum=0.1, affine=True, track_running_stats=True)
      (conv_1): Conv2d(530, 80, kernel_size=(1, 1), stride=(1, 1), bias=False)
      (bn_2): BatchNorm2d(80, eps=1e-05, momentum=0.1, affine=True, track_running_stats=True)
      (conv_2): Conv2d(80, 20, kernel_size=(3, 3), stride=(1, 1), padding=(1, 1), bias=False)
    )
    (9): Bottleneck(
      (bn_1): BatchNorm2d(550, eps=1e-05, momentum=0.1, affine=True, track_running_stats=True)
      (conv_1): Conv2d(550, 80, kernel_size=(1, 1), stride=(1, 1), bias=False)
      (bn_2): BatchNorm2d(80, eps=1e-05, momentum=0.1, affine=True, track_running_stats=True)
      (conv_2): Conv2d(80, 20, kernel_size=(3, 3), stride=(1, 1), padding=(1, 1), bias=False)
    )
    (10): Bottleneck(
      (bn_1): BatchNorm2d(570, eps=1e-05, momentum=0.1, affine=True, track_running_stats=True)
      (conv_1): Conv2d(570, 80, kernel_size=(1, 1), stride=(1, 1), bias=False)
      (bn_2): BatchNorm2d(80, eps=1e-05, momentum=0.1, affine=True, track_running_stats=True)
      (conv_2): Conv2d(80, 20, kernel_size=(3, 3), stride=(1, 1), padding=(1, 1), bias=False)
    )
    (11): Bottleneck(
      (bn_1): BatchNorm2d(590, eps=1e-05, momentum=0.1, affine=True, track_running_stats=True)
      (conv_1): Conv2d(590, 80, kernel_size=(1, 1), stride=(1, 1), bias=False)
      (bn_2): BatchNorm2d(80, eps=1e-05, momentum=0.1, affine=True, track_running_stats=True)
      (conv_2): Conv2d(80, 20, kernel_size=(3, 3), stride=(1, 1), padding=(1, 1), bias=False)
    )
    (12): Bottleneck(
      (bn_1): BatchNorm2d(610, eps=1e-05, momentum=0.1, affine=True, track_running_stats=True)
      (conv_1): Conv2d(610, 80, kernel_size=(1, 1), stride=(1, 1), bias=False)
      (bn_2): BatchNorm2d(80, eps=1e-05, momentum=0.1, affine=True, track_running_stats=True)
      (conv_2): Conv2d(80, 20, kernel_size=(3, 3), stride=(1, 1), padding=(1, 1), bias=False)
    )
    (13): Bottleneck(
      (bn_1): BatchNorm2d(630, eps=1e-05, momentum=0.1, affine=True, track_running_stats=True)
      (conv_1): Conv2d(630, 80, kernel_size=(1, 1), stride=(1, 1), bias=False)
      (bn_2): BatchNorm2d(80, eps=1e-05, momentum=0.1, affine=True, track_running_stats=True)
      (conv_2): Conv2d(80, 20, kernel_size=(3, 3), stride=(1, 1), padding=(1, 1), bias=False)
    )
    (14): Bottleneck(
      (bn_1): BatchNorm2d(650, eps=1e-05, momentum=0.1, affine=True, track_running_stats=True)
      (conv_1): Conv2d(650, 80, kernel_size=(1, 1), stride=(1, 1), bias=False)
      (bn_2): BatchNorm2d(80, eps=1e-05, momentum=0.1, affine=True, track_running_stats=True)
      (conv_2): Conv2d(80, 20, kernel_size=(3, 3), stride=(1, 1), padding=(1, 1), bias=False)
    )
    (15): Bottleneck(
      (bn_1): BatchNorm2d(670, eps=1e-05, momentum=0.1, affine=True, track_running_stats=True)
      (conv_1): Conv2d(670, 80, kernel_size=(1, 1), stride=(1, 1), bias=False)
      (bn_2): BatchNorm2d(80, eps=1e-05, momentum=0.1, affine=True, track_running_stats=True)
      (conv_2): Conv2d(80, 20, kernel_size=(3, 3), stride=(1, 1), padding=(1, 1), bias=False)
    )
    (16): Bottleneck(
      (bn_1): BatchNorm2d(690, eps=1e-05, momentum=0.1, affine=True, track_running_stats=True)
      (conv_1): Conv2d(690, 80, kernel_size=(1, 1), stride=(1, 1), bias=False)
      (bn_2): BatchNorm2d(80, eps=1e-05, momentum=0.1, affine=True, track_running_stats=True)
      (conv_2): Conv2d(80, 20, kernel_size=(3, 3), stride=(1, 1), padding=(1, 1), bias=False)
    )
    (17): Bottleneck(
      (bn_1): BatchNorm2d(710, eps=1e-05, momentum=0.1, affine=True, track_running_stats=True)
      (conv_1): Conv2d(710, 80, kernel_size=(1, 1), stride=(1, 1), bias=False)
      (bn_2): BatchNorm2d(80, eps=1e-05, momentum=0.1, affine=True, track_running_stats=True)
      (conv_2): Conv2d(80, 20, kernel_size=(3, 3), stride=(1, 1), padding=(1, 1), bias=False)
    )
    (18): Bottleneck(
      (bn_1): BatchNorm2d(730, eps=1e-05, momentum=0.1, affine=True, track_running_stats=True)
      (conv_1): Conv2d(730, 80, kernel_size=(1, 1), stride=(1, 1), bias=False)
      (bn_2): BatchNorm2d(80, eps=1e-05, momentum=0.1, affine=True, track_running_stats=True)
      (conv_2): Conv2d(80, 20, kernel_size=(3, 3), stride=(1, 1), padding=(1, 1), bias=False)
    )
    (19): Bottleneck(
      (bn_1): BatchNorm2d(750, eps=1e-05, momentum=0.1, affine=True, track_running_stats=True)
      (conv_1): Conv2d(750, 80, kernel_size=(1, 1), stride=(1, 1), bias=False)
      (bn_2): BatchNorm2d(80, eps=1e-05, momentum=0.1, affine=True, track_running_stats=True)
      (conv_2): Conv2d(80, 20, kernel_size=(3, 3), stride=(1, 1), padding=(1, 1), bias=False)
    )
    (20): Bottleneck(
      (bn_1): BatchNorm2d(770, eps=1e-05, momentum=0.1, affine=True, track_running_stats=True)
      (conv_1): Conv2d(770, 80, kernel_size=(1, 1), stride=(1, 1), bias=False)
      (bn_2): BatchNorm2d(80, eps=1e-05, momentum=0.1, affine=True, track_running_stats=True)
      (conv_2): Conv2d(80, 20, kernel_size=(3, 3), stride=(1, 1), padding=(1, 1), bias=False)
    )
    (21): Bottleneck(
      (bn_1): BatchNorm2d(790, eps=1e-05, momentum=0.1, affine=True, track_running_stats=True)
      (conv_1): Conv2d(790, 80, kernel_size=(1, 1), stride=(1, 1), bias=False)
      (bn_2): BatchNorm2d(80, eps=1e-05, momentum=0.1, affine=True, track_running_stats=True)
      (conv_2): Conv2d(80, 20, kernel_size=(3, 3), stride=(1, 1), padding=(1, 1), bias=False)
    )
    (22): Bottleneck(
      (bn_1): BatchNorm2d(810, eps=1e-05, momentum=0.1, affine=True, track_running_stats=True)
      (conv_1): Conv2d(810, 80, kernel_size=(1, 1), stride=(1, 1), bias=False)
      (bn_2): BatchNorm2d(80, eps=1e-05, momentum=0.1, affine=True, track_running_stats=True)
      (conv_2): Conv2d(80, 20, kernel_size=(3, 3), stride=(1, 1), padding=(1, 1), bias=False)
    )
    (23): Bottleneck(
      (bn_1): BatchNorm2d(830, eps=1e-05, momentum=0.1, affine=True, track_running_stats=True)
      (conv_1): Conv2d(830, 80, kernel_size=(1, 1), stride=(1, 1), bias=False)
      (bn_2): BatchNorm2d(80, eps=1e-05, momentum=0.1, affine=True, track_running_stats=True)
      (conv_2): Conv2d(80, 20, kernel_size=(3, 3), stride=(1, 1), padding=(1, 1), bias=False)
    )
  )
  (bn): BatchNorm2d(850, eps=1e-05, momentum=0.1, affine=True, track_running_stats=True)
  (fc): Linear(in_features=850, out_features=10, bias=True)
)
[2019-10-21 15:18:22,428] - [train.py line:148] :  == total parameters: 4147610
[2019-10-21 15:18:32,653] - [train.py line:187] :             =======  Training  =======

[2019-10-21 15:18:32,659] - [train.py line:39] :  === Epoch: [1/300] === 
[2019-10-21 15:51:07,919] - [train.py line:143] : {'architecture': 'densenet160bc', 'data_path': './data', 'ckpt_path': './', 'ckpt_name': 'densenet160bc', 'num_classes': 10, 'dataset': 'cifar10', 'use_gpu': True, 'input_size': 32, 'epochs': 300, 'batch_size': 256, 'test_batch': 200, 'eval_freq': 2, 'workers': 6, 'optimize': {'momentum': 0.9, 'weight_decay': 0.0001, 'nesterov': True}, 'mixup': False, 'mixup_alpha': 0.4, 'augmentation': {'normalize': True, 'random_crop': True, 'random_horizontal_filp': True, 'cutout': False, 'holes': 1, 'length': 8}, 'lr_scheduler': {'type': 'STEP', 'base_lr': 0.1, 'lr_epochs': [150, 225], 'lr_mults': 0.1, 'min_lr': 0.0, 'lower_bound': -6.0, 'upper_bound': 3.0}}
[2019-10-21 15:51:08,286] - [train.py line:147] : DenseNet(
  (conv_1): Conv2d(3, 60, kernel_size=(3, 3), stride=(1, 1), padding=(1, 1), bias=False)
  (dense1): Sequential(
    (0): Bottleneck(
      (bn_1): BatchNorm2d(60, eps=1e-05, momentum=0.1, affine=True, track_running_stats=True)
      (conv_1): Conv2d(60, 120, kernel_size=(1, 1), stride=(1, 1), bias=False)
      (bn_2): BatchNorm2d(120, eps=1e-05, momentum=0.1, affine=True, track_running_stats=True)
      (conv_2): Conv2d(120, 30, kernel_size=(3, 3), stride=(1, 1), padding=(1, 1), bias=False)
    )
    (1): Bottleneck(
      (bn_1): BatchNorm2d(90, eps=1e-05, momentum=0.1, affine=True, track_running_stats=True)
      (conv_1): Conv2d(90, 120, kernel_size=(1, 1), stride=(1, 1), bias=False)
      (bn_2): BatchNorm2d(120, eps=1e-05, momentum=0.1, affine=True, track_running_stats=True)
      (conv_2): Conv2d(120, 30, kernel_size=(3, 3), stride=(1, 1), padding=(1, 1), bias=False)
    )
    (2): Bottleneck(
      (bn_1): BatchNorm2d(120, eps=1e-05, momentum=0.1, affine=True, track_running_stats=True)
      (conv_1): Conv2d(120, 120, kernel_size=(1, 1), stride=(1, 1), bias=False)
      (bn_2): BatchNorm2d(120, eps=1e-05, momentum=0.1, affine=True, track_running_stats=True)
      (conv_2): Conv2d(120, 30, kernel_size=(3, 3), stride=(1, 1), padding=(1, 1), bias=False)
    )
    (3): Bottleneck(
      (bn_1): BatchNorm2d(150, eps=1e-05, momentum=0.1, affine=True, track_running_stats=True)
      (conv_1): Conv2d(150, 120, kernel_size=(1, 1), stride=(1, 1), bias=False)
      (bn_2): BatchNorm2d(120, eps=1e-05, momentum=0.1, affine=True, track_running_stats=True)
      (conv_2): Conv2d(120, 30, kernel_size=(3, 3), stride=(1, 1), padding=(1, 1), bias=False)
    )
    (4): Bottleneck(
      (bn_1): BatchNorm2d(180, eps=1e-05, momentum=0.1, affine=True, track_running_stats=True)
      (conv_1): Conv2d(180, 120, kernel_size=(1, 1), stride=(1, 1), bias=False)
      (bn_2): BatchNorm2d(120, eps=1e-05, momentum=0.1, affine=True, track_running_stats=True)
      (conv_2): Conv2d(120, 30, kernel_size=(3, 3), stride=(1, 1), padding=(1, 1), bias=False)
    )
    (5): Bottleneck(
      (bn_1): BatchNorm2d(210, eps=1e-05, momentum=0.1, affine=True, track_running_stats=True)
      (conv_1): Conv2d(210, 120, kernel_size=(1, 1), stride=(1, 1), bias=False)
      (bn_2): BatchNorm2d(120, eps=1e-05, momentum=0.1, affine=True, track_running_stats=True)
      (conv_2): Conv2d(120, 30, kernel_size=(3, 3), stride=(1, 1), padding=(1, 1), bias=False)
    )
    (6): Bottleneck(
      (bn_1): BatchNorm2d(240, eps=1e-05, momentum=0.1, affine=True, track_running_stats=True)
      (conv_1): Conv2d(240, 120, kernel_size=(1, 1), stride=(1, 1), bias=False)
      (bn_2): BatchNorm2d(120, eps=1e-05, momentum=0.1, affine=True, track_running_stats=True)
      (conv_2): Conv2d(120, 30, kernel_size=(3, 3), stride=(1, 1), padding=(1, 1), bias=False)
    )
    (7): Bottleneck(
      (bn_1): BatchNorm2d(270, eps=1e-05, momentum=0.1, affine=True, track_running_stats=True)
      (conv_1): Conv2d(270, 120, kernel_size=(1, 1), stride=(1, 1), bias=False)
      (bn_2): BatchNorm2d(120, eps=1e-05, momentum=0.1, affine=True, track_running_stats=True)
      (conv_2): Conv2d(120, 30, kernel_size=(3, 3), stride=(1, 1), padding=(1, 1), bias=False)
    )
    (8): Bottleneck(
      (bn_1): BatchNorm2d(300, eps=1e-05, momentum=0.1, affine=True, track_running_stats=True)
      (conv_1): Conv2d(300, 120, kernel_size=(1, 1), stride=(1, 1), bias=False)
      (bn_2): BatchNorm2d(120, eps=1e-05, momentum=0.1, affine=True, track_running_stats=True)
      (conv_2): Conv2d(120, 30, kernel_size=(3, 3), stride=(1, 1), padding=(1, 1), bias=False)
    )
    (9): Bottleneck(
      (bn_1): BatchNorm2d(330, eps=1e-05, momentum=0.1, affine=True, track_running_stats=True)
      (conv_1): Conv2d(330, 120, kernel_size=(1, 1), stride=(1, 1), bias=False)
      (bn_2): BatchNorm2d(120, eps=1e-05, momentum=0.1, affine=True, track_running_stats=True)
      (conv_2): Conv2d(120, 30, kernel_size=(3, 3), stride=(1, 1), padding=(1, 1), bias=False)
    )
    (10): Bottleneck(
      (bn_1): BatchNorm2d(360, eps=1e-05, momentum=0.1, affine=True, track_running_stats=True)
      (conv_1): Conv2d(360, 120, kernel_size=(1, 1), stride=(1, 1), bias=False)
      (bn_2): BatchNorm2d(120, eps=1e-05, momentum=0.1, affine=True, track_running_stats=True)
      (conv_2): Conv2d(120, 30, kernel_size=(3, 3), stride=(1, 1), padding=(1, 1), bias=False)
    )
    (11): Bottleneck(
      (bn_1): BatchNorm2d(390, eps=1e-05, momentum=0.1, affine=True, track_running_stats=True)
      (conv_1): Conv2d(390, 120, kernel_size=(1, 1), stride=(1, 1), bias=False)
      (bn_2): BatchNorm2d(120, eps=1e-05, momentum=0.1, affine=True, track_running_stats=True)
      (conv_2): Conv2d(120, 30, kernel_size=(3, 3), stride=(1, 1), padding=(1, 1), bias=False)
    )
    (12): Bottleneck(
      (bn_1): BatchNorm2d(420, eps=1e-05, momentum=0.1, affine=True, track_running_stats=True)
      (conv_1): Conv2d(420, 120, kernel_size=(1, 1), stride=(1, 1), bias=False)
      (bn_2): BatchNorm2d(120, eps=1e-05, momentum=0.1, affine=True, track_running_stats=True)
      (conv_2): Conv2d(120, 30, kernel_size=(3, 3), stride=(1, 1), padding=(1, 1), bias=False)
    )
    (13): Bottleneck(
      (bn_1): BatchNorm2d(450, eps=1e-05, momentum=0.1, affine=True, track_running_stats=True)
      (conv_1): Conv2d(450, 120, kernel_size=(1, 1), stride=(1, 1), bias=False)
      (bn_2): BatchNorm2d(120, eps=1e-05, momentum=0.1, affine=True, track_running_stats=True)
      (conv_2): Conv2d(120, 30, kernel_size=(3, 3), stride=(1, 1), padding=(1, 1), bias=False)
    )
    (14): Bottleneck(
      (bn_1): BatchNorm2d(480, eps=1e-05, momentum=0.1, affine=True, track_running_stats=True)
      (conv_1): Conv2d(480, 120, kernel_size=(1, 1), stride=(1, 1), bias=False)
      (bn_2): BatchNorm2d(120, eps=1e-05, momentum=0.1, affine=True, track_running_stats=True)
      (conv_2): Conv2d(120, 30, kernel_size=(3, 3), stride=(1, 1), padding=(1, 1), bias=False)
    )
    (15): Bottleneck(
      (bn_1): BatchNorm2d(510, eps=1e-05, momentum=0.1, affine=True, track_running_stats=True)
      (conv_1): Conv2d(510, 120, kernel_size=(1, 1), stride=(1, 1), bias=False)
      (bn_2): BatchNorm2d(120, eps=1e-05, momentum=0.1, affine=True, track_running_stats=True)
      (conv_2): Conv2d(120, 30, kernel_size=(3, 3), stride=(1, 1), padding=(1, 1), bias=False)
    )
    (16): Bottleneck(
      (bn_1): BatchNorm2d(540, eps=1e-05, momentum=0.1, affine=True, track_running_stats=True)
      (conv_1): Conv2d(540, 120, kernel_size=(1, 1), stride=(1, 1), bias=False)
      (bn_2): BatchNorm2d(120, eps=1e-05, momentum=0.1, affine=True, track_running_stats=True)
      (conv_2): Conv2d(120, 30, kernel_size=(3, 3), stride=(1, 1), padding=(1, 1), bias=False)
    )
    (17): Bottleneck(
      (bn_1): BatchNorm2d(570, eps=1e-05, momentum=0.1, affine=True, track_running_stats=True)
      (conv_1): Conv2d(570, 120, kernel_size=(1, 1), stride=(1, 1), bias=False)
      (bn_2): BatchNorm2d(120, eps=1e-05, momentum=0.1, affine=True, track_running_stats=True)
      (conv_2): Conv2d(120, 30, kernel_size=(3, 3), stride=(1, 1), padding=(1, 1), bias=False)
    )
    (18): Bottleneck(
      (bn_1): BatchNorm2d(600, eps=1e-05, momentum=0.1, affine=True, track_running_stats=True)
      (conv_1): Conv2d(600, 120, kernel_size=(1, 1), stride=(1, 1), bias=False)
      (bn_2): BatchNorm2d(120, eps=1e-05, momentum=0.1, affine=True, track_running_stats=True)
      (conv_2): Conv2d(120, 30, kernel_size=(3, 3), stride=(1, 1), padding=(1, 1), bias=False)
    )
    (19): Bottleneck(
      (bn_1): BatchNorm2d(630, eps=1e-05, momentum=0.1, affine=True, track_running_stats=True)
      (conv_1): Conv2d(630, 120, kernel_size=(1, 1), stride=(1, 1), bias=False)
      (bn_2): BatchNorm2d(120, eps=1e-05, momentum=0.1, affine=True, track_running_stats=True)
      (conv_2): Conv2d(120, 30, kernel_size=(3, 3), stride=(1, 1), padding=(1, 1), bias=False)
    )
    (20): Bottleneck(
      (bn_1): BatchNorm2d(660, eps=1e-05, momentum=0.1, affine=True, track_running_stats=True)
      (conv_1): Conv2d(660, 120, kernel_size=(1, 1), stride=(1, 1), bias=False)
      (bn_2): BatchNorm2d(120, eps=1e-05, momentum=0.1, affine=True, track_running_stats=True)
      (conv_2): Conv2d(120, 30, kernel_size=(3, 3), stride=(1, 1), padding=(1, 1), bias=False)
    )
    (21): Bottleneck(
      (bn_1): BatchNorm2d(690, eps=1e-05, momentum=0.1, affine=True, track_running_stats=True)
      (conv_1): Conv2d(690, 120, kernel_size=(1, 1), stride=(1, 1), bias=False)
      (bn_2): BatchNorm2d(120, eps=1e-05, momentum=0.1, affine=True, track_running_stats=True)
      (conv_2): Conv2d(120, 30, kernel_size=(3, 3), stride=(1, 1), padding=(1, 1), bias=False)
    )
    (22): Bottleneck(
      (bn_1): BatchNorm2d(720, eps=1e-05, momentum=0.1, affine=True, track_running_stats=True)
      (conv_1): Conv2d(720, 120, kernel_size=(1, 1), stride=(1, 1), bias=False)
      (bn_2): BatchNorm2d(120, eps=1e-05, momentum=0.1, affine=True, track_running_stats=True)
      (conv_2): Conv2d(120, 30, kernel_size=(3, 3), stride=(1, 1), padding=(1, 1), bias=False)
    )
    (23): Bottleneck(
      (bn_1): BatchNorm2d(750, eps=1e-05, momentum=0.1, affine=True, track_running_stats=True)
      (conv_1): Conv2d(750, 120, kernel_size=(1, 1), stride=(1, 1), bias=False)
      (bn_2): BatchNorm2d(120, eps=1e-05, momentum=0.1, affine=True, track_running_stats=True)
      (conv_2): Conv2d(120, 30, kernel_size=(3, 3), stride=(1, 1), padding=(1, 1), bias=False)
    )
    (24): Bottleneck(
      (bn_1): BatchNorm2d(780, eps=1e-05, momentum=0.1, affine=True, track_running_stats=True)
      (conv_1): Conv2d(780, 120, kernel_size=(1, 1), stride=(1, 1), bias=False)
      (bn_2): BatchNorm2d(120, eps=1e-05, momentum=0.1, affine=True, track_running_stats=True)
      (conv_2): Conv2d(120, 30, kernel_size=(3, 3), stride=(1, 1), padding=(1, 1), bias=False)
    )
    (25): Bottleneck(
      (bn_1): BatchNorm2d(810, eps=1e-05, momentum=0.1, affine=True, track_running_stats=True)
      (conv_1): Conv2d(810, 120, kernel_size=(1, 1), stride=(1, 1), bias=False)
      (bn_2): BatchNorm2d(120, eps=1e-05, momentum=0.1, affine=True, track_running_stats=True)
      (conv_2): Conv2d(120, 30, kernel_size=(3, 3), stride=(1, 1), padding=(1, 1), bias=False)
    )
  )
  (trans_1): Transition(
    (bn): BatchNorm2d(840, eps=1e-05, momentum=0.1, affine=True, track_running_stats=True)
    (conv): Conv2d(840, 420, kernel_size=(1, 1), stride=(1, 1), bias=False)
  )
  (dense2): Sequential(
    (0): Bottleneck(
      (bn_1): BatchNorm2d(420, eps=1e-05, momentum=0.1, affine=True, track_running_stats=True)
      (conv_1): Conv2d(420, 120, kernel_size=(1, 1), stride=(1, 1), bias=False)
      (bn_2): BatchNorm2d(120, eps=1e-05, momentum=0.1, affine=True, track_running_stats=True)
      (conv_2): Conv2d(120, 30, kernel_size=(3, 3), stride=(1, 1), padding=(1, 1), bias=False)
    )
    (1): Bottleneck(
      (bn_1): BatchNorm2d(450, eps=1e-05, momentum=0.1, affine=True, track_running_stats=True)
      (conv_1): Conv2d(450, 120, kernel_size=(1, 1), stride=(1, 1), bias=False)
      (bn_2): BatchNorm2d(120, eps=1e-05, momentum=0.1, affine=True, track_running_stats=True)
      (conv_2): Conv2d(120, 30, kernel_size=(3, 3), stride=(1, 1), padding=(1, 1), bias=False)
    )
    (2): Bottleneck(
      (bn_1): BatchNorm2d(480, eps=1e-05, momentum=0.1, affine=True, track_running_stats=True)
      (conv_1): Conv2d(480, 120, kernel_size=(1, 1), stride=(1, 1), bias=False)
      (bn_2): BatchNorm2d(120, eps=1e-05, momentum=0.1, affine=True, track_running_stats=True)
      (conv_2): Conv2d(120, 30, kernel_size=(3, 3), stride=(1, 1), padding=(1, 1), bias=False)
    )
    (3): Bottleneck(
      (bn_1): BatchNorm2d(510, eps=1e-05, momentum=0.1, affine=True, track_running_stats=True)
      (conv_1): Conv2d(510, 120, kernel_size=(1, 1), stride=(1, 1), bias=False)
      (bn_2): BatchNorm2d(120, eps=1e-05, momentum=0.1, affine=True, track_running_stats=True)
      (conv_2): Conv2d(120, 30, kernel_size=(3, 3), stride=(1, 1), padding=(1, 1), bias=False)
    )
    (4): Bottleneck(
      (bn_1): BatchNorm2d(540, eps=1e-05, momentum=0.1, affine=True, track_running_stats=True)
      (conv_1): Conv2d(540, 120, kernel_size=(1, 1), stride=(1, 1), bias=False)
      (bn_2): BatchNorm2d(120, eps=1e-05, momentum=0.1, affine=True, track_running_stats=True)
      (conv_2): Conv2d(120, 30, kernel_size=(3, 3), stride=(1, 1), padding=(1, 1), bias=False)
    )
    (5): Bottleneck(
      (bn_1): BatchNorm2d(570, eps=1e-05, momentum=0.1, affine=True, track_running_stats=True)
      (conv_1): Conv2d(570, 120, kernel_size=(1, 1), stride=(1, 1), bias=False)
      (bn_2): BatchNorm2d(120, eps=1e-05, momentum=0.1, affine=True, track_running_stats=True)
      (conv_2): Conv2d(120, 30, kernel_size=(3, 3), stride=(1, 1), padding=(1, 1), bias=False)
    )
    (6): Bottleneck(
      (bn_1): BatchNorm2d(600, eps=1e-05, momentum=0.1, affine=True, track_running_stats=True)
      (conv_1): Conv2d(600, 120, kernel_size=(1, 1), stride=(1, 1), bias=False)
      (bn_2): BatchNorm2d(120, eps=1e-05, momentum=0.1, affine=True, track_running_stats=True)
      (conv_2): Conv2d(120, 30, kernel_size=(3, 3), stride=(1, 1), padding=(1, 1), bias=False)
    )
    (7): Bottleneck(
      (bn_1): BatchNorm2d(630, eps=1e-05, momentum=0.1, affine=True, track_running_stats=True)
      (conv_1): Conv2d(630, 120, kernel_size=(1, 1), stride=(1, 1), bias=False)
      (bn_2): BatchNorm2d(120, eps=1e-05, momentum=0.1, affine=True, track_running_stats=True)
      (conv_2): Conv2d(120, 30, kernel_size=(3, 3), stride=(1, 1), padding=(1, 1), bias=False)
    )
    (8): Bottleneck(
      (bn_1): BatchNorm2d(660, eps=1e-05, momentum=0.1, affine=True, track_running_stats=True)
      (conv_1): Conv2d(660, 120, kernel_size=(1, 1), stride=(1, 1), bias=False)
      (bn_2): BatchNorm2d(120, eps=1e-05, momentum=0.1, affine=True, track_running_stats=True)
      (conv_2): Conv2d(120, 30, kernel_size=(3, 3), stride=(1, 1), padding=(1, 1), bias=False)
    )
    (9): Bottleneck(
      (bn_1): BatchNorm2d(690, eps=1e-05, momentum=0.1, affine=True, track_running_stats=True)
      (conv_1): Conv2d(690, 120, kernel_size=(1, 1), stride=(1, 1), bias=False)
      (bn_2): BatchNorm2d(120, eps=1e-05, momentum=0.1, affine=True, track_running_stats=True)
      (conv_2): Conv2d(120, 30, kernel_size=(3, 3), stride=(1, 1), padding=(1, 1), bias=False)
    )
    (10): Bottleneck(
      (bn_1): BatchNorm2d(720, eps=1e-05, momentum=0.1, affine=True, track_running_stats=True)
      (conv_1): Conv2d(720, 120, kernel_size=(1, 1), stride=(1, 1), bias=False)
      (bn_2): BatchNorm2d(120, eps=1e-05, momentum=0.1, affine=True, track_running_stats=True)
      (conv_2): Conv2d(120, 30, kernel_size=(3, 3), stride=(1, 1), padding=(1, 1), bias=False)
    )
    (11): Bottleneck(
      (bn_1): BatchNorm2d(750, eps=1e-05, momentum=0.1, affine=True, track_running_stats=True)
      (conv_1): Conv2d(750, 120, kernel_size=(1, 1), stride=(1, 1), bias=False)
      (bn_2): BatchNorm2d(120, eps=1e-05, momentum=0.1, affine=True, track_running_stats=True)
      (conv_2): Conv2d(120, 30, kernel_size=(3, 3), stride=(1, 1), padding=(1, 1), bias=False)
    )
    (12): Bottleneck(
      (bn_1): BatchNorm2d(780, eps=1e-05, momentum=0.1, affine=True, track_running_stats=True)
      (conv_1): Conv2d(780, 120, kernel_size=(1, 1), stride=(1, 1), bias=False)
      (bn_2): BatchNorm2d(120, eps=1e-05, momentum=0.1, affine=True, track_running_stats=True)
      (conv_2): Conv2d(120, 30, kernel_size=(3, 3), stride=(1, 1), padding=(1, 1), bias=False)
    )
    (13): Bottleneck(
      (bn_1): BatchNorm2d(810, eps=1e-05, momentum=0.1, affine=True, track_running_stats=True)
      (conv_1): Conv2d(810, 120, kernel_size=(1, 1), stride=(1, 1), bias=False)
      (bn_2): BatchNorm2d(120, eps=1e-05, momentum=0.1, affine=True, track_running_stats=True)
      (conv_2): Conv2d(120, 30, kernel_size=(3, 3), stride=(1, 1), padding=(1, 1), bias=False)
    )
    (14): Bottleneck(
      (bn_1): BatchNorm2d(840, eps=1e-05, momentum=0.1, affine=True, track_running_stats=True)
      (conv_1): Conv2d(840, 120, kernel_size=(1, 1), stride=(1, 1), bias=False)
      (bn_2): BatchNorm2d(120, eps=1e-05, momentum=0.1, affine=True, track_running_stats=True)
      (conv_2): Conv2d(120, 30, kernel_size=(3, 3), stride=(1, 1), padding=(1, 1), bias=False)
    )
    (15): Bottleneck(
      (bn_1): BatchNorm2d(870, eps=1e-05, momentum=0.1, affine=True, track_running_stats=True)
      (conv_1): Conv2d(870, 120, kernel_size=(1, 1), stride=(1, 1), bias=False)
      (bn_2): BatchNorm2d(120, eps=1e-05, momentum=0.1, affine=True, track_running_stats=True)
      (conv_2): Conv2d(120, 30, kernel_size=(3, 3), stride=(1, 1), padding=(1, 1), bias=False)
    )
    (16): Bottleneck(
      (bn_1): BatchNorm2d(900, eps=1e-05, momentum=0.1, affine=True, track_running_stats=True)
      (conv_1): Conv2d(900, 120, kernel_size=(1, 1), stride=(1, 1), bias=False)
      (bn_2): BatchNorm2d(120, eps=1e-05, momentum=0.1, affine=True, track_running_stats=True)
      (conv_2): Conv2d(120, 30, kernel_size=(3, 3), stride=(1, 1), padding=(1, 1), bias=False)
    )
    (17): Bottleneck(
      (bn_1): BatchNorm2d(930, eps=1e-05, momentum=0.1, affine=True, track_running_stats=True)
      (conv_1): Conv2d(930, 120, kernel_size=(1, 1), stride=(1, 1), bias=False)
      (bn_2): BatchNorm2d(120, eps=1e-05, momentum=0.1, affine=True, track_running_stats=True)
      (conv_2): Conv2d(120, 30, kernel_size=(3, 3), stride=(1, 1), padding=(1, 1), bias=False)
    )
    (18): Bottleneck(
      (bn_1): BatchNorm2d(960, eps=1e-05, momentum=0.1, affine=True, track_running_stats=True)
      (conv_1): Conv2d(960, 120, kernel_size=(1, 1), stride=(1, 1), bias=False)
      (bn_2): BatchNorm2d(120, eps=1e-05, momentum=0.1, affine=True, track_running_stats=True)
      (conv_2): Conv2d(120, 30, kernel_size=(3, 3), stride=(1, 1), padding=(1, 1), bias=False)
    )
    (19): Bottleneck(
      (bn_1): BatchNorm2d(990, eps=1e-05, momentum=0.1, affine=True, track_running_stats=True)
      (conv_1): Conv2d(990, 120, kernel_size=(1, 1), stride=(1, 1), bias=False)
      (bn_2): BatchNorm2d(120, eps=1e-05, momentum=0.1, affine=True, track_running_stats=True)
      (conv_2): Conv2d(120, 30, kernel_size=(3, 3), stride=(1, 1), padding=(1, 1), bias=False)
    )
    (20): Bottleneck(
      (bn_1): BatchNorm2d(1020, eps=1e-05, momentum=0.1, affine=True, track_running_stats=True)
      (conv_1): Conv2d(1020, 120, kernel_size=(1, 1), stride=(1, 1), bias=False)
      (bn_2): BatchNorm2d(120, eps=1e-05, momentum=0.1, affine=True, track_running_stats=True)
      (conv_2): Conv2d(120, 30, kernel_size=(3, 3), stride=(1, 1), padding=(1, 1), bias=False)
    )
    (21): Bottleneck(
      (bn_1): BatchNorm2d(1050, eps=1e-05, momentum=0.1, affine=True, track_running_stats=True)
      (conv_1): Conv2d(1050, 120, kernel_size=(1, 1), stride=(1, 1), bias=False)
      (bn_2): BatchNorm2d(120, eps=1e-05, momentum=0.1, affine=True, track_running_stats=True)
      (conv_2): Conv2d(120, 30, kernel_size=(3, 3), stride=(1, 1), padding=(1, 1), bias=False)
    )
    (22): Bottleneck(
      (bn_1): BatchNorm2d(1080, eps=1e-05, momentum=0.1, affine=True, track_running_stats=True)
      (conv_1): Conv2d(1080, 120, kernel_size=(1, 1), stride=(1, 1), bias=False)
      (bn_2): BatchNorm2d(120, eps=1e-05, momentum=0.1, affine=True, track_running_stats=True)
      (conv_2): Conv2d(120, 30, kernel_size=(3, 3), stride=(1, 1), padding=(1, 1), bias=False)
    )
    (23): Bottleneck(
      (bn_1): BatchNorm2d(1110, eps=1e-05, momentum=0.1, affine=True, track_running_stats=True)
      (conv_1): Conv2d(1110, 120, kernel_size=(1, 1), stride=(1, 1), bias=False)
      (bn_2): BatchNorm2d(120, eps=1e-05, momentum=0.1, affine=True, track_running_stats=True)
      (conv_2): Conv2d(120, 30, kernel_size=(3, 3), stride=(1, 1), padding=(1, 1), bias=False)
    )
    (24): Bottleneck(
      (bn_1): BatchNorm2d(1140, eps=1e-05, momentum=0.1, affine=True, track_running_stats=True)
      (conv_1): Conv2d(1140, 120, kernel_size=(1, 1), stride=(1, 1), bias=False)
      (bn_2): BatchNorm2d(120, eps=1e-05, momentum=0.1, affine=True, track_running_stats=True)
      (conv_2): Conv2d(120, 30, kernel_size=(3, 3), stride=(1, 1), padding=(1, 1), bias=False)
    )
    (25): Bottleneck(
      (bn_1): BatchNorm2d(1170, eps=1e-05, momentum=0.1, affine=True, track_running_stats=True)
      (conv_1): Conv2d(1170, 120, kernel_size=(1, 1), stride=(1, 1), bias=False)
      (bn_2): BatchNorm2d(120, eps=1e-05, momentum=0.1, affine=True, track_running_stats=True)
      (conv_2): Conv2d(120, 30, kernel_size=(3, 3), stride=(1, 1), padding=(1, 1), bias=False)
    )
  )
  (trans_2): Transition(
    (bn): BatchNorm2d(1200, eps=1e-05, momentum=0.1, affine=True, track_running_stats=True)
    (conv): Conv2d(1200, 600, kernel_size=(1, 1), stride=(1, 1), bias=False)
  )
  (dense_3): Sequential(
    (0): Bottleneck(
      (bn_1): BatchNorm2d(600, eps=1e-05, momentum=0.1, affine=True, track_running_stats=True)
      (conv_1): Conv2d(600, 120, kernel_size=(1, 1), stride=(1, 1), bias=False)
      (bn_2): BatchNorm2d(120, eps=1e-05, momentum=0.1, affine=True, track_running_stats=True)
      (conv_2): Conv2d(120, 30, kernel_size=(3, 3), stride=(1, 1), padding=(1, 1), bias=False)
    )
    (1): Bottleneck(
      (bn_1): BatchNorm2d(630, eps=1e-05, momentum=0.1, affine=True, track_running_stats=True)
      (conv_1): Conv2d(630, 120, kernel_size=(1, 1), stride=(1, 1), bias=False)
      (bn_2): BatchNorm2d(120, eps=1e-05, momentum=0.1, affine=True, track_running_stats=True)
      (conv_2): Conv2d(120, 30, kernel_size=(3, 3), stride=(1, 1), padding=(1, 1), bias=False)
    )
    (2): Bottleneck(
      (bn_1): BatchNorm2d(660, eps=1e-05, momentum=0.1, affine=True, track_running_stats=True)
      (conv_1): Conv2d(660, 120, kernel_size=(1, 1), stride=(1, 1), bias=False)
      (bn_2): BatchNorm2d(120, eps=1e-05, momentum=0.1, affine=True, track_running_stats=True)
      (conv_2): Conv2d(120, 30, kernel_size=(3, 3), stride=(1, 1), padding=(1, 1), bias=False)
    )
    (3): Bottleneck(
      (bn_1): BatchNorm2d(690, eps=1e-05, momentum=0.1, affine=True, track_running_stats=True)
      (conv_1): Conv2d(690, 120, kernel_size=(1, 1), stride=(1, 1), bias=False)
      (bn_2): BatchNorm2d(120, eps=1e-05, momentum=0.1, affine=True, track_running_stats=True)
      (conv_2): Conv2d(120, 30, kernel_size=(3, 3), stride=(1, 1), padding=(1, 1), bias=False)
    )
    (4): Bottleneck(
      (bn_1): BatchNorm2d(720, eps=1e-05, momentum=0.1, affine=True, track_running_stats=True)
      (conv_1): Conv2d(720, 120, kernel_size=(1, 1), stride=(1, 1), bias=False)
      (bn_2): BatchNorm2d(120, eps=1e-05, momentum=0.1, affine=True, track_running_stats=True)
      (conv_2): Conv2d(120, 30, kernel_size=(3, 3), stride=(1, 1), padding=(1, 1), bias=False)
    )
    (5): Bottleneck(
      (bn_1): BatchNorm2d(750, eps=1e-05, momentum=0.1, affine=True, track_running_stats=True)
      (conv_1): Conv2d(750, 120, kernel_size=(1, 1), stride=(1, 1), bias=False)
      (bn_2): BatchNorm2d(120, eps=1e-05, momentum=0.1, affine=True, track_running_stats=True)
      (conv_2): Conv2d(120, 30, kernel_size=(3, 3), stride=(1, 1), padding=(1, 1), bias=False)
    )
    (6): Bottleneck(
      (bn_1): BatchNorm2d(780, eps=1e-05, momentum=0.1, affine=True, track_running_stats=True)
      (conv_1): Conv2d(780, 120, kernel_size=(1, 1), stride=(1, 1), bias=False)
      (bn_2): BatchNorm2d(120, eps=1e-05, momentum=0.1, affine=True, track_running_stats=True)
      (conv_2): Conv2d(120, 30, kernel_size=(3, 3), stride=(1, 1), padding=(1, 1), bias=False)
    )
    (7): Bottleneck(
      (bn_1): BatchNorm2d(810, eps=1e-05, momentum=0.1, affine=True, track_running_stats=True)
      (conv_1): Conv2d(810, 120, kernel_size=(1, 1), stride=(1, 1), bias=False)
      (bn_2): BatchNorm2d(120, eps=1e-05, momentum=0.1, affine=True, track_running_stats=True)
      (conv_2): Conv2d(120, 30, kernel_size=(3, 3), stride=(1, 1), padding=(1, 1), bias=False)
    )
    (8): Bottleneck(
      (bn_1): BatchNorm2d(840, eps=1e-05, momentum=0.1, affine=True, track_running_stats=True)
      (conv_1): Conv2d(840, 120, kernel_size=(1, 1), stride=(1, 1), bias=False)
      (bn_2): BatchNorm2d(120, eps=1e-05, momentum=0.1, affine=True, track_running_stats=True)
      (conv_2): Conv2d(120, 30, kernel_size=(3, 3), stride=(1, 1), padding=(1, 1), bias=False)
    )
    (9): Bottleneck(
      (bn_1): BatchNorm2d(870, eps=1e-05, momentum=0.1, affine=True, track_running_stats=True)
      (conv_1): Conv2d(870, 120, kernel_size=(1, 1), stride=(1, 1), bias=False)
      (bn_2): BatchNorm2d(120, eps=1e-05, momentum=0.1, affine=True, track_running_stats=True)
      (conv_2): Conv2d(120, 30, kernel_size=(3, 3), stride=(1, 1), padding=(1, 1), bias=False)
    )
    (10): Bottleneck(
      (bn_1): BatchNorm2d(900, eps=1e-05, momentum=0.1, affine=True, track_running_stats=True)
      (conv_1): Conv2d(900, 120, kernel_size=(1, 1), stride=(1, 1), bias=False)
      (bn_2): BatchNorm2d(120, eps=1e-05, momentum=0.1, affine=True, track_running_stats=True)
      (conv_2): Conv2d(120, 30, kernel_size=(3, 3), stride=(1, 1), padding=(1, 1), bias=False)
    )
    (11): Bottleneck(
      (bn_1): BatchNorm2d(930, eps=1e-05, momentum=0.1, affine=True, track_running_stats=True)
      (conv_1): Conv2d(930, 120, kernel_size=(1, 1), stride=(1, 1), bias=False)
      (bn_2): BatchNorm2d(120, eps=1e-05, momentum=0.1, affine=True, track_running_stats=True)
      (conv_2): Conv2d(120, 30, kernel_size=(3, 3), stride=(1, 1), padding=(1, 1), bias=False)
    )
    (12): Bottleneck(
      (bn_1): BatchNorm2d(960, eps=1e-05, momentum=0.1, affine=True, track_running_stats=True)
      (conv_1): Conv2d(960, 120, kernel_size=(1, 1), stride=(1, 1), bias=False)
      (bn_2): BatchNorm2d(120, eps=1e-05, momentum=0.1, affine=True, track_running_stats=True)
      (conv_2): Conv2d(120, 30, kernel_size=(3, 3), stride=(1, 1), padding=(1, 1), bias=False)
    )
    (13): Bottleneck(
      (bn_1): BatchNorm2d(990, eps=1e-05, momentum=0.1, affine=True, track_running_stats=True)
      (conv_1): Conv2d(990, 120, kernel_size=(1, 1), stride=(1, 1), bias=False)
      (bn_2): BatchNorm2d(120, eps=1e-05, momentum=0.1, affine=True, track_running_stats=True)
      (conv_2): Conv2d(120, 30, kernel_size=(3, 3), stride=(1, 1), padding=(1, 1), bias=False)
    )
    (14): Bottleneck(
      (bn_1): BatchNorm2d(1020, eps=1e-05, momentum=0.1, affine=True, track_running_stats=True)
      (conv_1): Conv2d(1020, 120, kernel_size=(1, 1), stride=(1, 1), bias=False)
      (bn_2): BatchNorm2d(120, eps=1e-05, momentum=0.1, affine=True, track_running_stats=True)
      (conv_2): Conv2d(120, 30, kernel_size=(3, 3), stride=(1, 1), padding=(1, 1), bias=False)
    )
    (15): Bottleneck(
      (bn_1): BatchNorm2d(1050, eps=1e-05, momentum=0.1, affine=True, track_running_stats=True)
      (conv_1): Conv2d(1050, 120, kernel_size=(1, 1), stride=(1, 1), bias=False)
      (bn_2): BatchNorm2d(120, eps=1e-05, momentum=0.1, affine=True, track_running_stats=True)
      (conv_2): Conv2d(120, 30, kernel_size=(3, 3), stride=(1, 1), padding=(1, 1), bias=False)
    )
    (16): Bottleneck(
      (bn_1): BatchNorm2d(1080, eps=1e-05, momentum=0.1, affine=True, track_running_stats=True)
      (conv_1): Conv2d(1080, 120, kernel_size=(1, 1), stride=(1, 1), bias=False)
      (bn_2): BatchNorm2d(120, eps=1e-05, momentum=0.1, affine=True, track_running_stats=True)
      (conv_2): Conv2d(120, 30, kernel_size=(3, 3), stride=(1, 1), padding=(1, 1), bias=False)
    )
    (17): Bottleneck(
      (bn_1): BatchNorm2d(1110, eps=1e-05, momentum=0.1, affine=True, track_running_stats=True)
      (conv_1): Conv2d(1110, 120, kernel_size=(1, 1), stride=(1, 1), bias=False)
      (bn_2): BatchNorm2d(120, eps=1e-05, momentum=0.1, affine=True, track_running_stats=True)
      (conv_2): Conv2d(120, 30, kernel_size=(3, 3), stride=(1, 1), padding=(1, 1), bias=False)
    )
    (18): Bottleneck(
      (bn_1): BatchNorm2d(1140, eps=1e-05, momentum=0.1, affine=True, track_running_stats=True)
      (conv_1): Conv2d(1140, 120, kernel_size=(1, 1), stride=(1, 1), bias=False)
      (bn_2): BatchNorm2d(120, eps=1e-05, momentum=0.1, affine=True, track_running_stats=True)
      (conv_2): Conv2d(120, 30, kernel_size=(3, 3), stride=(1, 1), padding=(1, 1), bias=False)
    )
    (19): Bottleneck(
      (bn_1): BatchNorm2d(1170, eps=1e-05, momentum=0.1, affine=True, track_running_stats=True)
      (conv_1): Conv2d(1170, 120, kernel_size=(1, 1), stride=(1, 1), bias=False)
      (bn_2): BatchNorm2d(120, eps=1e-05, momentum=0.1, affine=True, track_running_stats=True)
      (conv_2): Conv2d(120, 30, kernel_size=(3, 3), stride=(1, 1), padding=(1, 1), bias=False)
    )
    (20): Bottleneck(
      (bn_1): BatchNorm2d(1200, eps=1e-05, momentum=0.1, affine=True, track_running_stats=True)
      (conv_1): Conv2d(1200, 120, kernel_size=(1, 1), stride=(1, 1), bias=False)
      (bn_2): BatchNorm2d(120, eps=1e-05, momentum=0.1, affine=True, track_running_stats=True)
      (conv_2): Conv2d(120, 30, kernel_size=(3, 3), stride=(1, 1), padding=(1, 1), bias=False)
    )
    (21): Bottleneck(
      (bn_1): BatchNorm2d(1230, eps=1e-05, momentum=0.1, affine=True, track_running_stats=True)
      (conv_1): Conv2d(1230, 120, kernel_size=(1, 1), stride=(1, 1), bias=False)
      (bn_2): BatchNorm2d(120, eps=1e-05, momentum=0.1, affine=True, track_running_stats=True)
      (conv_2): Conv2d(120, 30, kernel_size=(3, 3), stride=(1, 1), padding=(1, 1), bias=False)
    )
    (22): Bottleneck(
      (bn_1): BatchNorm2d(1260, eps=1e-05, momentum=0.1, affine=True, track_running_stats=True)
      (conv_1): Conv2d(1260, 120, kernel_size=(1, 1), stride=(1, 1), bias=False)
      (bn_2): BatchNorm2d(120, eps=1e-05, momentum=0.1, affine=True, track_running_stats=True)
      (conv_2): Conv2d(120, 30, kernel_size=(3, 3), stride=(1, 1), padding=(1, 1), bias=False)
    )
    (23): Bottleneck(
      (bn_1): BatchNorm2d(1290, eps=1e-05, momentum=0.1, affine=True, track_running_stats=True)
      (conv_1): Conv2d(1290, 120, kernel_size=(1, 1), stride=(1, 1), bias=False)
      (bn_2): BatchNorm2d(120, eps=1e-05, momentum=0.1, affine=True, track_running_stats=True)
      (conv_2): Conv2d(120, 30, kernel_size=(3, 3), stride=(1, 1), padding=(1, 1), bias=False)
    )
    (24): Bottleneck(
      (bn_1): BatchNorm2d(1320, eps=1e-05, momentum=0.1, affine=True, track_running_stats=True)
      (conv_1): Conv2d(1320, 120, kernel_size=(1, 1), stride=(1, 1), bias=False)
      (bn_2): BatchNorm2d(120, eps=1e-05, momentum=0.1, affine=True, track_running_stats=True)
      (conv_2): Conv2d(120, 30, kernel_size=(3, 3), stride=(1, 1), padding=(1, 1), bias=False)
    )
    (25): Bottleneck(
      (bn_1): BatchNorm2d(1350, eps=1e-05, momentum=0.1, affine=True, track_running_stats=True)
      (conv_1): Conv2d(1350, 120, kernel_size=(1, 1), stride=(1, 1), bias=False)
      (bn_2): BatchNorm2d(120, eps=1e-05, momentum=0.1, affine=True, track_running_stats=True)
      (conv_2): Conv2d(120, 30, kernel_size=(3, 3), stride=(1, 1), padding=(1, 1), bias=False)
    )
  )
  (bn): BatchNorm2d(1380, eps=1e-05, momentum=0.1, affine=True, track_running_stats=True)
  (fc): Linear(in_features=1380, out_features=10, bias=True)
)
[2019-10-21 15:51:08,312] - [train.py line:148] :  == total parameters: 10635250
[2019-10-21 15:51:18,414] - [train.py line:187] :             =======  Training  =======

[2019-10-21 15:51:18,422] - [train.py line:39] :  === Epoch: [1/300] === 
[2019-10-21 15:52:59,631] - [train.py line:143] : {'architecture': 'densenet160bc', 'data_path': './data', 'ckpt_path': './', 'ckpt_name': 'densenet160bc', 'num_classes': 10, 'dataset': 'cifar10', 'use_gpu': True, 'input_size': 32, 'epochs': 300, 'batch_size': 256, 'test_batch': 200, 'eval_freq': 2, 'workers': 6, 'optimize': {'momentum': 0.9, 'weight_decay': 0.0001, 'nesterov': True}, 'mixup': False, 'mixup_alpha': 0.4, 'augmentation': {'normalize': True, 'random_crop': True, 'random_horizontal_filp': True, 'cutout': False, 'holes': 1, 'length': 8}, 'lr_scheduler': {'type': 'STEP', 'base_lr': 0.1, 'lr_epochs': [150, 225], 'lr_mults': 0.1, 'min_lr': 0.0, 'lower_bound': -6.0, 'upper_bound': 3.0}}
[2019-10-21 15:52:59,900] - [train.py line:147] : DenseNet(
  (conv_1): Conv2d(3, 50, kernel_size=(3, 3), stride=(1, 1), padding=(1, 1), bias=False)
  (dense1): Sequential(
    (0): Bottleneck(
      (bn_1): BatchNorm2d(50, eps=1e-05, momentum=0.1, affine=True, track_running_stats=True)
      (conv_1): Conv2d(50, 100, kernel_size=(1, 1), stride=(1, 1), bias=False)
      (bn_2): BatchNorm2d(100, eps=1e-05, momentum=0.1, affine=True, track_running_stats=True)
      (conv_2): Conv2d(100, 25, kernel_size=(3, 3), stride=(1, 1), padding=(1, 1), bias=False)
    )
    (1): Bottleneck(
      (bn_1): BatchNorm2d(75, eps=1e-05, momentum=0.1, affine=True, track_running_stats=True)
      (conv_1): Conv2d(75, 100, kernel_size=(1, 1), stride=(1, 1), bias=False)
      (bn_2): BatchNorm2d(100, eps=1e-05, momentum=0.1, affine=True, track_running_stats=True)
      (conv_2): Conv2d(100, 25, kernel_size=(3, 3), stride=(1, 1), padding=(1, 1), bias=False)
    )
    (2): Bottleneck(
      (bn_1): BatchNorm2d(100, eps=1e-05, momentum=0.1, affine=True, track_running_stats=True)
      (conv_1): Conv2d(100, 100, kernel_size=(1, 1), stride=(1, 1), bias=False)
      (bn_2): BatchNorm2d(100, eps=1e-05, momentum=0.1, affine=True, track_running_stats=True)
      (conv_2): Conv2d(100, 25, kernel_size=(3, 3), stride=(1, 1), padding=(1, 1), bias=False)
    )
    (3): Bottleneck(
      (bn_1): BatchNorm2d(125, eps=1e-05, momentum=0.1, affine=True, track_running_stats=True)
      (conv_1): Conv2d(125, 100, kernel_size=(1, 1), stride=(1, 1), bias=False)
      (bn_2): BatchNorm2d(100, eps=1e-05, momentum=0.1, affine=True, track_running_stats=True)
      (conv_2): Conv2d(100, 25, kernel_size=(3, 3), stride=(1, 1), padding=(1, 1), bias=False)
    )
    (4): Bottleneck(
      (bn_1): BatchNorm2d(150, eps=1e-05, momentum=0.1, affine=True, track_running_stats=True)
      (conv_1): Conv2d(150, 100, kernel_size=(1, 1), stride=(1, 1), bias=False)
      (bn_2): BatchNorm2d(100, eps=1e-05, momentum=0.1, affine=True, track_running_stats=True)
      (conv_2): Conv2d(100, 25, kernel_size=(3, 3), stride=(1, 1), padding=(1, 1), bias=False)
    )
    (5): Bottleneck(
      (bn_1): BatchNorm2d(175, eps=1e-05, momentum=0.1, affine=True, track_running_stats=True)
      (conv_1): Conv2d(175, 100, kernel_size=(1, 1), stride=(1, 1), bias=False)
      (bn_2): BatchNorm2d(100, eps=1e-05, momentum=0.1, affine=True, track_running_stats=True)
      (conv_2): Conv2d(100, 25, kernel_size=(3, 3), stride=(1, 1), padding=(1, 1), bias=False)
    )
    (6): Bottleneck(
      (bn_1): BatchNorm2d(200, eps=1e-05, momentum=0.1, affine=True, track_running_stats=True)
      (conv_1): Conv2d(200, 100, kernel_size=(1, 1), stride=(1, 1), bias=False)
      (bn_2): BatchNorm2d(100, eps=1e-05, momentum=0.1, affine=True, track_running_stats=True)
      (conv_2): Conv2d(100, 25, kernel_size=(3, 3), stride=(1, 1), padding=(1, 1), bias=False)
    )
    (7): Bottleneck(
      (bn_1): BatchNorm2d(225, eps=1e-05, momentum=0.1, affine=True, track_running_stats=True)
      (conv_1): Conv2d(225, 100, kernel_size=(1, 1), stride=(1, 1), bias=False)
      (bn_2): BatchNorm2d(100, eps=1e-05, momentum=0.1, affine=True, track_running_stats=True)
      (conv_2): Conv2d(100, 25, kernel_size=(3, 3), stride=(1, 1), padding=(1, 1), bias=False)
    )
    (8): Bottleneck(
      (bn_1): BatchNorm2d(250, eps=1e-05, momentum=0.1, affine=True, track_running_stats=True)
      (conv_1): Conv2d(250, 100, kernel_size=(1, 1), stride=(1, 1), bias=False)
      (bn_2): BatchNorm2d(100, eps=1e-05, momentum=0.1, affine=True, track_running_stats=True)
      (conv_2): Conv2d(100, 25, kernel_size=(3, 3), stride=(1, 1), padding=(1, 1), bias=False)
    )
    (9): Bottleneck(
      (bn_1): BatchNorm2d(275, eps=1e-05, momentum=0.1, affine=True, track_running_stats=True)
      (conv_1): Conv2d(275, 100, kernel_size=(1, 1), stride=(1, 1), bias=False)
      (bn_2): BatchNorm2d(100, eps=1e-05, momentum=0.1, affine=True, track_running_stats=True)
      (conv_2): Conv2d(100, 25, kernel_size=(3, 3), stride=(1, 1), padding=(1, 1), bias=False)
    )
    (10): Bottleneck(
      (bn_1): BatchNorm2d(300, eps=1e-05, momentum=0.1, affine=True, track_running_stats=True)
      (conv_1): Conv2d(300, 100, kernel_size=(1, 1), stride=(1, 1), bias=False)
      (bn_2): BatchNorm2d(100, eps=1e-05, momentum=0.1, affine=True, track_running_stats=True)
      (conv_2): Conv2d(100, 25, kernel_size=(3, 3), stride=(1, 1), padding=(1, 1), bias=False)
    )
    (11): Bottleneck(
      (bn_1): BatchNorm2d(325, eps=1e-05, momentum=0.1, affine=True, track_running_stats=True)
      (conv_1): Conv2d(325, 100, kernel_size=(1, 1), stride=(1, 1), bias=False)
      (bn_2): BatchNorm2d(100, eps=1e-05, momentum=0.1, affine=True, track_running_stats=True)
      (conv_2): Conv2d(100, 25, kernel_size=(3, 3), stride=(1, 1), padding=(1, 1), bias=False)
    )
    (12): Bottleneck(
      (bn_1): BatchNorm2d(350, eps=1e-05, momentum=0.1, affine=True, track_running_stats=True)
      (conv_1): Conv2d(350, 100, kernel_size=(1, 1), stride=(1, 1), bias=False)
      (bn_2): BatchNorm2d(100, eps=1e-05, momentum=0.1, affine=True, track_running_stats=True)
      (conv_2): Conv2d(100, 25, kernel_size=(3, 3), stride=(1, 1), padding=(1, 1), bias=False)
    )
    (13): Bottleneck(
      (bn_1): BatchNorm2d(375, eps=1e-05, momentum=0.1, affine=True, track_running_stats=True)
      (conv_1): Conv2d(375, 100, kernel_size=(1, 1), stride=(1, 1), bias=False)
      (bn_2): BatchNorm2d(100, eps=1e-05, momentum=0.1, affine=True, track_running_stats=True)
      (conv_2): Conv2d(100, 25, kernel_size=(3, 3), stride=(1, 1), padding=(1, 1), bias=False)
    )
    (14): Bottleneck(
      (bn_1): BatchNorm2d(400, eps=1e-05, momentum=0.1, affine=True, track_running_stats=True)
      (conv_1): Conv2d(400, 100, kernel_size=(1, 1), stride=(1, 1), bias=False)
      (bn_2): BatchNorm2d(100, eps=1e-05, momentum=0.1, affine=True, track_running_stats=True)
      (conv_2): Conv2d(100, 25, kernel_size=(3, 3), stride=(1, 1), padding=(1, 1), bias=False)
    )
    (15): Bottleneck(
      (bn_1): BatchNorm2d(425, eps=1e-05, momentum=0.1, affine=True, track_running_stats=True)
      (conv_1): Conv2d(425, 100, kernel_size=(1, 1), stride=(1, 1), bias=False)
      (bn_2): BatchNorm2d(100, eps=1e-05, momentum=0.1, affine=True, track_running_stats=True)
      (conv_2): Conv2d(100, 25, kernel_size=(3, 3), stride=(1, 1), padding=(1, 1), bias=False)
    )
    (16): Bottleneck(
      (bn_1): BatchNorm2d(450, eps=1e-05, momentum=0.1, affine=True, track_running_stats=True)
      (conv_1): Conv2d(450, 100, kernel_size=(1, 1), stride=(1, 1), bias=False)
      (bn_2): BatchNorm2d(100, eps=1e-05, momentum=0.1, affine=True, track_running_stats=True)
      (conv_2): Conv2d(100, 25, kernel_size=(3, 3), stride=(1, 1), padding=(1, 1), bias=False)
    )
    (17): Bottleneck(
      (bn_1): BatchNorm2d(475, eps=1e-05, momentum=0.1, affine=True, track_running_stats=True)
      (conv_1): Conv2d(475, 100, kernel_size=(1, 1), stride=(1, 1), bias=False)
      (bn_2): BatchNorm2d(100, eps=1e-05, momentum=0.1, affine=True, track_running_stats=True)
      (conv_2): Conv2d(100, 25, kernel_size=(3, 3), stride=(1, 1), padding=(1, 1), bias=False)
    )
    (18): Bottleneck(
      (bn_1): BatchNorm2d(500, eps=1e-05, momentum=0.1, affine=True, track_running_stats=True)
      (conv_1): Conv2d(500, 100, kernel_size=(1, 1), stride=(1, 1), bias=False)
      (bn_2): BatchNorm2d(100, eps=1e-05, momentum=0.1, affine=True, track_running_stats=True)
      (conv_2): Conv2d(100, 25, kernel_size=(3, 3), stride=(1, 1), padding=(1, 1), bias=False)
    )
    (19): Bottleneck(
      (bn_1): BatchNorm2d(525, eps=1e-05, momentum=0.1, affine=True, track_running_stats=True)
      (conv_1): Conv2d(525, 100, kernel_size=(1, 1), stride=(1, 1), bias=False)
      (bn_2): BatchNorm2d(100, eps=1e-05, momentum=0.1, affine=True, track_running_stats=True)
      (conv_2): Conv2d(100, 25, kernel_size=(3, 3), stride=(1, 1), padding=(1, 1), bias=False)
    )
    (20): Bottleneck(
      (bn_1): BatchNorm2d(550, eps=1e-05, momentum=0.1, affine=True, track_running_stats=True)
      (conv_1): Conv2d(550, 100, kernel_size=(1, 1), stride=(1, 1), bias=False)
      (bn_2): BatchNorm2d(100, eps=1e-05, momentum=0.1, affine=True, track_running_stats=True)
      (conv_2): Conv2d(100, 25, kernel_size=(3, 3), stride=(1, 1), padding=(1, 1), bias=False)
    )
    (21): Bottleneck(
      (bn_1): BatchNorm2d(575, eps=1e-05, momentum=0.1, affine=True, track_running_stats=True)
      (conv_1): Conv2d(575, 100, kernel_size=(1, 1), stride=(1, 1), bias=False)
      (bn_2): BatchNorm2d(100, eps=1e-05, momentum=0.1, affine=True, track_running_stats=True)
      (conv_2): Conv2d(100, 25, kernel_size=(3, 3), stride=(1, 1), padding=(1, 1), bias=False)
    )
    (22): Bottleneck(
      (bn_1): BatchNorm2d(600, eps=1e-05, momentum=0.1, affine=True, track_running_stats=True)
      (conv_1): Conv2d(600, 100, kernel_size=(1, 1), stride=(1, 1), bias=False)
      (bn_2): BatchNorm2d(100, eps=1e-05, momentum=0.1, affine=True, track_running_stats=True)
      (conv_2): Conv2d(100, 25, kernel_size=(3, 3), stride=(1, 1), padding=(1, 1), bias=False)
    )
    (23): Bottleneck(
      (bn_1): BatchNorm2d(625, eps=1e-05, momentum=0.1, affine=True, track_running_stats=True)
      (conv_1): Conv2d(625, 100, kernel_size=(1, 1), stride=(1, 1), bias=False)
      (bn_2): BatchNorm2d(100, eps=1e-05, momentum=0.1, affine=True, track_running_stats=True)
      (conv_2): Conv2d(100, 25, kernel_size=(3, 3), stride=(1, 1), padding=(1, 1), bias=False)
    )
    (24): Bottleneck(
      (bn_1): BatchNorm2d(650, eps=1e-05, momentum=0.1, affine=True, track_running_stats=True)
      (conv_1): Conv2d(650, 100, kernel_size=(1, 1), stride=(1, 1), bias=False)
      (bn_2): BatchNorm2d(100, eps=1e-05, momentum=0.1, affine=True, track_running_stats=True)
      (conv_2): Conv2d(100, 25, kernel_size=(3, 3), stride=(1, 1), padding=(1, 1), bias=False)
    )
    (25): Bottleneck(
      (bn_1): BatchNorm2d(675, eps=1e-05, momentum=0.1, affine=True, track_running_stats=True)
      (conv_1): Conv2d(675, 100, kernel_size=(1, 1), stride=(1, 1), bias=False)
      (bn_2): BatchNorm2d(100, eps=1e-05, momentum=0.1, affine=True, track_running_stats=True)
      (conv_2): Conv2d(100, 25, kernel_size=(3, 3), stride=(1, 1), padding=(1, 1), bias=False)
    )
  )
  (trans_1): Transition(
    (bn): BatchNorm2d(700, eps=1e-05, momentum=0.1, affine=True, track_running_stats=True)
    (conv): Conv2d(700, 350, kernel_size=(1, 1), stride=(1, 1), bias=False)
  )
  (dense2): Sequential(
    (0): Bottleneck(
      (bn_1): BatchNorm2d(350, eps=1e-05, momentum=0.1, affine=True, track_running_stats=True)
      (conv_1): Conv2d(350, 100, kernel_size=(1, 1), stride=(1, 1), bias=False)
      (bn_2): BatchNorm2d(100, eps=1e-05, momentum=0.1, affine=True, track_running_stats=True)
      (conv_2): Conv2d(100, 25, kernel_size=(3, 3), stride=(1, 1), padding=(1, 1), bias=False)
    )
    (1): Bottleneck(
      (bn_1): BatchNorm2d(375, eps=1e-05, momentum=0.1, affine=True, track_running_stats=True)
      (conv_1): Conv2d(375, 100, kernel_size=(1, 1), stride=(1, 1), bias=False)
      (bn_2): BatchNorm2d(100, eps=1e-05, momentum=0.1, affine=True, track_running_stats=True)
      (conv_2): Conv2d(100, 25, kernel_size=(3, 3), stride=(1, 1), padding=(1, 1), bias=False)
    )
    (2): Bottleneck(
      (bn_1): BatchNorm2d(400, eps=1e-05, momentum=0.1, affine=True, track_running_stats=True)
      (conv_1): Conv2d(400, 100, kernel_size=(1, 1), stride=(1, 1), bias=False)
      (bn_2): BatchNorm2d(100, eps=1e-05, momentum=0.1, affine=True, track_running_stats=True)
      (conv_2): Conv2d(100, 25, kernel_size=(3, 3), stride=(1, 1), padding=(1, 1), bias=False)
    )
    (3): Bottleneck(
      (bn_1): BatchNorm2d(425, eps=1e-05, momentum=0.1, affine=True, track_running_stats=True)
      (conv_1): Conv2d(425, 100, kernel_size=(1, 1), stride=(1, 1), bias=False)
      (bn_2): BatchNorm2d(100, eps=1e-05, momentum=0.1, affine=True, track_running_stats=True)
      (conv_2): Conv2d(100, 25, kernel_size=(3, 3), stride=(1, 1), padding=(1, 1), bias=False)
    )
    (4): Bottleneck(
      (bn_1): BatchNorm2d(450, eps=1e-05, momentum=0.1, affine=True, track_running_stats=True)
      (conv_1): Conv2d(450, 100, kernel_size=(1, 1), stride=(1, 1), bias=False)
      (bn_2): BatchNorm2d(100, eps=1e-05, momentum=0.1, affine=True, track_running_stats=True)
      (conv_2): Conv2d(100, 25, kernel_size=(3, 3), stride=(1, 1), padding=(1, 1), bias=False)
    )
    (5): Bottleneck(
      (bn_1): BatchNorm2d(475, eps=1e-05, momentum=0.1, affine=True, track_running_stats=True)
      (conv_1): Conv2d(475, 100, kernel_size=(1, 1), stride=(1, 1), bias=False)
      (bn_2): BatchNorm2d(100, eps=1e-05, momentum=0.1, affine=True, track_running_stats=True)
      (conv_2): Conv2d(100, 25, kernel_size=(3, 3), stride=(1, 1), padding=(1, 1), bias=False)
    )
    (6): Bottleneck(
      (bn_1): BatchNorm2d(500, eps=1e-05, momentum=0.1, affine=True, track_running_stats=True)
      (conv_1): Conv2d(500, 100, kernel_size=(1, 1), stride=(1, 1), bias=False)
      (bn_2): BatchNorm2d(100, eps=1e-05, momentum=0.1, affine=True, track_running_stats=True)
      (conv_2): Conv2d(100, 25, kernel_size=(3, 3), stride=(1, 1), padding=(1, 1), bias=False)
    )
    (7): Bottleneck(
      (bn_1): BatchNorm2d(525, eps=1e-05, momentum=0.1, affine=True, track_running_stats=True)
      (conv_1): Conv2d(525, 100, kernel_size=(1, 1), stride=(1, 1), bias=False)
      (bn_2): BatchNorm2d(100, eps=1e-05, momentum=0.1, affine=True, track_running_stats=True)
      (conv_2): Conv2d(100, 25, kernel_size=(3, 3), stride=(1, 1), padding=(1, 1), bias=False)
    )
    (8): Bottleneck(
      (bn_1): BatchNorm2d(550, eps=1e-05, momentum=0.1, affine=True, track_running_stats=True)
      (conv_1): Conv2d(550, 100, kernel_size=(1, 1), stride=(1, 1), bias=False)
      (bn_2): BatchNorm2d(100, eps=1e-05, momentum=0.1, affine=True, track_running_stats=True)
      (conv_2): Conv2d(100, 25, kernel_size=(3, 3), stride=(1, 1), padding=(1, 1), bias=False)
    )
    (9): Bottleneck(
      (bn_1): BatchNorm2d(575, eps=1e-05, momentum=0.1, affine=True, track_running_stats=True)
      (conv_1): Conv2d(575, 100, kernel_size=(1, 1), stride=(1, 1), bias=False)
      (bn_2): BatchNorm2d(100, eps=1e-05, momentum=0.1, affine=True, track_running_stats=True)
      (conv_2): Conv2d(100, 25, kernel_size=(3, 3), stride=(1, 1), padding=(1, 1), bias=False)
    )
    (10): Bottleneck(
      (bn_1): BatchNorm2d(600, eps=1e-05, momentum=0.1, affine=True, track_running_stats=True)
      (conv_1): Conv2d(600, 100, kernel_size=(1, 1), stride=(1, 1), bias=False)
      (bn_2): BatchNorm2d(100, eps=1e-05, momentum=0.1, affine=True, track_running_stats=True)
      (conv_2): Conv2d(100, 25, kernel_size=(3, 3), stride=(1, 1), padding=(1, 1), bias=False)
    )
    (11): Bottleneck(
      (bn_1): BatchNorm2d(625, eps=1e-05, momentum=0.1, affine=True, track_running_stats=True)
      (conv_1): Conv2d(625, 100, kernel_size=(1, 1), stride=(1, 1), bias=False)
      (bn_2): BatchNorm2d(100, eps=1e-05, momentum=0.1, affine=True, track_running_stats=True)
      (conv_2): Conv2d(100, 25, kernel_size=(3, 3), stride=(1, 1), padding=(1, 1), bias=False)
    )
    (12): Bottleneck(
      (bn_1): BatchNorm2d(650, eps=1e-05, momentum=0.1, affine=True, track_running_stats=True)
      (conv_1): Conv2d(650, 100, kernel_size=(1, 1), stride=(1, 1), bias=False)
      (bn_2): BatchNorm2d(100, eps=1e-05, momentum=0.1, affine=True, track_running_stats=True)
      (conv_2): Conv2d(100, 25, kernel_size=(3, 3), stride=(1, 1), padding=(1, 1), bias=False)
    )
    (13): Bottleneck(
      (bn_1): BatchNorm2d(675, eps=1e-05, momentum=0.1, affine=True, track_running_stats=True)
      (conv_1): Conv2d(675, 100, kernel_size=(1, 1), stride=(1, 1), bias=False)
      (bn_2): BatchNorm2d(100, eps=1e-05, momentum=0.1, affine=True, track_running_stats=True)
      (conv_2): Conv2d(100, 25, kernel_size=(3, 3), stride=(1, 1), padding=(1, 1), bias=False)
    )
    (14): Bottleneck(
      (bn_1): BatchNorm2d(700, eps=1e-05, momentum=0.1, affine=True, track_running_stats=True)
      (conv_1): Conv2d(700, 100, kernel_size=(1, 1), stride=(1, 1), bias=False)
      (bn_2): BatchNorm2d(100, eps=1e-05, momentum=0.1, affine=True, track_running_stats=True)
      (conv_2): Conv2d(100, 25, kernel_size=(3, 3), stride=(1, 1), padding=(1, 1), bias=False)
    )
    (15): Bottleneck(
      (bn_1): BatchNorm2d(725, eps=1e-05, momentum=0.1, affine=True, track_running_stats=True)
      (conv_1): Conv2d(725, 100, kernel_size=(1, 1), stride=(1, 1), bias=False)
      (bn_2): BatchNorm2d(100, eps=1e-05, momentum=0.1, affine=True, track_running_stats=True)
      (conv_2): Conv2d(100, 25, kernel_size=(3, 3), stride=(1, 1), padding=(1, 1), bias=False)
    )
    (16): Bottleneck(
      (bn_1): BatchNorm2d(750, eps=1e-05, momentum=0.1, affine=True, track_running_stats=True)
      (conv_1): Conv2d(750, 100, kernel_size=(1, 1), stride=(1, 1), bias=False)
      (bn_2): BatchNorm2d(100, eps=1e-05, momentum=0.1, affine=True, track_running_stats=True)
      (conv_2): Conv2d(100, 25, kernel_size=(3, 3), stride=(1, 1), padding=(1, 1), bias=False)
    )
    (17): Bottleneck(
      (bn_1): BatchNorm2d(775, eps=1e-05, momentum=0.1, affine=True, track_running_stats=True)
      (conv_1): Conv2d(775, 100, kernel_size=(1, 1), stride=(1, 1), bias=False)
      (bn_2): BatchNorm2d(100, eps=1e-05, momentum=0.1, affine=True, track_running_stats=True)
      (conv_2): Conv2d(100, 25, kernel_size=(3, 3), stride=(1, 1), padding=(1, 1), bias=False)
    )
    (18): Bottleneck(
      (bn_1): BatchNorm2d(800, eps=1e-05, momentum=0.1, affine=True, track_running_stats=True)
      (conv_1): Conv2d(800, 100, kernel_size=(1, 1), stride=(1, 1), bias=False)
      (bn_2): BatchNorm2d(100, eps=1e-05, momentum=0.1, affine=True, track_running_stats=True)
      (conv_2): Conv2d(100, 25, kernel_size=(3, 3), stride=(1, 1), padding=(1, 1), bias=False)
    )
    (19): Bottleneck(
      (bn_1): BatchNorm2d(825, eps=1e-05, momentum=0.1, affine=True, track_running_stats=True)
      (conv_1): Conv2d(825, 100, kernel_size=(1, 1), stride=(1, 1), bias=False)
      (bn_2): BatchNorm2d(100, eps=1e-05, momentum=0.1, affine=True, track_running_stats=True)
      (conv_2): Conv2d(100, 25, kernel_size=(3, 3), stride=(1, 1), padding=(1, 1), bias=False)
    )
    (20): Bottleneck(
      (bn_1): BatchNorm2d(850, eps=1e-05, momentum=0.1, affine=True, track_running_stats=True)
      (conv_1): Conv2d(850, 100, kernel_size=(1, 1), stride=(1, 1), bias=False)
      (bn_2): BatchNorm2d(100, eps=1e-05, momentum=0.1, affine=True, track_running_stats=True)
      (conv_2): Conv2d(100, 25, kernel_size=(3, 3), stride=(1, 1), padding=(1, 1), bias=False)
    )
    (21): Bottleneck(
      (bn_1): BatchNorm2d(875, eps=1e-05, momentum=0.1, affine=True, track_running_stats=True)
      (conv_1): Conv2d(875, 100, kernel_size=(1, 1), stride=(1, 1), bias=False)
      (bn_2): BatchNorm2d(100, eps=1e-05, momentum=0.1, affine=True, track_running_stats=True)
      (conv_2): Conv2d(100, 25, kernel_size=(3, 3), stride=(1, 1), padding=(1, 1), bias=False)
    )
    (22): Bottleneck(
      (bn_1): BatchNorm2d(900, eps=1e-05, momentum=0.1, affine=True, track_running_stats=True)
      (conv_1): Conv2d(900, 100, kernel_size=(1, 1), stride=(1, 1), bias=False)
      (bn_2): BatchNorm2d(100, eps=1e-05, momentum=0.1, affine=True, track_running_stats=True)
      (conv_2): Conv2d(100, 25, kernel_size=(3, 3), stride=(1, 1), padding=(1, 1), bias=False)
    )
    (23): Bottleneck(
      (bn_1): BatchNorm2d(925, eps=1e-05, momentum=0.1, affine=True, track_running_stats=True)
      (conv_1): Conv2d(925, 100, kernel_size=(1, 1), stride=(1, 1), bias=False)
      (bn_2): BatchNorm2d(100, eps=1e-05, momentum=0.1, affine=True, track_running_stats=True)
      (conv_2): Conv2d(100, 25, kernel_size=(3, 3), stride=(1, 1), padding=(1, 1), bias=False)
    )
    (24): Bottleneck(
      (bn_1): BatchNorm2d(950, eps=1e-05, momentum=0.1, affine=True, track_running_stats=True)
      (conv_1): Conv2d(950, 100, kernel_size=(1, 1), stride=(1, 1), bias=False)
      (bn_2): BatchNorm2d(100, eps=1e-05, momentum=0.1, affine=True, track_running_stats=True)
      (conv_2): Conv2d(100, 25, kernel_size=(3, 3), stride=(1, 1), padding=(1, 1), bias=False)
    )
    (25): Bottleneck(
      (bn_1): BatchNorm2d(975, eps=1e-05, momentum=0.1, affine=True, track_running_stats=True)
      (conv_1): Conv2d(975, 100, kernel_size=(1, 1), stride=(1, 1), bias=False)
      (bn_2): BatchNorm2d(100, eps=1e-05, momentum=0.1, affine=True, track_running_stats=True)
      (conv_2): Conv2d(100, 25, kernel_size=(3, 3), stride=(1, 1), padding=(1, 1), bias=False)
    )
  )
  (trans_2): Transition(
    (bn): BatchNorm2d(1000, eps=1e-05, momentum=0.1, affine=True, track_running_stats=True)
    (conv): Conv2d(1000, 500, kernel_size=(1, 1), stride=(1, 1), bias=False)
  )
  (dense_3): Sequential(
    (0): Bottleneck(
      (bn_1): BatchNorm2d(500, eps=1e-05, momentum=0.1, affine=True, track_running_stats=True)
      (conv_1): Conv2d(500, 100, kernel_size=(1, 1), stride=(1, 1), bias=False)
      (bn_2): BatchNorm2d(100, eps=1e-05, momentum=0.1, affine=True, track_running_stats=True)
      (conv_2): Conv2d(100, 25, kernel_size=(3, 3), stride=(1, 1), padding=(1, 1), bias=False)
    )
    (1): Bottleneck(
      (bn_1): BatchNorm2d(525, eps=1e-05, momentum=0.1, affine=True, track_running_stats=True)
      (conv_1): Conv2d(525, 100, kernel_size=(1, 1), stride=(1, 1), bias=False)
      (bn_2): BatchNorm2d(100, eps=1e-05, momentum=0.1, affine=True, track_running_stats=True)
      (conv_2): Conv2d(100, 25, kernel_size=(3, 3), stride=(1, 1), padding=(1, 1), bias=False)
    )
    (2): Bottleneck(
      (bn_1): BatchNorm2d(550, eps=1e-05, momentum=0.1, affine=True, track_running_stats=True)
      (conv_1): Conv2d(550, 100, kernel_size=(1, 1), stride=(1, 1), bias=False)
      (bn_2): BatchNorm2d(100, eps=1e-05, momentum=0.1, affine=True, track_running_stats=True)
      (conv_2): Conv2d(100, 25, kernel_size=(3, 3), stride=(1, 1), padding=(1, 1), bias=False)
    )
    (3): Bottleneck(
      (bn_1): BatchNorm2d(575, eps=1e-05, momentum=0.1, affine=True, track_running_stats=True)
      (conv_1): Conv2d(575, 100, kernel_size=(1, 1), stride=(1, 1), bias=False)
      (bn_2): BatchNorm2d(100, eps=1e-05, momentum=0.1, affine=True, track_running_stats=True)
      (conv_2): Conv2d(100, 25, kernel_size=(3, 3), stride=(1, 1), padding=(1, 1), bias=False)
    )
    (4): Bottleneck(
      (bn_1): BatchNorm2d(600, eps=1e-05, momentum=0.1, affine=True, track_running_stats=True)
      (conv_1): Conv2d(600, 100, kernel_size=(1, 1), stride=(1, 1), bias=False)
      (bn_2): BatchNorm2d(100, eps=1e-05, momentum=0.1, affine=True, track_running_stats=True)
      (conv_2): Conv2d(100, 25, kernel_size=(3, 3), stride=(1, 1), padding=(1, 1), bias=False)
    )
    (5): Bottleneck(
      (bn_1): BatchNorm2d(625, eps=1e-05, momentum=0.1, affine=True, track_running_stats=True)
      (conv_1): Conv2d(625, 100, kernel_size=(1, 1), stride=(1, 1), bias=False)
      (bn_2): BatchNorm2d(100, eps=1e-05, momentum=0.1, affine=True, track_running_stats=True)
      (conv_2): Conv2d(100, 25, kernel_size=(3, 3), stride=(1, 1), padding=(1, 1), bias=False)
    )
    (6): Bottleneck(
      (bn_1): BatchNorm2d(650, eps=1e-05, momentum=0.1, affine=True, track_running_stats=True)
      (conv_1): Conv2d(650, 100, kernel_size=(1, 1), stride=(1, 1), bias=False)
      (bn_2): BatchNorm2d(100, eps=1e-05, momentum=0.1, affine=True, track_running_stats=True)
      (conv_2): Conv2d(100, 25, kernel_size=(3, 3), stride=(1, 1), padding=(1, 1), bias=False)
    )
    (7): Bottleneck(
      (bn_1): BatchNorm2d(675, eps=1e-05, momentum=0.1, affine=True, track_running_stats=True)
      (conv_1): Conv2d(675, 100, kernel_size=(1, 1), stride=(1, 1), bias=False)
      (bn_2): BatchNorm2d(100, eps=1e-05, momentum=0.1, affine=True, track_running_stats=True)
      (conv_2): Conv2d(100, 25, kernel_size=(3, 3), stride=(1, 1), padding=(1, 1), bias=False)
    )
    (8): Bottleneck(
      (bn_1): BatchNorm2d(700, eps=1e-05, momentum=0.1, affine=True, track_running_stats=True)
      (conv_1): Conv2d(700, 100, kernel_size=(1, 1), stride=(1, 1), bias=False)
      (bn_2): BatchNorm2d(100, eps=1e-05, momentum=0.1, affine=True, track_running_stats=True)
      (conv_2): Conv2d(100, 25, kernel_size=(3, 3), stride=(1, 1), padding=(1, 1), bias=False)
    )
    (9): Bottleneck(
      (bn_1): BatchNorm2d(725, eps=1e-05, momentum=0.1, affine=True, track_running_stats=True)
      (conv_1): Conv2d(725, 100, kernel_size=(1, 1), stride=(1, 1), bias=False)
      (bn_2): BatchNorm2d(100, eps=1e-05, momentum=0.1, affine=True, track_running_stats=True)
      (conv_2): Conv2d(100, 25, kernel_size=(3, 3), stride=(1, 1), padding=(1, 1), bias=False)
    )
    (10): Bottleneck(
      (bn_1): BatchNorm2d(750, eps=1e-05, momentum=0.1, affine=True, track_running_stats=True)
      (conv_1): Conv2d(750, 100, kernel_size=(1, 1), stride=(1, 1), bias=False)
      (bn_2): BatchNorm2d(100, eps=1e-05, momentum=0.1, affine=True, track_running_stats=True)
      (conv_2): Conv2d(100, 25, kernel_size=(3, 3), stride=(1, 1), padding=(1, 1), bias=False)
    )
    (11): Bottleneck(
      (bn_1): BatchNorm2d(775, eps=1e-05, momentum=0.1, affine=True, track_running_stats=True)
      (conv_1): Conv2d(775, 100, kernel_size=(1, 1), stride=(1, 1), bias=False)
      (bn_2): BatchNorm2d(100, eps=1e-05, momentum=0.1, affine=True, track_running_stats=True)
      (conv_2): Conv2d(100, 25, kernel_size=(3, 3), stride=(1, 1), padding=(1, 1), bias=False)
    )
    (12): Bottleneck(
      (bn_1): BatchNorm2d(800, eps=1e-05, momentum=0.1, affine=True, track_running_stats=True)
      (conv_1): Conv2d(800, 100, kernel_size=(1, 1), stride=(1, 1), bias=False)
      (bn_2): BatchNorm2d(100, eps=1e-05, momentum=0.1, affine=True, track_running_stats=True)
      (conv_2): Conv2d(100, 25, kernel_size=(3, 3), stride=(1, 1), padding=(1, 1), bias=False)
    )
    (13): Bottleneck(
      (bn_1): BatchNorm2d(825, eps=1e-05, momentum=0.1, affine=True, track_running_stats=True)
      (conv_1): Conv2d(825, 100, kernel_size=(1, 1), stride=(1, 1), bias=False)
      (bn_2): BatchNorm2d(100, eps=1e-05, momentum=0.1, affine=True, track_running_stats=True)
      (conv_2): Conv2d(100, 25, kernel_size=(3, 3), stride=(1, 1), padding=(1, 1), bias=False)
    )
    (14): Bottleneck(
      (bn_1): BatchNorm2d(850, eps=1e-05, momentum=0.1, affine=True, track_running_stats=True)
      (conv_1): Conv2d(850, 100, kernel_size=(1, 1), stride=(1, 1), bias=False)
      (bn_2): BatchNorm2d(100, eps=1e-05, momentum=0.1, affine=True, track_running_stats=True)
      (conv_2): Conv2d(100, 25, kernel_size=(3, 3), stride=(1, 1), padding=(1, 1), bias=False)
    )
    (15): Bottleneck(
      (bn_1): BatchNorm2d(875, eps=1e-05, momentum=0.1, affine=True, track_running_stats=True)
      (conv_1): Conv2d(875, 100, kernel_size=(1, 1), stride=(1, 1), bias=False)
      (bn_2): BatchNorm2d(100, eps=1e-05, momentum=0.1, affine=True, track_running_stats=True)
      (conv_2): Conv2d(100, 25, kernel_size=(3, 3), stride=(1, 1), padding=(1, 1), bias=False)
    )
    (16): Bottleneck(
      (bn_1): BatchNorm2d(900, eps=1e-05, momentum=0.1, affine=True, track_running_stats=True)
      (conv_1): Conv2d(900, 100, kernel_size=(1, 1), stride=(1, 1), bias=False)
      (bn_2): BatchNorm2d(100, eps=1e-05, momentum=0.1, affine=True, track_running_stats=True)
      (conv_2): Conv2d(100, 25, kernel_size=(3, 3), stride=(1, 1), padding=(1, 1), bias=False)
    )
    (17): Bottleneck(
      (bn_1): BatchNorm2d(925, eps=1e-05, momentum=0.1, affine=True, track_running_stats=True)
      (conv_1): Conv2d(925, 100, kernel_size=(1, 1), stride=(1, 1), bias=False)
      (bn_2): BatchNorm2d(100, eps=1e-05, momentum=0.1, affine=True, track_running_stats=True)
      (conv_2): Conv2d(100, 25, kernel_size=(3, 3), stride=(1, 1), padding=(1, 1), bias=False)
    )
    (18): Bottleneck(
      (bn_1): BatchNorm2d(950, eps=1e-05, momentum=0.1, affine=True, track_running_stats=True)
      (conv_1): Conv2d(950, 100, kernel_size=(1, 1), stride=(1, 1), bias=False)
      (bn_2): BatchNorm2d(100, eps=1e-05, momentum=0.1, affine=True, track_running_stats=True)
      (conv_2): Conv2d(100, 25, kernel_size=(3, 3), stride=(1, 1), padding=(1, 1), bias=False)
    )
    (19): Bottleneck(
      (bn_1): BatchNorm2d(975, eps=1e-05, momentum=0.1, affine=True, track_running_stats=True)
      (conv_1): Conv2d(975, 100, kernel_size=(1, 1), stride=(1, 1), bias=False)
      (bn_2): BatchNorm2d(100, eps=1e-05, momentum=0.1, affine=True, track_running_stats=True)
      (conv_2): Conv2d(100, 25, kernel_size=(3, 3), stride=(1, 1), padding=(1, 1), bias=False)
    )
    (20): Bottleneck(
      (bn_1): BatchNorm2d(1000, eps=1e-05, momentum=0.1, affine=True, track_running_stats=True)
      (conv_1): Conv2d(1000, 100, kernel_size=(1, 1), stride=(1, 1), bias=False)
      (bn_2): BatchNorm2d(100, eps=1e-05, momentum=0.1, affine=True, track_running_stats=True)
      (conv_2): Conv2d(100, 25, kernel_size=(3, 3), stride=(1, 1), padding=(1, 1), bias=False)
    )
    (21): Bottleneck(
      (bn_1): BatchNorm2d(1025, eps=1e-05, momentum=0.1, affine=True, track_running_stats=True)
      (conv_1): Conv2d(1025, 100, kernel_size=(1, 1), stride=(1, 1), bias=False)
      (bn_2): BatchNorm2d(100, eps=1e-05, momentum=0.1, affine=True, track_running_stats=True)
      (conv_2): Conv2d(100, 25, kernel_size=(3, 3), stride=(1, 1), padding=(1, 1), bias=False)
    )
    (22): Bottleneck(
      (bn_1): BatchNorm2d(1050, eps=1e-05, momentum=0.1, affine=True, track_running_stats=True)
      (conv_1): Conv2d(1050, 100, kernel_size=(1, 1), stride=(1, 1), bias=False)
      (bn_2): BatchNorm2d(100, eps=1e-05, momentum=0.1, affine=True, track_running_stats=True)
      (conv_2): Conv2d(100, 25, kernel_size=(3, 3), stride=(1, 1), padding=(1, 1), bias=False)
    )
    (23): Bottleneck(
      (bn_1): BatchNorm2d(1075, eps=1e-05, momentum=0.1, affine=True, track_running_stats=True)
      (conv_1): Conv2d(1075, 100, kernel_size=(1, 1), stride=(1, 1), bias=False)
      (bn_2): BatchNorm2d(100, eps=1e-05, momentum=0.1, affine=True, track_running_stats=True)
      (conv_2): Conv2d(100, 25, kernel_size=(3, 3), stride=(1, 1), padding=(1, 1), bias=False)
    )
    (24): Bottleneck(
      (bn_1): BatchNorm2d(1100, eps=1e-05, momentum=0.1, affine=True, track_running_stats=True)
      (conv_1): Conv2d(1100, 100, kernel_size=(1, 1), stride=(1, 1), bias=False)
      (bn_2): BatchNorm2d(100, eps=1e-05, momentum=0.1, affine=True, track_running_stats=True)
      (conv_2): Conv2d(100, 25, kernel_size=(3, 3), stride=(1, 1), padding=(1, 1), bias=False)
    )
    (25): Bottleneck(
      (bn_1): BatchNorm2d(1125, eps=1e-05, momentum=0.1, affine=True, track_running_stats=True)
      (conv_1): Conv2d(1125, 100, kernel_size=(1, 1), stride=(1, 1), bias=False)
      (bn_2): BatchNorm2d(100, eps=1e-05, momentum=0.1, affine=True, track_running_stats=True)
      (conv_2): Conv2d(100, 25, kernel_size=(3, 3), stride=(1, 1), padding=(1, 1), bias=False)
    )
  )
  (bn): BatchNorm2d(1150, eps=1e-05, momentum=0.1, affine=True, track_running_stats=True)
  (fc): Linear(in_features=1150, out_features=10, bias=True)
)
[2019-10-21 15:52:59,925] - [train.py line:148] :  == total parameters: 7407210
[2019-10-21 15:53:33,846] - [train.py line:143] : {'architecture': 'densenet160bc', 'data_path': './data', 'ckpt_path': './', 'ckpt_name': 'densenet160bc', 'num_classes': 10, 'dataset': 'cifar10', 'use_gpu': True, 'input_size': 32, 'epochs': 300, 'batch_size': 256, 'test_batch': 200, 'eval_freq': 2, 'workers': 6, 'optimize': {'momentum': 0.9, 'weight_decay': 0.0001, 'nesterov': True}, 'mixup': False, 'mixup_alpha': 0.4, 'augmentation': {'normalize': True, 'random_crop': True, 'random_horizontal_filp': True, 'cutout': False, 'holes': 1, 'length': 8}, 'lr_scheduler': {'type': 'STEP', 'base_lr': 0.1, 'lr_epochs': [150, 225], 'lr_mults': 0.1, 'min_lr': 0.0, 'lower_bound': -6.0, 'upper_bound': 3.0}}
[2019-10-21 15:53:34,095] - [train.py line:147] : DenseNet(
  (conv_1): Conv2d(3, 50, kernel_size=(3, 3), stride=(1, 1), padding=(1, 1), bias=False)
  (dense1): Sequential(
    (0): Bottleneck(
      (bn_1): BatchNorm2d(50, eps=1e-05, momentum=0.1, affine=True, track_running_stats=True)
      (conv_1): Conv2d(50, 100, kernel_size=(1, 1), stride=(1, 1), bias=False)
      (bn_2): BatchNorm2d(100, eps=1e-05, momentum=0.1, affine=True, track_running_stats=True)
      (conv_2): Conv2d(100, 25, kernel_size=(3, 3), stride=(1, 1), padding=(1, 1), bias=False)
    )
    (1): Bottleneck(
      (bn_1): BatchNorm2d(75, eps=1e-05, momentum=0.1, affine=True, track_running_stats=True)
      (conv_1): Conv2d(75, 100, kernel_size=(1, 1), stride=(1, 1), bias=False)
      (bn_2): BatchNorm2d(100, eps=1e-05, momentum=0.1, affine=True, track_running_stats=True)
      (conv_2): Conv2d(100, 25, kernel_size=(3, 3), stride=(1, 1), padding=(1, 1), bias=False)
    )
    (2): Bottleneck(
      (bn_1): BatchNorm2d(100, eps=1e-05, momentum=0.1, affine=True, track_running_stats=True)
      (conv_1): Conv2d(100, 100, kernel_size=(1, 1), stride=(1, 1), bias=False)
      (bn_2): BatchNorm2d(100, eps=1e-05, momentum=0.1, affine=True, track_running_stats=True)
      (conv_2): Conv2d(100, 25, kernel_size=(3, 3), stride=(1, 1), padding=(1, 1), bias=False)
    )
    (3): Bottleneck(
      (bn_1): BatchNorm2d(125, eps=1e-05, momentum=0.1, affine=True, track_running_stats=True)
      (conv_1): Conv2d(125, 100, kernel_size=(1, 1), stride=(1, 1), bias=False)
      (bn_2): BatchNorm2d(100, eps=1e-05, momentum=0.1, affine=True, track_running_stats=True)
      (conv_2): Conv2d(100, 25, kernel_size=(3, 3), stride=(1, 1), padding=(1, 1), bias=False)
    )
    (4): Bottleneck(
      (bn_1): BatchNorm2d(150, eps=1e-05, momentum=0.1, affine=True, track_running_stats=True)
      (conv_1): Conv2d(150, 100, kernel_size=(1, 1), stride=(1, 1), bias=False)
      (bn_2): BatchNorm2d(100, eps=1e-05, momentum=0.1, affine=True, track_running_stats=True)
      (conv_2): Conv2d(100, 25, kernel_size=(3, 3), stride=(1, 1), padding=(1, 1), bias=False)
    )
    (5): Bottleneck(
      (bn_1): BatchNorm2d(175, eps=1e-05, momentum=0.1, affine=True, track_running_stats=True)
      (conv_1): Conv2d(175, 100, kernel_size=(1, 1), stride=(1, 1), bias=False)
      (bn_2): BatchNorm2d(100, eps=1e-05, momentum=0.1, affine=True, track_running_stats=True)
      (conv_2): Conv2d(100, 25, kernel_size=(3, 3), stride=(1, 1), padding=(1, 1), bias=False)
    )
    (6): Bottleneck(
      (bn_1): BatchNorm2d(200, eps=1e-05, momentum=0.1, affine=True, track_running_stats=True)
      (conv_1): Conv2d(200, 100, kernel_size=(1, 1), stride=(1, 1), bias=False)
      (bn_2): BatchNorm2d(100, eps=1e-05, momentum=0.1, affine=True, track_running_stats=True)
      (conv_2): Conv2d(100, 25, kernel_size=(3, 3), stride=(1, 1), padding=(1, 1), bias=False)
    )
    (7): Bottleneck(
      (bn_1): BatchNorm2d(225, eps=1e-05, momentum=0.1, affine=True, track_running_stats=True)
      (conv_1): Conv2d(225, 100, kernel_size=(1, 1), stride=(1, 1), bias=False)
      (bn_2): BatchNorm2d(100, eps=1e-05, momentum=0.1, affine=True, track_running_stats=True)
      (conv_2): Conv2d(100, 25, kernel_size=(3, 3), stride=(1, 1), padding=(1, 1), bias=False)
    )
    (8): Bottleneck(
      (bn_1): BatchNorm2d(250, eps=1e-05, momentum=0.1, affine=True, track_running_stats=True)
      (conv_1): Conv2d(250, 100, kernel_size=(1, 1), stride=(1, 1), bias=False)
      (bn_2): BatchNorm2d(100, eps=1e-05, momentum=0.1, affine=True, track_running_stats=True)
      (conv_2): Conv2d(100, 25, kernel_size=(3, 3), stride=(1, 1), padding=(1, 1), bias=False)
    )
    (9): Bottleneck(
…
      (bn_1): BatchNorm2d(150, eps=1e-05, momentum=0.1, affine=True, track_running_stats=True)
      (conv_1): Conv2d(150, 100, kernel_size=(1, 1), stride=(1, 1), bias=False)
      (bn_2): BatchNorm2d(100, eps=1e-05, momentum=0.1, affine=True, track_running_stats=True)
      (conv_2): Conv2d(100, 25, kernel_size=(3, 3), stride=(1, 1), padding=(1, 1), bias=False)
    )
    (5): Bottleneck(
      (bn_1): BatchNorm2d(175, eps=1e-05, momentum=0.1, affine=True, track_running_stats=True)
      (conv_1): Conv2d(175, 100, kernel_size=(1, 1), stride=(1, 1), bias=False)
      (bn_2): BatchNorm2d(100, eps=1e-05, momentum=0.1, affine=True, track_running_stats=True)
      (conv_2): Conv2d(100, 25, kernel_size=(3, 3), stride=(1, 1), padding=(1, 1), bias=False)
    )
    (6): Bottleneck(
      (bn_1): BatchNorm2d(200, eps=1e-05, momentum=0.1, affine=True, track_running_stats=True)
      (conv_1): Conv2d(200, 100, kernel_size=(1, 1), stride=(1, 1), bias=False)
      (bn_2): BatchNorm2d(100, eps=1e-05, momentum=0.1, affine=True, track_running_stats=True)
      (conv_2): Conv2d(100, 25, kernel_size=(3, 3), stride=(1, 1), padding=(1, 1), bias=False)
    )
    (7): Bottleneck(
      (bn_1): BatchNorm2d(225, eps=1e-05, momentum=0.1, affine=True, track_running_stats=True)
      (conv_1): Conv2d(225, 100, kernel_size=(1, 1), stride=(1, 1), bias=False)
      (bn_2): BatchNorm2d(100, eps=1e-05, momentum=0.1, affine=True, track_running_stats=True)
      (conv_2): Conv2d(100, 25, kernel_size=(3, 3), stride=(1, 1), padding=(1, 1), bias=False)
    )
    (8): Bottleneck(
      (bn_1): BatchNorm2d(250, eps=1e-05, momentum=0.1, affine=True, track_running_stats=True)
      (conv_1): Conv2d(250, 100, kernel_size=(1, 1), stride=(1, 1), bias=False)
      (bn_2): BatchNorm2d(100, eps=1e-05, momentum=0.1, affine=True, track_running_stats=True)
      (conv_2): Conv2d(100, 25, kernel_size=(3, 3), stride=(1, 1), padding=(1, 1), bias=False)
    )
    (9): Bottleneck(
      (bn_1): BatchNorm2d(275, eps=1e-05, momentum=0.1, affine=True, track_running_stats=True)
      (conv_1): Conv2d(275, 100, kernel_size=(1, 1), stride=(1, 1), bias=False)
      (bn_2): BatchNorm2d(100, eps=1e-05, momentum=0.1, affine=True, track_running_stats=True)
      (conv_2): Conv2d(100, 25, kernel_size=(3, 3), stride=(1, 1), padding=(1, 1), bias=False)
    )
    (10): Bottleneck(
      (bn_1): BatchNorm2d(300, eps=1e-05, momentum=0.1, affine=True, track_running_stats=True)
      (conv_1): Conv2d(300, 100, kernel_size=(1, 1), stride=(1, 1), bias=False)
      (bn_2): BatchNorm2d(100, eps=1e-05, momentum=0.1, affine=True, track_running_stats=True)
      (conv_2): Conv2d(100, 25, kernel_size=(3, 3), stride=(1, 1), padding=(1, 1), bias=False)
    )
    (11): Bottleneck(
      (bn_1): BatchNorm2d(325, eps=1e-05, momentum=0.1, affine=True, track_running_stats=True)
      (conv_1): Conv2d(325, 100, kernel_size=(1, 1), stride=(1, 1), bias=False)
      (bn_2): BatchNorm2d(100, eps=1e-05, momentum=0.1, affine=True, track_running_stats=True)
      (conv_2): Conv2d(100, 25, kernel_size=(3, 3), stride=(1, 1), padding=(1, 1), bias=False)
    )
    (12): Bottleneck(
      (bn_1): BatchNorm2d(350, eps=1e-05, momentum=0.1, affine=True, track_running_stats=True)
      (conv_1): Conv2d(350, 100, kernel_size=(1, 1), stride=(1, 1), bias=False)
      (bn_2): BatchNorm2d(100, eps=1e-05, momentum=0.1, affine=True, track_running_stats=True)
      (conv_2): Conv2d(100, 25, kernel_size=(3, 3), stride=(1, 1), padding=(1, 1), bias=False)
    )
    (13): Bottleneck(
      (bn_1): BatchNorm2d(375, eps=1e-05, momentum=0.1, affine=True, track_running_stats=True)
      (conv_1): Conv2d(375, 100, kernel_size=(1, 1), stride=(1, 1), bias=False)
      (bn_2): BatchNorm2d(100, eps=1e-05, momentum=0.1, affine=True, track_running_stats=True)
      (conv_2): Conv2d(100, 25, kernel_size=(3, 3), stride=(1, 1), padding=(1, 1), bias=False)
    )
    (14): Bottleneck(
      (bn_1): BatchNorm2d(400, eps=1e-05, momentum=0.1, affine=True, track_running_stats=True)
      (conv_1): Conv2d(400, 100, kernel_size=(1, 1), stride=(1, 1), bias=False)
      (bn_2): BatchNorm2d(100, eps=1e-05, momentum=0.1, affine=True, track_running_stats=True)
      (conv_2): Conv2d(100, 25, kernel_size=(3, 3), stride=(1, 1), padding=(1, 1), bias=False)
    )
    (15): Bottleneck(
      (bn_1): BatchNorm2d(425, eps=1e-05, momentum=0.1, affine=True, track_running_stats=True)
      (conv_1): Conv2d(425, 100, kernel_size=(1, 1), stride=(1, 1), bias=False)
      (bn_2): BatchNorm2d(100, eps=1e-05, momentum=0.1, affine=True, track_running_stats=True)
      (conv_2): Conv2d(100, 25, kernel_size=(3, 3), stride=(1, 1), padding=(1, 1), bias=False)
    )
    (16): Bottleneck(
      (bn_1): BatchNorm2d(450, eps=1e-05, momentum=0.1, affine=True, track_running_stats=True)
      (conv_1): Conv2d(450, 100, kernel_size=(1, 1), stride=(1, 1), bias=False)
      (bn_2): BatchNorm2d(100, eps=1e-05, momentum=0.1, affine=True, track_running_stats=True)
      (conv_2): Conv2d(100, 25, kernel_size=(3, 3), stride=(1, 1), padding=(1, 1), bias=False)
    )
    (17): Bottleneck(
      (bn_1): BatchNorm2d(475, eps=1e-05, momentum=0.1, affine=True, track_running_stats=True)
      (conv_1): Conv2d(475, 100, kernel_size=(1, 1), stride=(1, 1), bias=False)
      (bn_2): BatchNorm2d(100, eps=1e-05, momentum=0.1, affine=True, track_running_stats=True)
      (conv_2): Conv2d(100, 25, kernel_size=(3, 3), stride=(1, 1), padding=(1, 1), bias=False)
    )
    (18): Bottleneck(
      (bn_1): BatchNorm2d(500, eps=1e-05, momentum=0.1, affine=True, track_running_stats=True)
      (conv_1): Conv2d(500, 100, kernel_size=(1, 1), stride=(1, 1), bias=False)
      (bn_2): BatchNorm2d(100, eps=1e-05, momentum=0.1, affine=True, track_running_stats=True)
      (conv_2): Conv2d(100, 25, kernel_size=(3, 3), stride=(1, 1), padding=(1, 1), bias=False)
    )
    (19): Bottleneck(
      (bn_1): BatchNorm2d(525, eps=1e-05, momentum=0.1, affine=True, track_running_stats=True)
      (conv_1): Conv2d(525, 100, kernel_size=(1, 1), stride=(1, 1), bias=False)
      (bn_2): BatchNorm2d(100, eps=1e-05, momentum=0.1, affine=True, track_running_stats=True)
      (conv_2): Conv2d(100, 25, kernel_size=(3, 3), stride=(1, 1), padding=(1, 1), bias=False)
    )
    (20): Bottleneck(
      (bn_1): BatchNorm2d(550, eps=1e-05, momentum=0.1, affine=True, track_running_stats=True)
      (conv_1): Conv2d(550, 100, kernel_size=(1, 1), stride=(1, 1), bias=False)
      (bn_2): BatchNorm2d(100, eps=1e-05, momentum=0.1, affine=True, track_running_stats=True)
      (conv_2): Conv2d(100, 25, kernel_size=(3, 3), stride=(1, 1), padding=(1, 1), bias=False)
    )
  )
  (trans_1): Transition(
    (bn): BatchNorm2d(575, eps=1e-05, momentum=0.1, affine=True, track_running_stats=True)
    (conv): Conv2d(575, 287, kernel_size=(1, 1), stride=(1, 1), bias=False)
  )
  (dense2): Sequential(
    (0): Bottleneck(
      (bn_1): BatchNorm2d(287, eps=1e-05, momentum=0.1, affine=True, track_running_stats=True)
      (conv_1): Conv2d(287, 100, kernel_size=(1, 1), stride=(1, 1), bias=False)
      (bn_2): BatchNorm2d(100, eps=1e-05, momentum=0.1, affine=True, track_running_stats=True)
      (conv_2): Conv2d(100, 25, kernel_size=(3, 3), stride=(1, 1), padding=(1, 1), bias=False)
    )
    (1): Bottleneck(
      (bn_1): BatchNorm2d(312, eps=1e-05, momentum=0.1, affine=True, track_running_stats=True)
      (conv_1): Conv2d(312, 100, kernel_size=(1, 1), stride=(1, 1), bias=False)
      (bn_2): BatchNorm2d(100, eps=1e-05, momentum=0.1, affine=True, track_running_stats=True)
      (conv_2): Conv2d(100, 25, kernel_size=(3, 3), stride=(1, 1), padding=(1, 1), bias=False)
    )
    (2): Bottleneck(
      (bn_1): BatchNorm2d(337, eps=1e-05, momentum=0.1, affine=True, track_running_stats=True)
      (conv_1): Conv2d(337, 100, kernel_size=(1, 1), stride=(1, 1), bias=False)
      (bn_2): BatchNorm2d(100, eps=1e-05, momentum=0.1, affine=True, track_running_stats=True)
      (conv_2): Conv2d(100, 25, kernel_size=(3, 3), stride=(1, 1), padding=(1, 1), bias=False)
    )
    (3): Bottleneck(
      (bn_1): BatchNorm2d(362, eps=1e-05, momentum=0.1, affine=True, track_running_stats=True)
      (conv_1): Conv2d(362, 100, kernel_size=(1, 1), stride=(1, 1), bias=False)
      (bn_2): BatchNorm2d(100, eps=1e-05, momentum=0.1, affine=True, track_running_stats=True)
      (conv_2): Conv2d(100, 25, kernel_size=(3, 3), stride=(1, 1), padding=(1, 1), bias=False)
    )
    (4): Bottleneck(
      (bn_1): BatchNorm2d(387, eps=1e-05, momentum=0.1, affine=True, track_running_stats=True)
      (conv_1): Conv2d(387, 100, kernel_size=(1, 1), stride=(1, 1), bias=False)
      (bn_2): BatchNorm2d(100, eps=1e-05, momentum=0.1, affine=True, track_running_stats=True)
      (conv_2): Conv2d(100, 25, kernel_size=(3, 3), stride=(1, 1), padding=(1, 1), bias=False)
    )
    (5): Bottleneck(
      (bn_1): BatchNorm2d(412, eps=1e-05, momentum=0.1, affine=True, track_running_stats=True)
      (conv_1): Conv2d(412, 100, kernel_size=(1, 1), stride=(1, 1), bias=False)
      (bn_2): BatchNorm2d(100, eps=1e-05, momentum=0.1, affine=True, track_running_stats=True)
      (conv_2): Conv2d(100, 25, kernel_size=(3, 3), stride=(1, 1), padding=(1, 1), bias=False)
    )
    (6): Bottleneck(
      (bn_1): BatchNorm2d(437, eps=1e-05, momentum=0.1, affine=True, track_running_stats=True)
      (conv_1): Conv2d(437, 100, kernel_size=(1, 1), stride=(1, 1), bias=False)
      (bn_2): BatchNorm2d(100, eps=1e-05, momentum=0.1, affine=True, track_running_stats=True)
      (conv_2): Conv2d(100, 25, kernel_size=(3, 3), stride=(1, 1), padding=(1, 1), bias=False)
    )
    (7): Bottleneck(
      (bn_1): BatchNorm2d(462, eps=1e-05, momentum=0.1, affine=True, track_running_stats=True)
      (conv_1): Conv2d(462, 100, kernel_size=(1, 1), stride=(1, 1), bias=False)
      (bn_2): BatchNorm2d(100, eps=1e-05, momentum=0.1, affine=True, track_running_stats=True)
      (conv_2): Conv2d(100, 25, kernel_size=(3, 3), stride=(1, 1), padding=(1, 1), bias=False)
    )
    (8): Bottleneck(
      (bn_1): BatchNorm2d(487, eps=1e-05, momentum=0.1, affine=True, track_running_stats=True)
      (conv_1): Conv2d(487, 100, kernel_size=(1, 1), stride=(1, 1), bias=False)
      (bn_2): BatchNorm2d(100, eps=1e-05, momentum=0.1, affine=True, track_running_stats=True)
      (conv_2): Conv2d(100, 25, kernel_size=(3, 3), stride=(1, 1), padding=(1, 1), bias=False)
    )
    (9): Bottleneck(
      (bn_1): BatchNorm2d(512, eps=1e-05, momentum=0.1, affine=True, track_running_stats=True)
      (conv_1): Conv2d(512, 100, kernel_size=(1, 1), stride=(1, 1), bias=False)
      (bn_2): BatchNorm2d(100, eps=1e-05, momentum=0.1, affine=True, track_running_stats=True)
      (conv_2): Conv2d(100, 25, kernel_size=(3, 3), stride=(1, 1), padding=(1, 1), bias=False)
    )
    (10): Bottleneck(
      (bn_1): BatchNorm2d(537, eps=1e-05, momentum=0.1, affine=True, track_running_stats=True)
      (conv_1): Conv2d(537, 100, kernel_size=(1, 1), stride=(1, 1), bias=False)
      (bn_2): BatchNorm2d(100, eps=1e-05, momentum=0.1, affine=True, track_running_stats=True)
      (conv_2): Conv2d(100, 25, kernel_size=(3, 3), stride=(1, 1), padding=(1, 1), bias=False)
    )
    (11): Bottleneck(
      (bn_1): BatchNorm2d(562, eps=1e-05, momentum=0.1, affine=True, track_running_stats=True)
      (conv_1): Conv2d(562, 100, kernel_size=(1, 1), stride=(1, 1), bias=False)
      (bn_2): BatchNorm2d(100, eps=1e-05, momentum=0.1, affine=True, track_running_stats=True)
      (conv_2): Conv2d(100, 25, kernel_size=(3, 3), stride=(1, 1), padding=(1, 1), bias=False)
    )
    (12): Bottleneck(
      (bn_1): BatchNorm2d(587, eps=1e-05, momentum=0.1, affine=True, track_running_stats=True)
      (conv_1): Conv2d(587, 100, kernel_size=(1, 1), stride=(1, 1), bias=False)
      (bn_2): BatchNorm2d(100, eps=1e-05, momentum=0.1, affine=True, track_running_stats=True)
      (conv_2): Conv2d(100, 25, kernel_size=(3, 3), stride=(1, 1), padding=(1, 1), bias=False)
    )
    (13): Bottleneck(
      (bn_1): BatchNorm2d(612, eps=1e-05, momentum=0.1, affine=True, track_running_stats=True)
      (conv_1): Conv2d(612, 100, kernel_size=(1, 1), stride=(1, 1), bias=False)
      (bn_2): BatchNorm2d(100, eps=1e-05, momentum=0.1, affine=True, track_running_stats=True)
      (conv_2): Conv2d(100, 25, kernel_size=(3, 3), stride=(1, 1), padding=(1, 1), bias=False)
    )
    (14): Bottleneck(
      (bn_1): BatchNorm2d(637, eps=1e-05, momentum=0.1, affine=True, track_running_stats=True)
      (conv_1): Conv2d(637, 100, kernel_size=(1, 1), stride=(1, 1), bias=False)
      (bn_2): BatchNorm2d(100, eps=1e-05, momentum=0.1, affine=True, track_running_stats=True)
      (conv_2): Conv2d(100, 25, kernel_size=(3, 3), stride=(1, 1), padding=(1, 1), bias=False)
    )
    (15): Bottleneck(
      (bn_1): BatchNorm2d(662, eps=1e-05, momentum=0.1, affine=True, track_running_stats=True)
      (conv_1): Conv2d(662, 100, kernel_size=(1, 1), stride=(1, 1), bias=False)
      (bn_2): BatchNorm2d(100, eps=1e-05, momentum=0.1, affine=True, track_running_stats=True)
      (conv_2): Conv2d(100, 25, kernel_size=(3, 3), stride=(1, 1), padding=(1, 1), bias=False)
    )
    (16): Bottleneck(
      (bn_1): BatchNorm2d(687, eps=1e-05, momentum=0.1, affine=True, track_running_stats=True)
      (conv_1): Conv2d(687, 100, kernel_size=(1, 1), stride=(1, 1), bias=False)
      (bn_2): BatchNorm2d(100, eps=1e-05, momentum=0.1, affine=True, track_running_stats=True)
      (conv_2): Conv2d(100, 25, kernel_size=(3, 3), stride=(1, 1), padding=(1, 1), bias=False)
    )
    (17): Bottleneck(
      (bn_1): BatchNorm2d(712, eps=1e-05, momentum=0.1, affine=True, track_running_stats=True)
      (conv_1): Conv2d(712, 100, kernel_size=(1, 1), stride=(1, 1), bias=False)
      (bn_2): BatchNorm2d(100, eps=1e-05, momentum=0.1, affine=True, track_running_stats=True)
      (conv_2): Conv2d(100, 25, kernel_size=(3, 3), stride=(1, 1), padding=(1, 1), bias=False)
    )
    (18): Bottleneck(
      (bn_1): BatchNorm2d(737, eps=1e-05, momentum=0.1, affine=True, track_running_stats=True)
      (conv_1): Conv2d(737, 100, kernel_size=(1, 1), stride=(1, 1), bias=False)
      (bn_2): BatchNorm2d(100, eps=1e-05, momentum=0.1, affine=True, track_running_stats=True)
      (conv_2): Conv2d(100, 25, kernel_size=(3, 3), stride=(1, 1), padding=(1, 1), bias=False)
    )
    (19): Bottleneck(
      (bn_1): BatchNorm2d(762, eps=1e-05, momentum=0.1, affine=True, track_running_stats=True)
      (conv_1): Conv2d(762, 100, kernel_size=(1, 1), stride=(1, 1), bias=False)
      (bn_2): BatchNorm2d(100, eps=1e-05, momentum=0.1, affine=True, track_running_stats=True)
      (conv_2): Conv2d(100, 25, kernel_size=(3, 3), stride=(1, 1), padding=(1, 1), bias=False)
    )
    (20): Bottleneck(
      (bn_1): BatchNorm2d(787, eps=1e-05, momentum=0.1, affine=True, track_running_stats=True)
      (conv_1): Conv2d(787, 100, kernel_size=(1, 1), stride=(1, 1), bias=False)
      (bn_2): BatchNorm2d(100, eps=1e-05, momentum=0.1, affine=True, track_running_stats=True)
      (conv_2): Conv2d(100, 25, kernel_size=(3, 3), stride=(1, 1), padding=(1, 1), bias=False)
    )
  )
  (trans_2): Transition(
    (bn): BatchNorm2d(812, eps=1e-05, momentum=0.1, affine=True, track_running_stats=True)
    (conv): Conv2d(812, 406, kernel_size=(1, 1), stride=(1, 1), bias=False)
  )
  (dense_3): Sequential(
    (0): Bottleneck(
      (bn_1): BatchNorm2d(406, eps=1e-05, momentum=0.1, affine=True, track_running_stats=True)
      (conv_1): Conv2d(406, 100, kernel_size=(1, 1), stride=(1, 1), bias=False)
      (bn_2): BatchNorm2d(100, eps=1e-05, momentum=0.1, affine=True, track_running_stats=True)
      (conv_2): Conv2d(100, 25, kernel_size=(3, 3), stride=(1, 1), padding=(1, 1), bias=False)
    )
    (1): Bottleneck(
      (bn_1): BatchNorm2d(431, eps=1e-05, momentum=0.1, affine=True, track_running_stats=True)
      (conv_1): Conv2d(431, 100, kernel_size=(1, 1), stride=(1, 1), bias=False)
      (bn_2): BatchNorm2d(100, eps=1e-05, momentum=0.1, affine=True, track_running_stats=True)
      (conv_2): Conv2d(100, 25, kernel_size=(3, 3), stride=(1, 1), padding=(1, 1), bias=False)
    )
    (2): Bottleneck(
      (bn_1): BatchNorm2d(456, eps=1e-05, momentum=0.1, affine=True, track_running_stats=True)
      (conv_1): Conv2d(456, 100, kernel_size=(1, 1), stride=(1, 1), bias=False)
      (bn_2): BatchNorm2d(100, eps=1e-05, momentum=0.1, affine=True, track_running_stats=True)
      (conv_2): Conv2d(100, 25, kernel_size=(3, 3), stride=(1, 1), padding=(1, 1), bias=False)
    )
    (3): Bottleneck(
      (bn_1): BatchNorm2d(481, eps=1e-05, momentum=0.1, affine=True, track_running_stats=True)
      (conv_1): Conv2d(481, 100, kernel_size=(1, 1), stride=(1, 1), bias=False)
      (bn_2): BatchNorm2d(100, eps=1e-05, momentum=0.1, affine=True, track_running_stats=True)
      (conv_2): Conv2d(100, 25, kernel_size=(3, 3), stride=(1, 1), padding=(1, 1), bias=False)
    )
    (4): Bottleneck(
      (bn_1): BatchNorm2d(506, eps=1e-05, momentum=0.1, affine=True, track_running_stats=True)
      (conv_1): Conv2d(506, 100, kernel_size=(1, 1), stride=(1, 1), bias=False)
      (bn_2): BatchNorm2d(100, eps=1e-05, momentum=0.1, affine=True, track_running_stats=True)
      (conv_2): Conv2d(100, 25, kernel_size=(3, 3), stride=(1, 1), padding=(1, 1), bias=False)
    )
    (5): Bottleneck(
      (bn_1): BatchNorm2d(531, eps=1e-05, momentum=0.1, affine=True, track_running_stats=True)
      (conv_1): Conv2d(531, 100, kernel_size=(1, 1), stride=(1, 1), bias=False)
      (bn_2): BatchNorm2d(100, eps=1e-05, momentum=0.1, affine=True, track_running_stats=True)
      (conv_2): Conv2d(100, 25, kernel_size=(3, 3), stride=(1, 1), padding=(1, 1), bias=False)
    )
    (6): Bottleneck(
      (bn_1): BatchNorm2d(556, eps=1e-05, momentum=0.1, affine=True, track_running_stats=True)
      (conv_1): Conv2d(556, 100, kernel_size=(1, 1), stride=(1, 1), bias=False)
      (bn_2): BatchNorm2d(100, eps=1e-05, momentum=0.1, affine=True, track_running_stats=True)
      (conv_2): Conv2d(100, 25, kernel_size=(3, 3), stride=(1, 1), padding=(1, 1), bias=False)
    )
    (7): Bottleneck(
      (bn_1): BatchNorm2d(581, eps=1e-05, momentum=0.1, affine=True, track_running_stats=True)
      (conv_1): Conv2d(581, 100, kernel_size=(1, 1), stride=(1, 1), bias=False)
      (bn_2): BatchNorm2d(100, eps=1e-05, momentum=0.1, affine=True, track_running_stats=True)
      (conv_2): Conv2d(100, 25, kernel_size=(3, 3), stride=(1, 1), padding=(1, 1), bias=False)
    )
    (8): Bottleneck(
      (bn_1): BatchNorm2d(606, eps=1e-05, momentum=0.1, affine=True, track_running_stats=True)
      (conv_1): Conv2d(606, 100, kernel_size=(1, 1), stride=(1, 1), bias=False)
      (bn_2): BatchNorm2d(100, eps=1e-05, momentum=0.1, affine=True, track_running_stats=True)
      (conv_2): Conv2d(100, 25, kernel_size=(3, 3), stride=(1, 1), padding=(1, 1), bias=False)
    )
    (9): Bottleneck(
      (bn_1): BatchNorm2d(631, eps=1e-05, momentum=0.1, affine=True, track_running_stats=True)
      (conv_1): Conv2d(631, 100, kernel_size=(1, 1), stride=(1, 1), bias=False)
      (bn_2): BatchNorm2d(100, eps=1e-05, momentum=0.1, affine=True, track_running_stats=True)
      (conv_2): Conv2d(100, 25, kernel_size=(3, 3), stride=(1, 1), padding=(1, 1), bias=False)
    )
    (10): Bottleneck(
      (bn_1): BatchNorm2d(656, eps=1e-05, momentum=0.1, affine=True, track_running_stats=True)
      (conv_1): Conv2d(656, 100, kernel_size=(1, 1), stride=(1, 1), bias=False)
      (bn_2): BatchNorm2d(100, eps=1e-05, momentum=0.1, affine=True, track_running_stats=True)
      (conv_2): Conv2d(100, 25, kernel_size=(3, 3), stride=(1, 1), padding=(1, 1), bias=False)
    )
    (11): Bottleneck(
      (bn_1): BatchNorm2d(681, eps=1e-05, momentum=0.1, affine=True, track_running_stats=True)
      (conv_1): Conv2d(681, 100, kernel_size=(1, 1), stride=(1, 1), bias=False)
      (bn_2): BatchNorm2d(100, eps=1e-05, momentum=0.1, affine=True, track_running_stats=True)
      (conv_2): Conv2d(100, 25, kernel_size=(3, 3), stride=(1, 1), padding=(1, 1), bias=False)
    )
    (12): Bottleneck(
      (bn_1): BatchNorm2d(706, eps=1e-05, momentum=0.1, affine=True, track_running_stats=True)
      (conv_1): Conv2d(706, 100, kernel_size=(1, 1), stride=(1, 1), bias=False)
      (bn_2): BatchNorm2d(100, eps=1e-05, momentum=0.1, affine=True, track_running_stats=True)
      (conv_2): Conv2d(100, 25, kernel_size=(3, 3), stride=(1, 1), padding=(1, 1), bias=False)
    )
    (13): Bottleneck(
      (bn_1): BatchNorm2d(731, eps=1e-05, momentum=0.1, affine=True, track_running_stats=True)
      (conv_1): Conv2d(731, 100, kernel_size=(1, 1), stride=(1, 1), bias=False)
      (bn_2): BatchNorm2d(100, eps=1e-05, momentum=0.1, affine=True, track_running_stats=True)
      (conv_2): Conv2d(100, 25, kernel_size=(3, 3), stride=(1, 1), padding=(1, 1), bias=False)
    )
    (14): Bottleneck(
      (bn_1): BatchNorm2d(756, eps=1e-05, momentum=0.1, affine=True, track_running_stats=True)
      (conv_1): Conv2d(756, 100, kernel_size=(1, 1), stride=(1, 1), bias=False)
      (bn_2): BatchNorm2d(100, eps=1e-05, momentum=0.1, affine=True, track_running_stats=True)
      (conv_2): Conv2d(100, 25, kernel_size=(3, 3), stride=(1, 1), padding=(1, 1), bias=False)
    )
    (15): Bottleneck(
      (bn_1): BatchNorm2d(781, eps=1e-05, momentum=0.1, affine=True, track_running_stats=True)
      (conv_1): Conv2d(781, 100, kernel_size=(1, 1), stride=(1, 1), bias=False)
      (bn_2): BatchNorm2d(100, eps=1e-05, momentum=0.1, affine=True, track_running_stats=True)
      (conv_2): Conv2d(100, 25, kernel_size=(3, 3), stride=(1, 1), padding=(1, 1), bias=False)
    )
    (16): Bottleneck(
      (bn_1): BatchNorm2d(806, eps=1e-05, momentum=0.1, affine=True, track_running_stats=True)
      (conv_1): Conv2d(806, 100, kernel_size=(1, 1), stride=(1, 1), bias=False)
      (bn_2): BatchNorm2d(100, eps=1e-05, momentum=0.1, affine=True, track_running_stats=True)
      (conv_2): Conv2d(100, 25, kernel_size=(3, 3), stride=(1, 1), padding=(1, 1), bias=False)
    )
    (17): Bottleneck(
      (bn_1): BatchNorm2d(831, eps=1e-05, momentum=0.1, affine=True, track_running_stats=True)
      (conv_1): Conv2d(831, 100, kernel_size=(1, 1), stride=(1, 1), bias=False)
      (bn_2): BatchNorm2d(100, eps=1e-05, momentum=0.1, affine=True, track_running_stats=True)
      (conv_2): Conv2d(100, 25, kernel_size=(3, 3), stride=(1, 1), padding=(1, 1), bias=False)
    )
    (18): Bottleneck(
      (bn_1): BatchNorm2d(856, eps=1e-05, momentum=0.1, affine=True, track_running_stats=True)
      (conv_1): Conv2d(856, 100, kernel_size=(1, 1), stride=(1, 1), bias=False)
      (bn_2): BatchNorm2d(100, eps=1e-05, momentum=0.1, affine=True, track_running_stats=True)
      (conv_2): Conv2d(100, 25, kernel_size=(3, 3), stride=(1, 1), padding=(1, 1), bias=False)
    )
    (19): Bottleneck(
      (bn_1): BatchNorm2d(881, eps=1e-05, momentum=0.1, affine=True, track_running_stats=True)
      (conv_1): Conv2d(881, 100, kernel_size=(1, 1), stride=(1, 1), bias=False)
      (bn_2): BatchNorm2d(100, eps=1e-05, momentum=0.1, affine=True, track_running_stats=True)
      (conv_2): Conv2d(100, 25, kernel_size=(3, 3), stride=(1, 1), padding=(1, 1), bias=False)
    )
    (20): Bottleneck(
      (bn_1): BatchNorm2d(906, eps=1e-05, momentum=0.1, affine=True, track_running_stats=True)
      (conv_1): Conv2d(906, 100, kernel_size=(1, 1), stride=(1, 1), bias=False)
      (bn_2): BatchNorm2d(100, eps=1e-05, momentum=0.1, affine=True, track_running_stats=True)
      (conv_2): Conv2d(100, 25, kernel_size=(3, 3), stride=(1, 1), padding=(1, 1), bias=False)
    )
  )
  (bn): BatchNorm2d(931, eps=1e-05, momentum=0.1, affine=True, track_running_stats=True)
  (fc): Linear(in_features=931, out_features=10, bias=True)
)
[2019-10-21 16:39:45,531] - [train.py line:148] :  == total parameters: 5138109
[2019-10-21 16:43:31,881] - [train.py line:143] : {'architecture': 'densenet130bc', 'data_path': './data', 'ckpt_path': './', 'ckpt_name': 'densenet130bc', 'num_classes': 10, 'dataset': 'cifar10', 'use_gpu': True, 'input_size': 32, 'epochs': 300, 'batch_size': 256, 'test_batch': 200, 'eval_freq': 2, 'workers': 8, 'optimize': {'momentum': 0.9, 'weight_decay': 0.0001, 'nesterov': True}, 'mixup': False, 'mixup_alpha': 0.4, 'augmentation': {'normalize': True, 'random_crop': True, 'random_horizontal_filp': True, 'cutout': False, 'holes': 1, 'length': 8}, 'lr_scheduler': {'type': 'STEP', 'base_lr': 0.1, 'lr_epochs': [150, 225], 'lr_mults': 0.1, 'min_lr': 0.0, 'lower_bound': -6.0, 'upper_bound': 3.0}}
[2019-10-21 16:43:32,070] - [train.py line:147] : DenseNet(
  (conv_1): Conv2d(3, 46, kernel_size=(3, 3), stride=(1, 1), padding=(1, 1), bias=False)
  (dense1): Sequential(
    (0): Bottleneck(
      (bn_1): BatchNorm2d(46, eps=1e-05, momentum=0.1, affine=True, track_running_stats=True)
      (conv_1): Conv2d(46, 92, kernel_size=(1, 1), stride=(1, 1), bias=False)
      (bn_2): BatchNorm2d(92, eps=1e-05, momentum=0.1, affine=True, track_running_stats=True)
      (conv_2): Conv2d(92, 23, kernel_size=(3, 3), stride=(1, 1), padding=(1, 1), bias=False)
    )
    (1): Bottleneck(
      (bn_1): BatchNorm2d(69, eps=1e-05, momentum=0.1, affine=True, track_running_stats=True)
      (conv_1): Conv2d(69, 92, kernel_size=(1, 1), stride=(1, 1), bias=False)
      (bn_2): BatchNorm2d(92, eps=1e-05, momentum=0.1, affine=True, track_running_stats=True)
      (conv_2): Conv2d(92, 23, kernel_size=(3, 3), stride=(1, 1), padding=(1, 1), bias=False)
    )
    (2): Bottleneck(
      (bn_1): BatchNorm2d(92, eps=1e-05, momentum=0.1, affine=True, track_running_stats=True)
      (conv_1): Conv2d(92, 92, kernel_size=(1, 1), stride=(1, 1), bias=False)
      (bn_2): BatchNorm2d(92, eps=1e-05, momentum=0.1, affine=True, track_running_stats=True)
      (conv_2): Conv2d(92, 23, kernel_size=(3, 3), stride=(1, 1), padding=(1, 1), bias=False)
    )
    (3): Bottleneck(
      (bn_1): BatchNorm2d(115, eps=1e-05, momentum=0.1, affine=True, track_running_stats=True)
      (conv_1): Conv2d(115, 92, kernel_size=(1, 1), stride=(1, 1), bias=False)
      (bn_2): BatchNorm2d(92, eps=1e-05, momentum=0.1, affine=True, track_running_stats=True)
      (conv_2): Conv2d(92, 23, kernel_size=(3, 3), stride=(1, 1), padding=(1, 1), bias=False)
    )
    (4): Bottleneck(
      (bn_1): BatchNorm2d(138, eps=1e-05, momentum=0.1, affine=True, track_running_stats=True)
      (conv_1): Conv2d(138, 92, kernel_size=(1, 1), stride=(1, 1), bias=False)
      (bn_2): BatchNorm2d(92, eps=1e-05, momentum=0.1, affine=True, track_running_stats=True)
      (conv_2): Conv2d(92, 23, kernel_size=(3, 3), stride=(1, 1), padding=(1, 1), bias=False)
    )
    (5): Bottleneck(
      (bn_1): BatchNorm2d(161, eps=1e-05, momentum=0.1, affine=True, track_running_stats=True)
      (conv_1): Conv2d(161, 92, kernel_size=(1, 1), stride=(1, 1), bias=False)
      (bn_2): BatchNorm2d(92, eps=1e-05, momentum=0.1, affine=True, track_running_stats=True)
      (conv_2): Conv2d(92, 23, kernel_size=(3, 3), stride=(1, 1), padding=(1, 1), bias=False)
    )
    (6): Bottleneck(
      (bn_1): BatchNorm2d(184, eps=1e-05, momentum=0.1, affine=True, track_running_stats=True)
      (conv_1): Conv2d(184, 92, kernel_size=(1, 1), stride=(1, 1), bias=False)
      (bn_2): BatchNorm2d(92, eps=1e-05, momentum=0.1, affine=True, track_running_stats=True)
      (conv_2): Conv2d(92, 23, kernel_size=(3, 3), stride=(1, 1), padding=(1, 1), bias=False)
    )
    (7): Bottleneck(
      (bn_1): BatchNorm2d(207, eps=1e-05, momentum=0.1, affine=True, track_running_stats=True)
      (conv_1): Conv2d(207, 92, kernel_size=(1, 1), stride=(1, 1), bias=False)
      (bn_2): BatchNorm2d(92, eps=1e-05, momentum=0.1, affine=True, track_running_stats=True)
      (conv_2): Conv2d(92, 23, kernel_size=(3, 3), stride=(1, 1), padding=(1, 1), bias=False)
    )
    (8): Bottleneck(
      (bn_1): BatchNorm2d(230, eps=1e-05, momentum=0.1, affine=True, track_running_stats=True)
      (conv_1): Conv2d(230, 92, kernel_size=(1, 1), stride=(1, 1), bias=False)
      (bn_2): BatchNorm2d(92, eps=1e-05, momentum=0.1, affine=True, track_running_stats=True)
      (conv_2): Conv2d(92, 23, kernel_size=(3, 3), stride=(1, 1), padding=(1, 1), bias=False)
    )
    (9): Bottleneck(
      (bn_1): BatchNorm2d(253, eps=1e-05, momentum=0.1, affine=True, track_running_stats=True)
      (conv_1): Conv2d(253, 92, kernel_size=(1, 1), stride=(1, 1), bias=False)
      (bn_2): BatchNorm2d(92, eps=1e-05, momentum=0.1, affine=True, track_running_stats=True)
      (conv_2): Conv2d(92, 23, kernel_size=(3, 3), stride=(1, 1), padding=(1, 1), bias=False)
    )
    (10): Bottleneck(
      (bn_1): BatchNorm2d(276, eps=1e-05, momentum=0.1, affine=True, track_running_stats=True)
      (conv_1): Conv2d(276, 92, kernel_size=(1, 1), stride=(1, 1), bias=False)
      (bn_2): BatchNorm2d(92, eps=1e-05, momentum=0.1, affine=True, track_running_stats=True)
      (conv_2): Conv2d(92, 23, kernel_size=(3, 3), stride=(1, 1), padding=(1, 1), bias=False)
    )
    (11): Bottleneck(
      (bn_1): BatchNorm2d(299, eps=1e-05, momentum=0.1, affine=True, track_running_stats=True)
      (conv_1): Conv2d(299, 92, kernel_size=(1, 1), stride=(1, 1), bias=False)
      (bn_2): BatchNorm2d(92, eps=1e-05, momentum=0.1, affine=True, track_running_stats=True)
      (conv_2): Conv2d(92, 23, kernel_size=(3, 3), stride=(1, 1), padding=(1, 1), bias=False)
    )
    (12): Bottleneck(
      (bn_1): BatchNorm2d(322, eps=1e-05, momentum=0.1, affine=True, track_running_stats=True)
      (conv_1): Conv2d(322, 92, kernel_size=(1, 1), stride=(1, 1), bias=False)
      (bn_2): BatchNorm2d(92, eps=1e-05, momentum=0.1, affine=True, track_running_stats=True)
      (conv_2): Conv2d(92, 23, kernel_size=(3, 3), stride=(1, 1), padding=(1, 1), bias=False)
    )
    (13): Bottleneck(
      (bn_1): BatchNorm2d(345, eps=1e-05, momentum=0.1, affine=True, track_running_stats=True)
      (conv_1): Conv2d(345, 92, kernel_size=(1, 1), stride=(1, 1), bias=False)
      (bn_2): BatchNorm2d(92, eps=1e-05, momentum=0.1, affine=True, track_running_stats=True)
      (conv_2): Conv2d(92, 23, kernel_size=(3, 3), stride=(1, 1), padding=(1, 1), bias=False)
    )
    (14): Bottleneck(
      (bn_1): BatchNorm2d(368, eps=1e-05, momentum=0.1, affine=True, track_running_stats=True)
      (conv_1): Conv2d(368, 92, kernel_size=(1, 1), stride=(1, 1), bias=False)
      (bn_2): BatchNorm2d(92, eps=1e-05, momentum=0.1, affine=True, track_running_stats=True)
      (conv_2): Conv2d(92, 23, kernel_size=(3, 3), stride=(1, 1), padding=(1, 1), bias=False)
    )
    (15): Bottleneck(
      (bn_1): BatchNorm2d(391, eps=1e-05, momentum=0.1, affine=True, track_running_stats=True)
      (conv_1): Conv2d(391, 92, kernel_size=(1, 1), stride=(1, 1), bias=False)
      (bn_2): BatchNorm2d(92, eps=1e-05, momentum=0.1, affine=True, track_running_stats=True)
      (conv_2): Conv2d(92, 23, kernel_size=(3, 3), stride=(1, 1), padding=(1, 1), bias=False)
    )
    (16): Bottleneck(
      (bn_1): BatchNorm2d(414, eps=1e-05, momentum=0.1, affine=True, track_running_stats=True)
      (conv_1): Conv2d(414, 92, kernel_size=(1, 1), stride=(1, 1), bias=False)
      (bn_2): BatchNorm2d(92, eps=1e-05, momentum=0.1, affine=True, track_running_stats=True)
      (conv_2): Conv2d(92, 23, kernel_size=(3, 3), stride=(1, 1), padding=(1, 1), bias=False)
    )
    (17): Bottleneck(
      (bn_1): BatchNorm2d(437, eps=1e-05, momentum=0.1, affine=True, track_running_stats=True)
      (conv_1): Conv2d(437, 92, kernel_size=(1, 1), stride=(1, 1), bias=False)
      (bn_2): BatchNorm2d(92, eps=1e-05, momentum=0.1, affine=True, track_running_stats=True)
      (conv_2): Conv2d(92, 23, kernel_size=(3, 3), stride=(1, 1), padding=(1, 1), bias=False)
    )
    (18): Bottleneck(
      (bn_1): BatchNorm2d(460, eps=1e-05, momentum=0.1, affine=True, track_running_stats=True)
      (conv_1): Conv2d(460, 92, kernel_size=(1, 1), stride=(1, 1), bias=False)
      (bn_2): BatchNorm2d(92, eps=1e-05, momentum=0.1, affine=True, track_running_stats=True)
      (conv_2): Conv2d(92, 23, kernel_size=(3, 3), stride=(1, 1), padding=(1, 1), bias=False)
    )
    (19): Bottleneck(
      (bn_1): BatchNorm2d(483, eps=1e-05, momentum=0.1, affine=True, track_running_stats=True)
      (conv_1): Conv2d(483, 92, kernel_size=(1, 1), stride=(1, 1), bias=False)
      (bn_2): BatchNorm2d(92, eps=1e-05, momentum=0.1, affine=True, track_running_stats=True)
      (conv_2): Conv2d(92, 23, kernel_size=(3, 3), stride=(1, 1), padding=(1, 1), bias=False)
    )
    (20): Bottleneck(
      (bn_1): BatchNorm2d(506, eps=1e-05, momentum=0.1, affine=True, track_running_stats=True)
      (conv_1): Conv2d(506, 92, kernel_size=(1, 1), stride=(1, 1), bias=False)
      (bn_2): BatchNorm2d(92, eps=1e-05, momentum=0.1, affine=True, track_running_stats=True)
      (conv_2): Conv2d(92, 23, kernel_size=(3, 3), stride=(1, 1), padding=(1, 1), bias=False)
    )
  )
  (trans_1): Transition(
    (bn): BatchNorm2d(529, eps=1e-05, momentum=0.1, affine=True, track_running_stats=True)
    (conv): Conv2d(529, 264, kernel_size=(1, 1), stride=(1, 1), bias=False)
  )
  (dense2): Sequential(
    (0): Bottleneck(
      (bn_1): BatchNorm2d(264, eps=1e-05, momentum=0.1, affine=True, track_running_stats=True)
      (conv_1): Conv2d(264, 92, kernel_size=(1, 1), stride=(1, 1), bias=False)
      (bn_2): BatchNorm2d(92, eps=1e-05, momentum=0.1, affine=True, track_running_stats=True)
      (conv_2): Conv2d(92, 23, kernel_size=(3, 3), stride=(1, 1), padding=(1, 1), bias=False)
    )
    (1): Bottleneck(
      (bn_1): BatchNorm2d(287, eps=1e-05, momentum=0.1, affine=True, track_running_stats=True)
      (conv_1): Conv2d(287, 92, kernel_size=(1, 1), stride=(1, 1), bias=False)
      (bn_2): BatchNorm2d(92, eps=1e-05, momentum=0.1, affine=True, track_running_stats=True)
      (conv_2): Conv2d(92, 23, kernel_size=(3, 3), stride=(1, 1), padding=(1, 1), bias=False)
    )
    (2): Bottleneck(
      (bn_1): BatchNorm2d(310, eps=1e-05, momentum=0.1, affine=True, track_running_stats=True)
      (conv_1): Conv2d(310, 92, kernel_size=(1, 1), stride=(1, 1), bias=False)
      (bn_2): BatchNorm2d(92, eps=1e-05, momentum=0.1, affine=True, track_running_stats=True)
      (conv_2): Conv2d(92, 23, kernel_size=(3, 3), stride=(1, 1), padding=(1, 1), bias=False)
    )
    (3): Bottleneck(
      (bn_1): BatchNorm2d(333, eps=1e-05, momentum=0.1, affine=True, track_running_stats=True)
      (conv_1): Conv2d(333, 92, kernel_size=(1, 1), stride=(1, 1), bias=False)
      (bn_2): BatchNorm2d(92, eps=1e-05, momentum=0.1, affine=True, track_running_stats=True)
      (conv_2): Conv2d(92, 23, kernel_size=(3, 3), stride=(1, 1), padding=(1, 1), bias=False)
    )
    (4): Bottleneck(
      (bn_1): BatchNorm2d(356, eps=1e-05, momentum=0.1, affine=True, track_running_stats=True)
      (conv_1): Conv2d(356, 92, kernel_size=(1, 1), stride=(1, 1), bias=False)
      (bn_2): BatchNorm2d(92, eps=1e-05, momentum=0.1, affine=True, track_running_stats=True)
      (conv_2): Conv2d(92, 23, kernel_size=(3, 3), stride=(1, 1), padding=(1, 1), bias=False)
    )
    (5): Bottleneck(
      (bn_1): BatchNorm2d(379, eps=1e-05, momentum=0.1, affine=True, track_running_stats=True)
      (conv_1): Conv2d(379, 92, kernel_size=(1, 1), stride=(1, 1), bias=False)
      (bn_2): BatchNorm2d(92, eps=1e-05, momentum=0.1, affine=True, track_running_stats=True)
      (conv_2): Conv2d(92, 23, kernel_size=(3, 3), stride=(1, 1), padding=(1, 1), bias=False)
    )
    (6): Bottleneck(
      (bn_1): BatchNorm2d(402, eps=1e-05, momentum=0.1, affine=True, track_running_stats=True)
      (conv_1): Conv2d(402, 92, kernel_size=(1, 1), stride=(1, 1), bias=False)
      (bn_2): BatchNorm2d(92, eps=1e-05, momentum=0.1, affine=True, track_running_stats=True)
      (conv_2): Conv2d(92, 23, kernel_size=(3, 3), stride=(1, 1), padding=(1, 1), bias=False)
    )
    (7): Bottleneck(
      (bn_1): BatchNorm2d(425, eps=1e-05, momentum=0.1, affine=True, track_running_stats=True)
      (conv_1): Conv2d(425, 92, kernel_size=(1, 1), stride=(1, 1), bias=False)
      (bn_2): BatchNorm2d(92, eps=1e-05, momentum=0.1, affine=True, track_running_stats=True)
      (conv_2): Conv2d(92, 23, kernel_size=(3, 3), stride=(1, 1), padding=(1, 1), bias=False)
    )
    (8): Bottleneck(
      (bn_1): BatchNorm2d(448, eps=1e-05, momentum=0.1, affine=True, track_running_stats=True)
      (conv_1): Conv2d(448, 92, kernel_size=(1, 1), stride=(1, 1), bias=False)
      (bn_2): BatchNorm2d(92, eps=1e-05, momentum=0.1, affine=True, track_running_stats=True)
      (conv_2): Conv2d(92, 23, kernel_size=(3, 3), stride=(1, 1), padding=(1, 1), bias=False)
    )
    (9): Bottleneck(
      (bn_1): BatchNorm2d(471, eps=1e-05, momentum=0.1, affine=True, track_running_stats=True)
      (conv_1): Conv2d(471, 92, kernel_size=(1, 1), stride=(1, 1), bias=False)
      (bn_2): BatchNorm2d(92, eps=1e-05, momentum=0.1, affine=True, track_running_stats=True)
      (conv_2): Conv2d(92, 23, kernel_size=(3, 3), stride=(1, 1), padding=(1, 1), bias=False)
    )
    (10): Bottleneck(
      (bn_1): BatchNorm2d(494, eps=1e-05, momentum=0.1, affine=True, track_running_stats=True)
      (conv_1): Conv2d(494, 92, kernel_size=(1, 1), stride=(1, 1), bias=False)
      (bn_2): BatchNorm2d(92, eps=1e-05, momentum=0.1, affine=True, track_running_stats=True)
      (conv_2): Conv2d(92, 23, kernel_size=(3, 3), stride=(1, 1), padding=(1, 1), bias=False)
    )
    (11): Bottleneck(
      (bn_1): BatchNorm2d(517, eps=1e-05, momentum=0.1, affine=True, track_running_stats=True)
      (conv_1): Conv2d(517, 92, kernel_size=(1, 1), stride=(1, 1), bias=False)
      (bn_2): BatchNorm2d(92, eps=1e-05, momentum=0.1, affine=True, track_running_stats=True)
      (conv_2): Conv2d(92, 23, kernel_size=(3, 3), stride=(1, 1), padding=(1, 1), bias=False)
    )
    (12): Bottleneck(
      (bn_1): BatchNorm2d(540, eps=1e-05, momentum=0.1, affine=True, track_running_stats=True)
      (conv_1): Conv2d(540, 92, kernel_size=(1, 1), stride=(1, 1), bias=False)
      (bn_2): BatchNorm2d(92, eps=1e-05, momentum=0.1, affine=True, track_running_stats=True)
      (conv_2): Conv2d(92, 23, kernel_size=(3, 3), stride=(1, 1), padding=(1, 1), bias=False)
    )
    (13): Bottleneck(
      (bn_1): BatchNorm2d(563, eps=1e-05, momentum=0.1, affine=True, track_running_stats=True)
      (conv_1): Conv2d(563, 92, kernel_size=(1, 1), stride=(1, 1), bias=False)
      (bn_2): BatchNorm2d(92, eps=1e-05, momentum=0.1, affine=True, track_running_stats=True)
      (conv_2): Conv2d(92, 23, kernel_size=(3, 3), stride=(1, 1), padding=(1, 1), bias=False)
    )
    (14): Bottleneck(
      (bn_1): BatchNorm2d(586, eps=1e-05, momentum=0.1, affine=True, track_running_stats=True)
      (conv_1): Conv2d(586, 92, kernel_size=(1, 1), stride=(1, 1), bias=False)
      (bn_2): BatchNorm2d(92, eps=1e-05, momentum=0.1, affine=True, track_running_stats=True)
      (conv_2): Conv2d(92, 23, kernel_size=(3, 3), stride=(1, 1), padding=(1, 1), bias=False)
    )
    (15): Bottleneck(
      (bn_1): BatchNorm2d(609, eps=1e-05, momentum=0.1, affine=True, track_running_stats=True)
      (conv_1): Conv2d(609, 92, kernel_size=(1, 1), stride=(1, 1), bias=False)
      (bn_2): BatchNorm2d(92, eps=1e-05, momentum=0.1, affine=True, track_running_stats=True)
      (conv_2): Conv2d(92, 23, kernel_size=(3, 3), stride=(1, 1), padding=(1, 1), bias=False)
    )
    (16): Bottleneck(
      (bn_1): BatchNorm2d(632, eps=1e-05, momentum=0.1, affine=True, track_running_stats=True)
      (conv_1): Conv2d(632, 92, kernel_size=(1, 1), stride=(1, 1), bias=False)
      (bn_2): BatchNorm2d(92, eps=1e-05, momentum=0.1, affine=True, track_running_stats=True)
      (conv_2): Conv2d(92, 23, kernel_size=(3, 3), stride=(1, 1), padding=(1, 1), bias=False)
    )
    (17): Bottleneck(
      (bn_1): BatchNorm2d(655, eps=1e-05, momentum=0.1, affine=True, track_running_stats=True)
      (conv_1): Conv2d(655, 92, kernel_size=(1, 1), stride=(1, 1), bias=False)
      (bn_2): BatchNorm2d(92, eps=1e-05, momentum=0.1, affine=True, track_running_stats=True)
      (conv_2): Conv2d(92, 23, kernel_size=(3, 3), stride=(1, 1), padding=(1, 1), bias=False)
    )
    (18): Bottleneck(
      (bn_1): BatchNorm2d(678, eps=1e-05, momentum=0.1, affine=True, track_running_stats=True)
      (conv_1): Conv2d(678, 92, kernel_size=(1, 1), stride=(1, 1), bias=False)
      (bn_2): BatchNorm2d(92, eps=1e-05, momentum=0.1, affine=True, track_running_stats=True)
      (conv_2): Conv2d(92, 23, kernel_size=(3, 3), stride=(1, 1), padding=(1, 1), bias=False)
    )
    (19): Bottleneck(
      (bn_1): BatchNorm2d(701, eps=1e-05, momentum=0.1, affine=True, track_running_stats=True)
      (conv_1): Conv2d(701, 92, kernel_size=(1, 1), stride=(1, 1), bias=False)
      (bn_2): BatchNorm2d(92, eps=1e-05, momentum=0.1, affine=True, track_running_stats=True)
      (conv_2): Conv2d(92, 23, kernel_size=(3, 3), stride=(1, 1), padding=(1, 1), bias=False)
    )
    (20): Bottleneck(
      (bn_1): BatchNorm2d(724, eps=1e-05, momentum=0.1, affine=True, track_running_stats=True)
      (conv_1): Conv2d(724, 92, kernel_size=(1, 1), stride=(1, 1), bias=False)
      (bn_2): BatchNorm2d(92, eps=1e-05, momentum=0.1, affine=True, track_running_stats=True)
      (conv_2): Conv2d(92, 23, kernel_size=(3, 3), stride=(1, 1), padding=(1, 1), bias=False)
    )
  )
  (trans_2): Transition(
    (bn): BatchNorm2d(747, eps=1e-05, momentum=0.1, affine=True, track_running_stats=True)
    (conv): Conv2d(747, 373, kernel_size=(1, 1), stride=(1, 1), bias=False)
  )
  (dense_3): Sequential(
    (0): Bottleneck(
      (bn_1): BatchNorm2d(373, eps=1e-05, momentum=0.1, affine=True, track_running_stats=True)
      (conv_1): Conv2d(373, 92, kernel_size=(1, 1), stride=(1, 1), bias=False)
      (bn_2): BatchNorm2d(92, eps=1e-05, momentum=0.1, affine=True, track_running_stats=True)
      (conv_2): Conv2d(92, 23, kernel_size=(3, 3), stride=(1, 1), padding=(1, 1), bias=False)
    )
    (1): Bottleneck(
      (bn_1): BatchNorm2d(396, eps=1e-05, momentum=0.1, affine=True, track_running_stats=True)
      (conv_1): Conv2d(396, 92, kernel_size=(1, 1), stride=(1, 1), bias=False)
      (bn_2): BatchNorm2d(92, eps=1e-05, momentum=0.1, affine=True, track_running_stats=True)
      (conv_2): Conv2d(92, 23, kernel_size=(3, 3), stride=(1, 1), padding=(1, 1), bias=False)
    )
    (2): Bottleneck(
      (bn_1): BatchNorm2d(419, eps=1e-05, momentum=0.1, affine=True, track_running_stats=True)
      (conv_1): Conv2d(419, 92, kernel_size=(1, 1), stride=(1, 1), bias=False)
      (bn_2): BatchNorm2d(92, eps=1e-05, momentum=0.1, affine=True, track_running_stats=True)
      (conv_2): Conv2d(92, 23, kernel_size=(3, 3), stride=(1, 1), padding=(1, 1), bias=False)
    )
    (3): Bottleneck(
      (bn_1): BatchNorm2d(442, eps=1e-05, momentum=0.1, affine=True, track_running_stats=True)
      (conv_1): Conv2d(442, 92, kernel_size=(1, 1), stride=(1, 1), bias=False)
      (bn_2): BatchNorm2d(92, eps=1e-05, momentum=0.1, affine=True, track_running_stats=True)
      (conv_2): Conv2d(92, 23, kernel_size=(3, 3), stride=(1, 1), padding=(1, 1), bias=False)
    )
    (4): Bottleneck(
      (bn_1): BatchNorm2d(465, eps=1e-05, momentum=0.1, affine=True, track_running_stats=True)
      (conv_1): Conv2d(465, 92, kernel_size=(1, 1), stride=(1, 1), bias=False)
      (bn_2): BatchNorm2d(92, eps=1e-05, momentum=0.1, affine=True, track_running_stats=True)
      (conv_2): Conv2d(92, 23, kernel_size=(3, 3), stride=(1, 1), padding=(1, 1), bias=False)
    )
    (5): Bottleneck(
      (bn_1): BatchNorm2d(488, eps=1e-05, momentum=0.1, affine=True, track_running_stats=True)
      (conv_1): Conv2d(488, 92, kernel_size=(1, 1), stride=(1, 1), bias=False)
      (bn_2): BatchNorm2d(92, eps=1e-05, momentum=0.1, affine=True, track_running_stats=True)
      (conv_2): Conv2d(92, 23, kernel_size=(3, 3), stride=(1, 1), padding=(1, 1), bias=False)
    )
    (6): Bottleneck(
      (bn_1): BatchNorm2d(511, eps=1e-05, momentum=0.1, affine=True, track_running_stats=True)
      (conv_1): Conv2d(511, 92, kernel_size=(1, 1), stride=(1, 1), bias=False)
      (bn_2): BatchNorm2d(92, eps=1e-05, momentum=0.1, affine=True, track_running_stats=True)
      (conv_2): Conv2d(92, 23, kernel_size=(3, 3), stride=(1, 1), padding=(1, 1), bias=False)
    )
    (7): Bottleneck(
      (bn_1): BatchNorm2d(534, eps=1e-05, momentum=0.1, affine=True, track_running_stats=True)
      (conv_1): Conv2d(534, 92, kernel_size=(1, 1), stride=(1, 1), bias=False)
      (bn_2): BatchNorm2d(92, eps=1e-05, momentum=0.1, affine=True, track_running_stats=True)
      (conv_2): Conv2d(92, 23, kernel_size=(3, 3), stride=(1, 1), padding=(1, 1), bias=False)
    )
    (8): Bottleneck(
      (bn_1): BatchNorm2d(557, eps=1e-05, momentum=0.1, affine=True, track_running_stats=True)
      (conv_1): Conv2d(557, 92, kernel_size=(1, 1), stride=(1, 1), bias=False)
      (bn_2): BatchNorm2d(92, eps=1e-05, momentum=0.1, affine=True, track_running_stats=True)
      (conv_2): Conv2d(92, 23, kernel_size=(3, 3), stride=(1, 1), padding=(1, 1), bias=False)
    )
    (9): Bottleneck(
      (bn_1): BatchNorm2d(580, eps=1e-05, momentum=0.1, affine=True, track_running_stats=True)
      (conv_1): Conv2d(580, 92, kernel_size=(1, 1), stride=(1, 1), bias=False)
      (bn_2): BatchNorm2d(92, eps=1e-05, momentum=0.1, affine=True, track_running_stats=True)
      (conv_2): Conv2d(92, 23, kernel_size=(3, 3), stride=(1, 1), padding=(1, 1), bias=False)
    )
    (10): Bottleneck(
      (bn_1): BatchNorm2d(603, eps=1e-05, momentum=0.1, affine=True, track_running_stats=True)
      (conv_1): Conv2d(603, 92, kernel_size=(1, 1), stride=(1, 1), bias=False)
      (bn_2): BatchNorm2d(92, eps=1e-05, momentum=0.1, affine=True, track_running_stats=True)
      (conv_2): Conv2d(92, 23, kernel_size=(3, 3), stride=(1, 1), padding=(1, 1), bias=False)
    )
    (11): Bottleneck(
      (bn_1): BatchNorm2d(626, eps=1e-05, momentum=0.1, affine=True, track_running_stats=True)
      (conv_1): Conv2d(626, 92, kernel_size=(1, 1), stride=(1, 1), bias=False)
      (bn_2): BatchNorm2d(92, eps=1e-05, momentum=0.1, affine=True, track_running_stats=True)
      (conv_2): Conv2d(92, 23, kernel_size=(3, 3), stride=(1, 1), padding=(1, 1), bias=False)
    )
    (12): Bottleneck(
      (bn_1): BatchNorm2d(649, eps=1e-05, momentum=0.1, affine=True, track_running_stats=True)
      (conv_1): Conv2d(649, 92, kernel_size=(1, 1), stride=(1, 1), bias=False)
      (bn_2): BatchNorm2d(92, eps=1e-05, momentum=0.1, affine=True, track_running_stats=True)
      (conv_2): Conv2d(92, 23, kernel_size=(3, 3), stride=(1, 1), padding=(1, 1), bias=False)
    )
    (13): Bottleneck(
      (bn_1): BatchNorm2d(672, eps=1e-05, momentum=0.1, affine=True, track_running_stats=True)
      (conv_1): Conv2d(672, 92, kernel_size=(1, 1), stride=(1, 1), bias=False)
      (bn_2): BatchNorm2d(92, eps=1e-05, momentum=0.1, affine=True, track_running_stats=True)
      (conv_2): Conv2d(92, 23, kernel_size=(3, 3), stride=(1, 1), padding=(1, 1), bias=False)
    )
    (14): Bottleneck(
      (bn_1): BatchNorm2d(695, eps=1e-05, momentum=0.1, affine=True, track_running_stats=True)
      (conv_1): Conv2d(695, 92, kernel_size=(1, 1), stride=(1, 1), bias=False)
      (bn_2): BatchNorm2d(92, eps=1e-05, momentum=0.1, affine=True, track_running_stats=True)
      (conv_2): Conv2d(92, 23, kernel_size=(3, 3), stride=(1, 1), padding=(1, 1), bias=False)
    )
    (15): Bottleneck(
      (bn_1): BatchNorm2d(718, eps=1e-05, momentum=0.1, affine=True, track_running_stats=True)
      (conv_1): Conv2d(718, 92, kernel_size=(1, 1), stride=(1, 1), bias=False)
      (bn_2): BatchNorm2d(92, eps=1e-05, momentum=0.1, affine=True, track_running_stats=True)
      (conv_2): Conv2d(92, 23, kernel_size=(3, 3), stride=(1, 1), padding=(1, 1), bias=False)
    )
    (16): Bottleneck(
      (bn_1): BatchNorm2d(741, eps=1e-05, momentum=0.1, affine=True, track_running_stats=True)
      (conv_1): Conv2d(741, 92, kernel_size=(1, 1), stride=(1, 1), bias=False)
      (bn_2): BatchNorm2d(92, eps=1e-05, momentum=0.1, affine=True, track_running_stats=True)
      (conv_2): Conv2d(92, 23, kernel_size=(3, 3), stride=(1, 1), padding=(1, 1), bias=False)
    )
    (17): Bottleneck(
      (bn_1): BatchNorm2d(764, eps=1e-05, momentum=0.1, affine=True, track_running_stats=True)
      (conv_1): Conv2d(764, 92, kernel_size=(1, 1), stride=(1, 1), bias=False)
      (bn_2): BatchNorm2d(92, eps=1e-05, momentum=0.1, affine=True, track_running_stats=True)
      (conv_2): Conv2d(92, 23, kernel_size=(3, 3), stride=(1, 1), padding=(1, 1), bias=False)
    )
    (18): Bottleneck(
      (bn_1): BatchNorm2d(787, eps=1e-05, momentum=0.1, affine=True, track_running_stats=True)
      (conv_1): Conv2d(787, 92, kernel_size=(1, 1), stride=(1, 1), bias=False)
      (bn_2): BatchNorm2d(92, eps=1e-05, momentum=0.1, affine=True, track_running_stats=True)
      (conv_2): Conv2d(92, 23, kernel_size=(3, 3), stride=(1, 1), padding=(1, 1), bias=False)
    )
    (19): Bottleneck(
      (bn_1): BatchNorm2d(810, eps=1e-05, momentum=0.1, affine=True, track_running_stats=True)
      (conv_1): Conv2d(810, 92, kernel_size=(1, 1), stride=(1, 1), bias=False)
      (bn_2): BatchNorm2d(92, eps=1e-05, momentum=0.1, affine=True, track_running_stats=True)
      (conv_2): Conv2d(92, 23, kernel_size=(3, 3), stride=(1, 1), padding=(1, 1), bias=False)
    )
    (20): Bottleneck(
      (bn_1): BatchNorm2d(833, eps=1e-05, momentum=0.1, affine=True, track_running_stats=True)
      (conv_1): Conv2d(833, 92, kernel_size=(1, 1), stride=(1, 1), bias=False)
      (bn_2): BatchNorm2d(92, eps=1e-05, momentum=0.1, affine=True, track_running_stats=True)
      (conv_2): Conv2d(92, 23, kernel_size=(3, 3), stride=(1, 1), padding=(1, 1), bias=False)
    )
  )
  (bn): BatchNorm2d(856, eps=1e-05, momentum=0.1, affine=True, track_running_stats=True)
  (fc): Linear(in_features=856, out_features=10, bias=True)
)
[2019-10-21 16:43:32,093] - [train.py line:148] :  == total parameters: 4354029
[2019-10-21 16:43:42,560] - [train.py line:187] :             =======  Training  =======

[2019-10-21 16:43:42,564] - [train.py line:39] :  === Epoch: [1/300] === 
