…
, 'dataset': 'cifar10', 'use_gpu': True, 'input_size': 32, 'epochs': 300, 'batch_size': 256, 'test_batch': 200, 'eval_freq': 2, 'workers': 4, 'optimize': {'momentum': 0.9, 'weight_decay': 0.0001, 'nesterov': True}, 'mixup': True, 'mixup_alpha': 0.4, 'augmentation': {'normalize': True, 'random_crop': True, 'random_horizontal_filp': True, 'cutout': True, 'holes': 1, 'length': 8}, 'lr_scheduler': {'type': 'COSINE', 'base_lr': 0.1, 'lr_epochs': [150, 225], 'lr_mults': 0.1, 'min_lr': 0.0, 'lower_bound': -6.0, 'upper_bound': 3.0}}
[2019-10-21 17:13:36,484] - [train.py line:147] : DenseNet(
  (conv_1): Conv2d(3, 26, kernel_size=(3, 3), stride=(1, 1), padding=(1, 1), bias=False)
  (dense1): Sequential(
    (0): Bottleneck(
      (bn_1): BatchNorm2d(26, eps=1e-05, momentum=0.1, affine=True, track_running_stats=True)
      (conv_1): Conv2d(26, 52, kernel_size=(1, 1), stride=(1, 1), bias=False)
      (bn_2): BatchNorm2d(52, eps=1e-05, momentum=0.1, affine=True, track_running_stats=True)
      (conv_2): Conv2d(52, 13, kernel_size=(3, 3), stride=(1, 1), padding=(1, 1), bias=False)
    )
    (1): Bottleneck(
      (bn_1): BatchNorm2d(39, eps=1e-05, momentum=0.1, affine=True, track_running_stats=True)
      (conv_1): Conv2d(39, 52, kernel_size=(1, 1), stride=(1, 1), bias=False)
      (bn_2): BatchNorm2d(52, eps=1e-05, momentum=0.1, affine=True, track_running_stats=True)
      (conv_2): Conv2d(52, 13, kernel_size=(3, 3), stride=(1, 1), padding=(1, 1), bias=False)
    )
    (2): Bottleneck(
      (bn_1): BatchNorm2d(52, eps=1e-05, momentum=0.1, affine=True, track_running_stats=True)
      (conv_1): Conv2d(52, 52, kernel_size=(1, 1), stride=(1, 1), bias=False)
      (bn_2): BatchNorm2d(52, eps=1e-05, momentum=0.1, affine=True, track_running_stats=True)
      (conv_2): Conv2d(52, 13, kernel_size=(3, 3), stride=(1, 1), padding=(1, 1), bias=False)
    )
    (3): Bottleneck(
      (bn_1): BatchNorm2d(65, eps=1e-05, momentum=0.1, affine=True, track_running_stats=True)
      (conv_1): Conv2d(65, 52, kernel_size=(1, 1), stride=(1, 1), bias=False)
      (bn_2): BatchNorm2d(52, eps=1e-05, momentum=0.1, affine=True, track_running_stats=True)
      (conv_2): Conv2d(52, 13, kernel_size=(3, 3), stride=(1, 1), padding=(1, 1), bias=False)
    )
    (4): Bottleneck(
      (bn_1): BatchNorm2d(78, eps=1e-05, momentum=0.1, affine=True, track_running_stats=True)
      (conv_1): Conv2d(78, 52, kernel_size=(1, 1), stride=(1, 1), bias=False)
      (bn_2): BatchNorm2d(52, eps=1e-05, momentum=0.1, affine=True, track_running_stats=True)
      (conv_2): Conv2d(52, 13, kernel_size=(3, 3), stride=(1, 1), padding=(1, 1), bias=False)
    )
    (5): Bottleneck(
      (bn_1): BatchNorm2d(91, eps=1e-05, momentum=0.1, affine=True, track_running_stats=True)
      (conv_1): Conv2d(91, 52, kernel_size=(1, 1), stride=(1, 1), bias=False)
      (bn_2): BatchNorm2d(52, eps=1e-05, momentum=0.1, affine=True, track_running_stats=True)
      (conv_2): Conv2d(52, 13, kernel_size=(3, 3), stride=(1, 1), padding=(1, 1), bias=False)
    )
    (6): Bottleneck(
      (bn_1): BatchNorm2d(104, eps=1e-05, momentum=0.1, affine=True, track_running_stats=True)
      (conv_1): Conv2d(104, 52, kernel_size=(1, 1), stride=(1, 1), bias=False)
      (bn_2): BatchNorm2d(52, eps=1e-05, momentum=0.1, affine=True, track_running_stats=True)
      (conv_2): Conv2d(52, 13, kernel_size=(3, 3), stride=(1, 1), padding=(1, 1), bias=False)
    )
    (7): Bottleneck(
      (bn_1): BatchNorm2d(117, eps=1e-05, momentum=0.1, affine=True, track_running_stats=True)
      (conv_1): Conv2d(117, 52, kernel_size=(1, 1), stride=(1, 1), bias=False)
      (bn_2): BatchNorm2d(52, eps=1e-05, momentum=0.1, affine=True, track_running_stats=True)
      (conv_2): Conv2d(52, 13, kernel_size=(3, 3), stride=(1, 1), padding=(1, 1), bias=False)
    )
    (8): Bottleneck(
      (bn_1): BatchNorm2d(130, eps=1e-05, momentum=0.1, affine=True, track_running_stats=True)
      (conv_1): Conv2d(130, 52, kernel_size=(1, 1), stride=(1, 1), bias=False)
      (bn_2): BatchNorm2d(52, eps=1e-05, momentum=0.1, affine=True, track_running_stats=True)
      (conv_2): Conv2d(52, 13, kernel_size=(3, 3), stride=(1, 1), padding=(1, 1), bias=False)
    )
    (9): Bottleneck(
      (bn_1): BatchNorm2d(143, eps=1e-05, momentum=0.1, affine=True, track_running_stats=True)
      (conv_1): Conv2d(143, 52, kernel_size=(1, 1), stride=(1, 1), bias=False)
      (bn_2): BatchNorm2d(52, eps=1e-05, momentum=0.1, affine=True, track_running_stats=True)
      (conv_2): Conv2d(52, 13, kernel_size=(3, 3), stride=(1, 1), padding=(1, 1), bias=False)
    )
    (10): Bottleneck(
      (bn_1): BatchNorm2d(156, eps=1e-05, momentum=0.1, affine=True, track_running_stats=True)
      (conv_1): Conv2d(156, 52, kernel_size=(1, 1), stride=(1, 1), bias=False)
      (bn_2): BatchNorm2d(52, eps=1e-05, momentum=0.1, affine=True, track_running_stats=True)
      (conv_2): Conv2d(52, 13, kernel_size=(3, 3), stride=(1, 1), padding=(1, 1), bias=False)
    )
    (11): Bottleneck(
      (bn_1): BatchNorm2d(169, eps=1e-05, momentum=0.1, affine=True, track_running_stats=True)
      (conv_1): Conv2d(169, 52, kernel_size=(1, 1), stride=(1, 1), bias=False)
      (bn_2): BatchNorm2d(52, eps=1e-05, momentum=0.1, affine=True, track_running_stats=True)
      (conv_2): Conv2d(52, 13, kernel_size=(3, 3), stride=(1, 1), padding=(1, 1), bias=False)
    )
    (12): Bottleneck(
      (bn_1): BatchNorm2d(182, eps=1e-05, momentum=0.1, affine=True, track_running_stats=True)
      (conv_1): Conv2d(182, 52, kernel_size=(1, 1), stride=(1, 1), bias=False)
      (bn_2): BatchNorm2d(52, eps=1e-05, momentum=0.1, affine=True, track_running_stats=True)
      (conv_2): Conv2d(52, 13, kernel_size=(3, 3), stride=(1, 1), padding=(1, 1), bias=False)
    )
    (13): Bottleneck(
      (bn_1): BatchNorm2d(195, eps=1e-05, momentum=0.1, affine=True, track_running_stats=True)
      (conv_1): Conv2d(195, 52, kernel_size=(1, 1), stride=(1, 1), bias=False)
      (bn_2): BatchNorm2d(52, eps=1e-05, momentum=0.1, affine=True, track_running_stats=True)
      (conv_2): Conv2d(52, 13, kernel_size=(3, 3), stride=(1, 1), padding=(1, 1), bias=False)
    )
    (14): Bottleneck(
      (bn_1): BatchNorm2d(208, eps=1e-05, momentum=0.1, affine=True, track_running_stats=True)
      (conv_1): Conv2d(208, 52, kernel_size=(1, 1), stride=(1, 1), bias=False)
      (bn_2): BatchNorm2d(52, eps=1e-05, momentum=0.1, affine=True, track_running_stats=True)
      (conv_2): Conv2d(52, 13, kernel_size=(3, 3), stride=(1, 1), padding=(1, 1), bias=False)
    )
    (15): Bottleneck(
      (bn_1): BatchNorm2d(221, eps=1e-05, momentum=0.1, affine=True, track_running_stats=True)
      (conv_1): Conv2d(221, 52, kernel_size=(1, 1), stride=(1, 1), bias=False)
      (bn_2): BatchNorm2d(52, eps=1e-05, momentum=0.1, affine=True, track_running_stats=True)
      (conv_2): Conv2d(52, 13, kernel_size=(3, 3), stride=(1, 1), padding=(1, 1), bias=False)
    )
  )
  (trans_1): Transition(
    (bn): BatchNorm2d(234, eps=1e-05, momentum=0.1, affine=True, track_running_stats=True)
    (conv): Conv2d(234, 117, kernel_size=(1, 1), stride=(1, 1), bias=False)
  )
  (dense2): Sequential(
    (0): Bottleneck(
      (bn_1): BatchNorm2d(117, eps=1e-05, momentum=0.1, affine=True, track_running_stats=True)
      (conv_1): Conv2d(117, 52, kernel_size=(1, 1), stride=(1, 1), bias=False)
      (bn_2): BatchNorm2d(52, eps=1e-05, momentum=0.1, affine=True, track_running_stats=True)
      (conv_2): Conv2d(52, 13, kernel_size=(3, 3), stride=(1, 1), padding=(1, 1), bias=False)
    )
    (1): Bottleneck(
      (bn_1): BatchNorm2d(130, eps=1e-05, momentum=0.1, affine=True, track_running_stats=True)
      (conv_1): Conv2d(130, 52, kernel_size=(1, 1), stride=(1, 1), bias=False)
      (bn_2): BatchNorm2d(52, eps=1e-05, momentum=0.1, affine=True, track_running_stats=True)
      (conv_2): Conv2d(52, 13, kernel_size=(3, 3), stride=(1, 1), padding=(1, 1), bias=False)
    )
    (2): Bottleneck(
      (bn_1): BatchNorm2d(143, eps=1e-05, momentum=0.1, affine=True, track_running_stats=True)
      (conv_1): Conv2d(143, 52, kernel_size=(1, 1), stride=(1, 1), bias=False)
      (bn_2): BatchNorm2d(52, eps=1e-05, momentum=0.1, affine=True, track_running_stats=True)
      (conv_2): Conv2d(52, 13, kernel_size=(3, 3), stride=(1, 1), padding=(1, 1), bias=False)
    )
    (3): Bottleneck(
      (bn_1): BatchNorm2d(156, eps=1e-05, momentum=0.1, affine=True, track_running_stats=True)
      (conv_1): Conv2d(156, 52, kernel_size=(1, 1), stride=(1, 1), bias=False)
      (bn_2): BatchNorm2d(52, eps=1e-05, momentum=0.1, affine=True, track_running_stats=True)
      (conv_2): Conv2d(52, 13, kernel_size=(3, 3), stride=(1, 1), padding=(1, 1), bias=False)
    )
    (4): Bottleneck(
      (bn_1): BatchNorm2d(169, eps=1e-05, momentum=0.1, affine=True, track_running_stats=True)
      (conv_1): Conv2d(169, 52, kernel_size=(1, 1), stride=(1, 1), bias=False)
      (bn_2): BatchNorm2d(52, eps=1e-05, momentum=0.1, affine=True, track_running_stats=True)
      (conv_2): Conv2d(52, 13, kernel_size=(3, 3), stride=(1, 1), padding=(1, 1), bias=False)
    )
    (5): Bottleneck(
      (bn_1): BatchNorm2d(182, eps=1e-05, momentum=0.1, affine=True, track_running_stats=True)
      (conv_1): Conv2d(182, 52, kernel_size=(1, 1), stride=(1, 1), bias=False)
      (bn_2): BatchNorm2d(52, eps=1e-05, momentum=0.1, affine=True, track_running_stats=True)
      (conv_2): Conv2d(52, 13, kernel_size=(3, 3), stride=(1, 1), padding=(1, 1), bias=False)
    )
    (6): Bottleneck(
      (bn_1): BatchNorm2d(195, eps=1e-05, momentum=0.1, affine=True, track_running_stats=True)
      (conv_1): Conv2d(195, 52, kernel_size=(1, 1), stride=(1, 1), bias=False)
      (bn_2): BatchNorm2d(52, eps=1e-05, momentum=0.1, affine=True, track_running_stats=True)
      (conv_2): Conv2d(52, 13, kernel_size=(3, 3), stride=(1, 1), padding=(1, 1), bias=False)
    )
    (7): Bottleneck(
      (bn_1): BatchNorm2d(208, eps=1e-05, momentum=0.1, affine=True, track_running_stats=True)
      (conv_1): Conv2d(208, 52, kernel_size=(1, 1), stride=(1, 1), bias=False)
      (bn_2): BatchNorm2d(52, eps=1e-05, momentum=0.1, affine=True, track_running_stats=True)
      (conv_2): Conv2d(52, 13, kernel_size=(3, 3), stride=(1, 1), padding=(1, 1), bias=False)
    )
    (8): Bottleneck(
      (bn_1): BatchNorm2d(221, eps=1e-05, momentum=0.1, affine=True, track_running_stats=True)
      (conv_1): Conv2d(221, 52, kernel_size=(1, 1), stride=(1, 1), bias=False)
      (bn_2): BatchNorm2d(52, eps=1e-05, momentum=0.1, affine=True, track_running_stats=True)
      (conv_2): Conv2d(52, 13, kernel_size=(3, 3), stride=(1, 1), padding=(1, 1), bias=False)
    )
    (9): Bottleneck(
      (bn_1): BatchNorm2d(234, eps=1e-05, momentum=0.1, affine=True, track_running_stats=True)
      (conv_1): Conv2d(234, 52, kernel_size=(1, 1), stride=(1, 1), bias=False)
      (bn_2): BatchNorm2d(52, eps=1e-05, momentum=0.1, affine=True, track_running_stats=True)
      (conv_2): Conv2d(52, 13, kernel_size=(3, 3), stride=(1, 1), padding=(1, 1), bias=False)
    )
    (10): Bottleneck(
      (bn_1): BatchNorm2d(247, eps=1e-05, momentum=0.1, affine=True, track_running_stats=True)
      (conv_1): Conv2d(247, 52, kernel_size=(1, 1), stride=(1, 1), bias=False)
      (bn_2): BatchNorm2d(52, eps=1e-05, momentum=0.1, affine=True, track_running_stats=True)
      (conv_2): Conv2d(52, 13, kernel_size=(3, 3), stride=(1, 1), padding=(1, 1), bias=False)
    )
    (11): Bottleneck(
      (bn_1): BatchNorm2d(260, eps=1e-05, momentum=0.1, affine=True, track_running_stats=True)
      (conv_1): Conv2d(260, 52, kernel_size=(1, 1), stride=(1, 1), bias=False)
      (bn_2): BatchNorm2d(52, eps=1e-05, momentum=0.1, affine=True, track_running_stats=True)
      (conv_2): Conv2d(52, 13, kernel_size=(3, 3), stride=(1, 1), padding=(1, 1), bias=False)
    )
    (12): Bottleneck(
      (bn_1): BatchNorm2d(273, eps=1e-05, momentum=0.1, affine=True, track_running_stats=True)
      (conv_1): Conv2d(273, 52, kernel_size=(1, 1), stride=(1, 1), bias=False)
      (bn_2): BatchNorm2d(52, eps=1e-05, momentum=0.1, affine=True, track_running_stats=True)
      (conv_2): Conv2d(52, 13, kernel_size=(3, 3), stride=(1, 1), padding=(1, 1), bias=False)
    )
    (13): Bottleneck(
      (bn_1): BatchNorm2d(286, eps=1e-05, momentum=0.1, affine=True, track_running_stats=True)
      (conv_1): Conv2d(286, 52, kernel_size=(1, 1), stride=(1, 1), bias=False)
      (bn_2): BatchNorm2d(52, eps=1e-05, momentum=0.1, affine=True, track_running_stats=True)
      (conv_2): Conv2d(52, 13, kernel_size=(3, 3), stride=(1, 1), padding=(1, 1), bias=False)
    )
    (14): Bottleneck(
      (bn_1): BatchNorm2d(299, eps=1e-05, momentum=0.1, affine=True, track_running_stats=True)
      (conv_1): Conv2d(299, 52, kernel_size=(1, 1), stride=(1, 1), bias=False)
      (bn_2): BatchNorm2d(52, eps=1e-05, momentum=0.1, affine=True, track_running_stats=True)
      (conv_2): Conv2d(52, 13, kernel_size=(3, 3), stride=(1, 1), padding=(1, 1), bias=False)
    )
    (15): Bottleneck(
      (bn_1): BatchNorm2d(312, eps=1e-05, momentum=0.1, affine=True, track_running_stats=True)
      (conv_1): Conv2d(312, 52, kernel_size=(1, 1), stride=(1, 1), bias=False)
      (bn_2): BatchNorm2d(52, eps=1e-05, momentum=0.1, affine=True, track_running_stats=True)
      (conv_2): Conv2d(52, 13, kernel_size=(3, 3), stride=(1, 1), padding=(1, 1), bias=False)
    )
  )
  (trans_2): Transition(
    (bn): BatchNorm2d(325, eps=1e-05, momentum=0.1, affine=True, track_running_stats=True)
    (conv): Conv2d(325, 162, kernel_size=(1, 1), stride=(1, 1), bias=False)
  )
  (dense_3): Sequential(
    (0): Bottleneck(
      (bn_1): BatchNorm2d(162, eps=1e-05, momentum=0.1, affine=True, track_running_stats=True)
      (conv_1): Conv2d(162, 52, kernel_size=(1, 1), stride=(1, 1), bias=False)
      (bn_2): BatchNorm2d(52, eps=1e-05, momentum=0.1, affine=True, track_running_stats=True)
      (conv_2): Conv2d(52, 13, kernel_size=(3, 3), stride=(1, 1), padding=(1, 1), bias=False)
    )
    (1): Bottleneck(
      (bn_1): BatchNorm2d(175, eps=1e-05, momentum=0.1, affine=True, track_running_stats=True)
      (conv_1): Conv2d(175, 52, kernel_size=(1, 1), stride=(1, 1), bias=False)
      (bn_2): BatchNorm2d(52, eps=1e-05, momentum=0.1, affine=True, track_running_stats=True)
      (conv_2): Conv2d(52, 13, kernel_size=(3, 3), stride=(1, 1), padding=(1, 1), bias=False)
    )
    (2): Bottleneck(
      (bn_1): BatchNorm2d(188, eps=1e-05, momentum=0.1, affine=True, track_running_stats=True)
      (conv_1): Conv2d(188, 52, kernel_size=(1, 1), stride=(1, 1), bias=False)
      (bn_2): BatchNorm2d(52, eps=1e-05, momentum=0.1, affine=True, track_running_stats=True)
      (conv_2): Conv2d(52, 13, kernel_size=(3, 3), stride=(1, 1), padding=(1, 1), bias=False)
    )
    (3): Bottleneck(
      (bn_1): BatchNorm2d(201, eps=1e-05, momentum=0.1, affine=True, track_running_stats=True)
      (conv_1): Conv2d(201, 52, kernel_size=(1, 1), stride=(1, 1), bias=False)
      (bn_2): BatchNorm2d(52, eps=1e-05, momentum=0.1, affine=True, track_running_stats=True)
      (conv_2): Conv2d(52, 13, kernel_size=(3, 3), stride=(1, 1), padding=(1, 1), bias=False)
    )
    (4): Bottleneck(
      (bn_1): BatchNorm2d(214, eps=1e-05, momentum=0.1, affine=True, track_running_stats=True)
      (conv_1): Conv2d(214, 52, kernel_size=(1, 1), stride=(1, 1), bias=False)
      (bn_2): BatchNorm2d(52, eps=1e-05, momentum=0.1, affine=True, track_running_stats=True)
      (conv_2): Conv2d(52, 13, kernel_size=(3, 3), stride=(1, 1), padding=(1, 1), bias=False)
    )
    (5): Bottleneck(
      (bn_1): BatchNorm2d(227, eps=1e-05, momentum=0.1, affine=True, track_running_stats=True)
      (conv_1): Conv2d(227, 52, kernel_size=(1, 1), stride=(1, 1), bias=False)
      (bn_2): BatchNorm2d(52, eps=1e-05, momentum=0.1, affine=True, track_running_stats=True)
      (conv_2): Conv2d(52, 13, kernel_size=(3, 3), stride=(1, 1), padding=(1, 1), bias=False)
    )
    (6): Bottleneck(
      (bn_1): BatchNorm2d(240, eps=1e-05, momentum=0.1, affine=True, track_running_stats=True)
      (conv_1): Conv2d(240, 52, kernel_size=(1, 1), stride=(1, 1), bias=False)
      (bn_2): BatchNorm2d(52, eps=1e-05, momentum=0.1, affine=True, track_running_stats=True)
      (conv_2): Conv2d(52, 13, kernel_size=(3, 3), stride=(1, 1), padding=(1, 1), bias=False)
    )
    (7): Bottleneck(
      (bn_1): BatchNorm2d(253, eps=1e-05, momentum=0.1, affine=True, track_running_stats=True)
      (conv_1): Conv2d(253, 52, kernel_size=(1, 1), stride=(1, 1), bias=False)
      (bn_2): BatchNorm2d(52, eps=1e-05, momentum=0.1, affine=True, track_running_stats=True)
      (conv_2): Conv2d(52, 13, kernel_size=(3, 3), stride=(1, 1), padding=(1, 1), bias=False)
    )
    (8): Bottleneck(
      (bn_1): BatchNorm2d(266, eps=1e-05, momentum=0.1, affine=True, track_running_stats=True)
      (conv_1): Conv2d(266, 52, kernel_size=(1, 1), stride=(1, 1), bias=False)
      (bn_2): BatchNorm2d(52, eps=1e-05, momentum=0.1, affine=True, track_running_stats=True)
      (conv_2): Conv2d(52, 13, kernel_size=(3, 3), stride=(1, 1), padding=(1, 1), bias=False)
    )
    (9): Bottleneck(
      (bn_1): BatchNorm2d(279, eps=1e-05, momentum=0.1, affine=True, track_running_stats=True)
      (conv_1): Conv2d(279, 52, kernel_size=(1, 1), stride=(1, 1), bias=False)
      (bn_2): BatchNorm2d(52, eps=1e-05, momentum=0.1, affine=True, track_running_stats=True)
      (conv_2): Conv2d(52, 13, kernel_size=(3, 3), stride=(1, 1), padding=(1, 1), bias=False)
    )
    (10): Bottleneck(
      (bn_1): BatchNorm2d(292, eps=1e-05, momentum=0.1, affine=True, track_running_stats=True)
      (conv_1): Conv2d(292, 52, kernel_size=(1, 1), stride=(1, 1), bias=False)
      (bn_2): BatchNorm2d(52, eps=1e-05, momentum=0.1, affine=True, track_running_stats=True)
      (conv_2): Conv2d(52, 13, kernel_size=(3, 3), stride=(1, 1), padding=(1, 1), bias=False)
    )
    (11): Bottleneck(
      (bn_1): BatchNorm2d(305, eps=1e-05, momentum=0.1, affine=True, track_running_stats=True)
      (conv_1): Conv2d(305, 52, kernel_size=(1, 1), stride=(1, 1), bias=False)
      (bn_2): BatchNorm2d(52, eps=1e-05, momentum=0.1, affine=True, track_running_stats=True)
      (conv_2): Conv2d(52, 13, kernel_size=(3, 3), stride=(1, 1), padding=(1, 1), bias=False)
    )
    (12): Bottleneck(
      (bn_1): BatchNorm2d(318, eps=1e-05, momentum=0.1, affine=True, track_running_stats=True)
      (conv_1): Conv2d(318, 52, kernel_size=(1, 1), stride=(1, 1), bias=False)
      (bn_2): BatchNorm2d(52, eps=1e-05, momentum=0.1, affine=True, track_running_stats=True)
      (conv_2): Conv2d(52, 13, kernel_size=(3, 3), stride=(1, 1), padding=(1, 1), bias=False)
    )
    (13): Bottleneck(
      (bn_1): BatchNorm2d(331, eps=1e-05, momentum=0.1, affine=True, track_running_stats=True)
      (conv_1): Conv2d(331, 52, kernel_size=(1, 1), stride=(1, 1), bias=False)
      (bn_2): BatchNorm2d(52, eps=1e-05, momentum=0.1, affine=True, track_running_stats=True)
      (conv_2): Conv2d(52, 13, kernel_size=(3, 3), stride=(1, 1), padding=(1, 1), bias=False)
    )
    (14): Bottleneck(
      (bn_1): BatchNorm2d(344, eps=1e-05, momentum=0.1, affine=True, track_running_stats=True)
      (conv_1): Conv2d(344, 52, kernel_size=(1, 1), stride=(1, 1), bias=False)
      (bn_2): BatchNorm2d(52, eps=1e-05, momentum=0.1, affine=True, track_running_stats=True)
      (conv_2): Conv2d(52, 13, kernel_size=(3, 3), stride=(1, 1), padding=(1, 1), bias=False)
    )
    (15): Bottleneck(
      (bn_1): BatchNorm2d(357, eps=1e-05, momentum=0.1, affine=True, track_running_stats=True)
      (conv_1): Conv2d(357, 52, kernel_size=(1, 1), stride=(1, 1), bias=False)
      (bn_2): BatchNorm2d(52, eps=1e-05, momentum=0.1, affine=True, track_running_stats=True)
      (conv_2): Conv2d(52, 13, kernel_size=(3, 3), stride=(1, 1), padding=(1, 1), bias=False)
    )
  )
  (bn): BatchNorm2d(370, eps=1e-05, momentum=0.1, affine=True, track_running_stats=True)
  (fc): Linear(in_features=370, out_features=10, bias=True)
)
[2019-10-21 17:13:36,498] - [train.py line:148] :  == total parameters: 899562
[2019-10-21 17:45:46,004] - [train.py line:187] :             =======  Training  =======

[2019-10-21 17:45:46,008] - [train.py line:39] :  === Epoch: [1/300] === 
[2019-10-21 17:47:03,334] - [train.py line:75] :    == step: [100/196], train loss: 1.915 | train acc: 30.117% | lr: 0.100000
…
