…
, 'dataset': 'cifar10', 'use_gpu': True, 'input_size': 32, 'epochs': 300, 'batch_size': 256, 'test_batch': 200, 'eval_freq': 2, 'workers': 8, 'optimize': {'momentum': 0.9, 'weight_decay': 0.0001, 'nesterov': True}, 'mixup': True, 'mixup_alpha': 0.4, 'augmentation': {'normalize': True, 'random_crop': True, 'random_horizontal_filp': True, 'cutout': True, 'holes': 1, 'length': 8}, 'lr_scheduler': {'type': 'COSINE', 'base_lr': 0.1, 'lr_epochs': [150, 225], 'lr_mults': 0.1, 'min_lr': 0.0, 'lower_bound': -6.0, 'upper_bound': 3.0}}
[2019-10-21 20:35:37,189] - [train.py line:147] : DenseNet(
  (conv_1): Conv2d(3, 46, kernel_size=(3, 3), stride=(1, 1), padding=(1, 1), bias=False)
  (dense1): Sequential(
    (0): Bottleneck(
      (bn_1): BatchNorm2d(46, eps=1e-05, momentum=0.1, affine=True, track_running_stats=True)
      (conv_1): Conv2d(46, 92, kernel_size=(1, 1), stride=(1, 1), bias=False)
      (bn_2): BatchNorm2d(92, eps=1e-05, momentum=0.1, affine=True, track_running_stats=True)
      (conv_2): Conv2d(92, 23, kernel_size=(3, 3), stride=(1, 1), padding=(1, 1), bias=False)
    )
    (1): Bottleneck(
      (bn_1): BatchNorm2d(69, eps=1e-05, momentum=0.1, affine=True, track_running_stats=True)
      (conv_1): Conv2d(69, 92, kernel_size=(1, 1), stride=(1, 1), bias=False)
      (bn_2): BatchNorm2d(92, eps=1e-05, momentum=0.1, affine=True, track_running_stats=True)
      (conv_2): Conv2d(92, 23, kernel_size=(3, 3), stride=(1, 1), padding=(1, 1), bias=False)
    )
    (2): Bottleneck(
      (bn_1): BatchNorm2d(92, eps=1e-05, momentum=0.1, affine=True, track_running_stats=True)
      (conv_1): Conv2d(92, 92, kernel_size=(1, 1), stride=(1, 1), bias=False)
      (bn_2): BatchNorm2d(92, eps=1e-05, momentum=0.1, affine=True, track_running_stats=True)
      (conv_2): Conv2d(92, 23, kernel_size=(3, 3), stride=(1, 1), padding=(1, 1), bias=False)
    )
    (3): Bottleneck(
      (bn_1): BatchNorm2d(115, eps=1e-05, momentum=0.1, affine=True, track_running_stats=True)
      (conv_1): Conv2d(115, 92, kernel_size=(1, 1), stride=(1, 1), bias=False)
      (bn_2): BatchNorm2d(92, eps=1e-05, momentum=0.1, affine=True, track_running_stats=True)
      (conv_2): Conv2d(92, 23, kernel_size=(3, 3), stride=(1, 1), padding=(1, 1), bias=False)
    )
    (4): Bottleneck(
      (bn_1): BatchNorm2d(138, eps=1e-05, momentum=0.1, affine=True, track_running_stats=True)
      (conv_1): Conv2d(138, 92, kernel_size=(1, 1), stride=(1, 1), bias=False)
      (bn_2): BatchNorm2d(92, eps=1e-05, momentum=0.1, affine=True, track_running_stats=True)
      (conv_2): Conv2d(92, 23, kernel_size=(3, 3), stride=(1, 1), padding=(1, 1), bias=False)
    )
    (5): Bottleneck(
      (bn_1): BatchNorm2d(161, eps=1e-05, momentum=0.1, affine=True, track_running_stats=True)
      (conv_1): Conv2d(161, 92, kernel_size=(1, 1), stride=(1, 1), bias=False)
      (bn_2): BatchNorm2d(92, eps=1e-05, momentum=0.1, affine=True, track_running_stats=True)
      (conv_2): Conv2d(92, 23, kernel_size=(3, 3), stride=(1, 1), padding=(1, 1), bias=False)
    )
    (6): Bottleneck(
      (bn_1): BatchNorm2d(184, eps=1e-05, momentum=0.1, affine=True, track_running_stats=True)
      (conv_1): Conv2d(184, 92, kernel_size=(1, 1), stride=(1, 1), bias=False)
      (bn_2): BatchNorm2d(92, eps=1e-05, momentum=0.1, affine=True, track_running_stats=True)
      (conv_2): Conv2d(92, 23, kernel_size=(3, 3), stride=(1, 1), padding=(1, 1), bias=False)
    )
    (7): Bottleneck(
      (bn_1): BatchNorm2d(207, eps=1e-05, momentum=0.1, affine=True, track_running_stats=True)
      (conv_1): Conv2d(207, 92, kernel_size=(1, 1), stride=(1, 1), bias=False)
      (bn_2): BatchNorm2d(92, eps=1e-05, momentum=0.1, affine=True, track_running_stats=True)
      (conv_2): Conv2d(92, 23, kernel_size=(3, 3), stride=(1, 1), padding=(1, 1), bias=False)
    )
    (8): Bottleneck(
      (bn_1): BatchNorm2d(230, eps=1e-05, momentum=0.1, affine=True, track_running_stats=True)
      (conv_1): Conv2d(230, 92, kernel_size=(1, 1), stride=(1, 1), bias=False)
      (bn_2): BatchNorm2d(92, eps=1e-05, momentum=0.1, affine=True, track_running_stats=True)
      (conv_2): Conv2d(92, 23, kernel_size=(3, 3), stride=(1, 1), padding=(1, 1), bias=False)
    )
    (9): Bottleneck(
      (bn_1): BatchNorm2d(253, eps=1e-05, momentum=0.1, affine=True, track_running_stats=True)
      (conv_1): Conv2d(253, 92, kernel_size=(1, 1), stride=(1, 1), bias=False)
      (bn_2): BatchNorm2d(92, eps=1e-05, momentum=0.1, affine=True, track_running_stats=True)
      (conv_2): Conv2d(92, 23, kernel_size=(3, 3), stride=(1, 1), padding=(1, 1), bias=False)
    )
    (10): Bottleneck(
      (bn_1): BatchNorm2d(276, eps=1e-05, momentum=0.1, affine=True, track_running_stats=True)
      (conv_1): Conv2d(276, 92, kernel_size=(1, 1), stride=(1, 1), bias=False)
      (bn_2): BatchNorm2d(92, eps=1e-05, momentum=0.1, affine=True, track_running_stats=True)
      (conv_2): Conv2d(92, 23, kernel_size=(3, 3), stride=(1, 1), padding=(1, 1), bias=False)
    )
    (11): Bottleneck(
      (bn_1): BatchNorm2d(299, eps=1e-05, momentum=0.1, affine=True, track_running_stats=True)
      (conv_1): Conv2d(299, 92, kernel_size=(1, 1), stride=(1, 1), bias=False)
      (bn_2): BatchNorm2d(92, eps=1e-05, momentum=0.1, affine=True, track_running_stats=True)
      (conv_2): Conv2d(92, 23, kernel_size=(3, 3), stride=(1, 1), padding=(1, 1), bias=False)
    )
    (12): Bottleneck(
      (bn_1): BatchNorm2d(322, eps=1e-05, momentum=0.1, affine=True, track_running_stats=True)
      (conv_1): Conv2d(322, 92, kernel_size=(1, 1), stride=(1, 1), bias=False)
      (bn_2): BatchNorm2d(92, eps=1e-05, momentum=0.1, affine=True, track_running_stats=True)
      (conv_2): Conv2d(92, 23, kernel_size=(3, 3), stride=(1, 1), padding=(1, 1), bias=False)
    )
    (13): Bottleneck(
      (bn_1): BatchNorm2d(345, eps=1e-05, momentum=0.1, affine=True, track_running_stats=True)
      (conv_1): Conv2d(345, 92, kernel_size=(1, 1), stride=(1, 1), bias=False)
      (bn_2): BatchNorm2d(92, eps=1e-05, momentum=0.1, affine=True, track_running_stats=True)
      (conv_2): Conv2d(92, 23, kernel_size=(3, 3), stride=(1, 1), padding=(1, 1), bias=False)
    )
    (14): Bottleneck(
      (bn_1): BatchNorm2d(368, eps=1e-05, momentum=0.1, affine=True, track_running_stats=True)
      (conv_1): Conv2d(368, 92, kernel_size=(1, 1), stride=(1, 1), bias=False)
      (bn_2): BatchNorm2d(92, eps=1e-05, momentum=0.1, affine=True, track_running_stats=True)
      (conv_2): Conv2d(92, 23, kernel_size=(3, 3), stride=(1, 1), padding=(1, 1), bias=False)
    )
    (15): Bottleneck(
      (bn_1): BatchNorm2d(391, eps=1e-05, momentum=0.1, affine=True, track_running_stats=True)
      (conv_1): Conv2d(391, 92, kernel_size=(1, 1), stride=(1, 1), bias=False)
      (bn_2): BatchNorm2d(92, eps=1e-05, momentum=0.1, affine=True, track_running_stats=True)
      (conv_2): Conv2d(92, 23, kernel_size=(3, 3), stride=(1, 1), padding=(1, 1), bias=False)
    )
    (16): Bottleneck(
      (bn_1): BatchNorm2d(414, eps=1e-05, momentum=0.1, affine=True, track_running_stats=True)
      (conv_1): Conv2d(414, 92, kernel_size=(1, 1), stride=(1, 1), bias=False)
      (bn_2): BatchNorm2d(92, eps=1e-05, momentum=0.1, affine=True, track_running_stats=True)
      (conv_2): Conv2d(92, 23, kernel_size=(3, 3), stride=(1, 1), padding=(1, 1), bias=False)
    )
    (17): Bottleneck(
      (bn_1): BatchNorm2d(437, eps=1e-05, momentum=0.1, affine=True, track_running_stats=True)
      (conv_1): Conv2d(437, 92, kernel_size=(1, 1), stride=(1, 1), bias=False)
      (bn_2): BatchNorm2d(92, eps=1e-05, momentum=0.1, affine=True, track_running_stats=True)
      (conv_2): Conv2d(92, 23, kernel_size=(3, 3), stride=(1, 1), padding=(1, 1), bias=False)
    )
    (18): Bottleneck(
      (bn_1): BatchNorm2d(460, eps=1e-05, momentum=0.1, affine=True, track_running_stats=True)
      (conv_1): Conv2d(460, 92, kernel_size=(1, 1), stride=(1, 1), bias=False)
      (bn_2): BatchNorm2d(92, eps=1e-05, momentum=0.1, affine=True, track_running_stats=True)
      (conv_2): Conv2d(92, 23, kernel_size=(3, 3), stride=(1, 1), padding=(1, 1), bias=False)
    )
    (19): Bottleneck(
      (bn_1): BatchNorm2d(483, eps=1e-05, momentum=0.1, affine=True, track_running_stats=True)
      (conv_1): Conv2d(483, 92, kernel_size=(1, 1), stride=(1, 1), bias=False)
      (bn_2): BatchNorm2d(92, eps=1e-05, momentum=0.1, affine=True, track_running_stats=True)
      (conv_2): Conv2d(92, 23, kernel_size=(3, 3), stride=(1, 1), padding=(1, 1), bias=False)
    )
    (20): Bottleneck(
      (bn_1): BatchNorm2d(506, eps=1e-05, momentum=0.1, affine=True, track_running_stats=True)
      (conv_1): Conv2d(506, 92, kernel_size=(1, 1), stride=(1, 1), bias=False)
      (bn_2): BatchNorm2d(92, eps=1e-05, momentum=0.1, affine=True, track_running_stats=True)
      (conv_2): Conv2d(92, 23, kernel_size=(3, 3), stride=(1, 1), padding=(1, 1), bias=False)
    )
  )
  (trans_1): Transition(
    (bn): BatchNorm2d(529, eps=1e-05, momentum=0.1, affine=True, track_running_stats=True)
    (conv): Conv2d(529, 264, kernel_size=(1, 1), stride=(1, 1), bias=False)
  )
  (dense2): Sequential(
    (0): Bottleneck(
      (bn_1): BatchNorm2d(264, eps=1e-05, momentum=0.1, affine=True, track_running_stats=True)
      (conv_1): Conv2d(264, 92, kernel_size=(1, 1), stride=(1, 1), bias=False)
      (bn_2): BatchNorm2d(92, eps=1e-05, momentum=0.1, affine=True, track_running_stats=True)
      (conv_2): Conv2d(92, 23, kernel_size=(3, 3), stride=(1, 1), padding=(1, 1), bias=False)
    )
    (1): Bottleneck(
      (bn_1): BatchNorm2d(287, eps=1e-05, momentum=0.1, affine=True, track_running_stats=True)
      (conv_1): Conv2d(287, 92, kernel_size=(1, 1), stride=(1, 1), bias=False)
      (bn_2): BatchNorm2d(92, eps=1e-05, momentum=0.1, affine=True, track_running_stats=True)
      (conv_2): Conv2d(92, 23, kernel_size=(3, 3), stride=(1, 1), padding=(1, 1), bias=False)
    )
    (2): Bottleneck(
      (bn_1): BatchNorm2d(310, eps=1e-05, momentum=0.1, affine=True, track_running_stats=True)
      (conv_1): Conv2d(310, 92, kernel_size=(1, 1), stride=(1, 1), bias=False)
      (bn_2): BatchNorm2d(92, eps=1e-05, momentum=0.1, affine=True, track_running_stats=True)
      (conv_2): Conv2d(92, 23, kernel_size=(3, 3), stride=(1, 1), padding=(1, 1), bias=False)
    )
    (3): Bottleneck(
      (bn_1): BatchNorm2d(333, eps=1e-05, momentum=0.1, affine=True, track_running_stats=True)
      (conv_1): Conv2d(333, 92, kernel_size=(1, 1), stride=(1, 1), bias=False)
      (bn_2): BatchNorm2d(92, eps=1e-05, momentum=0.1, affine=True, track_running_stats=True)
      (conv_2): Conv2d(92, 23, kernel_size=(3, 3), stride=(1, 1), padding=(1, 1), bias=False)
    )
    (4): Bottleneck(
      (bn_1): BatchNorm2d(356, eps=1e-05, momentum=0.1, affine=True, track_running_stats=True)
      (conv_1): Conv2d(356, 92, kernel_size=(1, 1), stride=(1, 1), bias=False)
      (bn_2): BatchNorm2d(92, eps=1e-05, momentum=0.1, affine=True, track_running_stats=True)
      (conv_2): Conv2d(92, 23, kernel_size=(3, 3), stride=(1, 1), padding=(1, 1), bias=False)
    )
    (5): Bottleneck(
      (bn_1): BatchNorm2d(379, eps=1e-05, momentum=0.1, affine=True, track_running_stats=True)
      (conv_1): Conv2d(379, 92, kernel_size=(1, 1), stride=(1, 1), bias=False)
      (bn_2): BatchNorm2d(92, eps=1e-05, momentum=0.1, affine=True, track_running_stats=True)
      (conv_2): Conv2d(92, 23, kernel_size=(3, 3), stride=(1, 1), padding=(1, 1), bias=False)
    )
    (6): Bottleneck(
      (bn_1): BatchNorm2d(402, eps=1e-05, momentum=0.1, affine=True, track_running_stats=True)
      (conv_1): Conv2d(402, 92, kernel_size=(1, 1), stride=(1, 1), bias=False)
      (bn_2): BatchNorm2d(92, eps=1e-05, momentum=0.1, affine=True, track_running_stats=True)
      (conv_2): Conv2d(92, 23, kernel_size=(3, 3), stride=(1, 1), padding=(1, 1), bias=False)
    )
    (7): Bottleneck(
      (bn_1): BatchNorm2d(425, eps=1e-05, momentum=0.1, affine=True, track_running_stats=True)
      (conv_1): Conv2d(425, 92, kernel_size=(1, 1), stride=(1, 1), bias=False)
      (bn_2): BatchNorm2d(92, eps=1e-05, momentum=0.1, affine=True, track_running_stats=True)
      (conv_2): Conv2d(92, 23, kernel_size=(3, 3), stride=(1, 1), padding=(1, 1), bias=False)
    )
    (8): Bottleneck(
      (bn_1): BatchNorm2d(448, eps=1e-05, momentum=0.1, affine=True, track_running_stats=True)
      (conv_1): Conv2d(448, 92, kernel_size=(1, 1), stride=(1, 1), bias=False)
      (bn_2): BatchNorm2d(92, eps=1e-05, momentum=0.1, affine=True, track_running_stats=True)
      (conv_2): Conv2d(92, 23, kernel_size=(3, 3), stride=(1, 1), padding=(1, 1), bias=False)
    )
    (9): Bottleneck(
      (bn_1): BatchNorm2d(471, eps=1e-05, momentum=0.1, affine=True, track_running_stats=True)
      (conv_1): Conv2d(471, 92, kernel_size=(1, 1), stride=(1, 1), bias=False)
      (bn_2): BatchNorm2d(92, eps=1e-05, momentum=0.1, affine=True, track_running_stats=True)
      (conv_2): Conv2d(92, 23, kernel_size=(3, 3), stride=(1, 1), padding=(1, 1), bias=False)
    )
    (10): Bottleneck(
      (bn_1): BatchNorm2d(494, eps=1e-05, momentum=0.1, affine=True, track_running_stats=True)
      (conv_1): Conv2d(494, 92, kernel_size=(1, 1), stride=(1, 1), bias=False)
      (bn_2): BatchNorm2d(92, eps=1e-05, momentum=0.1, affine=True, track_running_stats=True)
      (conv_2): Conv2d(92, 23, kernel_size=(3, 3), stride=(1, 1), padding=(1, 1), bias=False)
    )
    (11): Bottleneck(
      (bn_1): BatchNorm2d(517, eps=1e-05, momentum=0.1, affine=True, track_running_stats=True)
      (conv_1): Conv2d(517, 92, kernel_size=(1, 1), stride=(1, 1), bias=False)
      (bn_2): BatchNorm2d(92, eps=1e-05, momentum=0.1, affine=True, track_running_stats=True)
      (conv_2): Conv2d(92, 23, kernel_size=(3, 3), stride=(1, 1), padding=(1, 1), bias=False)
    )
    (12): Bottleneck(
      (bn_1): BatchNorm2d(540, eps=1e-05, momentum=0.1, affine=True, track_running_stats=True)
      (conv_1): Conv2d(540, 92, kernel_size=(1, 1), stride=(1, 1), bias=False)
      (bn_2): BatchNorm2d(92, eps=1e-05, momentum=0.1, affine=True, track_running_stats=True)
      (conv_2): Conv2d(92, 23, kernel_size=(3, 3), stride=(1, 1), padding=(1, 1), bias=False)
    )
    (13): Bottleneck(
      (bn_1): BatchNorm2d(563, eps=1e-05, momentum=0.1, affine=True, track_running_stats=True)
      (conv_1): Conv2d(563, 92, kernel_size=(1, 1), stride=(1, 1), bias=False)
      (bn_2): BatchNorm2d(92, eps=1e-05, momentum=0.1, affine=True, track_running_stats=True)
      (conv_2): Conv2d(92, 23, kernel_size=(3, 3), stride=(1, 1), padding=(1, 1), bias=False)
    )
    (14): Bottleneck(
      (bn_1): BatchNorm2d(586, eps=1e-05, momentum=0.1, affine=True, track_running_stats=True)
      (conv_1): Conv2d(586, 92, kernel_size=(1, 1), stride=(1, 1), bias=False)
      (bn_2): BatchNorm2d(92, eps=1e-05, momentum=0.1, affine=True, track_running_stats=True)
      (conv_2): Conv2d(92, 23, kernel_size=(3, 3), stride=(1, 1), padding=(1, 1), bias=False)
    )
    (15): Bottleneck(
      (bn_1): BatchNorm2d(609, eps=1e-05, momentum=0.1, affine=True, track_running_stats=True)
      (conv_1): Conv2d(609, 92, kernel_size=(1, 1), stride=(1, 1), bias=False)
      (bn_2): BatchNorm2d(92, eps=1e-05, momentum=0.1, affine=True, track_running_stats=True)
      (conv_2): Conv2d(92, 23, kernel_size=(3, 3), stride=(1, 1), padding=(1, 1), bias=False)
    )
    (16): Bottleneck(
      (bn_1): BatchNorm2d(632, eps=1e-05, momentum=0.1, affine=True, track_running_stats=True)
      (conv_1): Conv2d(632, 92, kernel_size=(1, 1), stride=(1, 1), bias=False)
      (bn_2): BatchNorm2d(92, eps=1e-05, momentum=0.1, affine=True, track_running_stats=True)
      (conv_2): Conv2d(92, 23, kernel_size=(3, 3), stride=(1, 1), padding=(1, 1), bias=False)
    )
    (17): Bottleneck(
      (bn_1): BatchNorm2d(655, eps=1e-05, momentum=0.1, affine=True, track_running_stats=True)
      (conv_1): Conv2d(655, 92, kernel_size=(1, 1), stride=(1, 1), bias=False)
      (bn_2): BatchNorm2d(92, eps=1e-05, momentum=0.1, affine=True, track_running_stats=True)
      (conv_2): Conv2d(92, 23, kernel_size=(3, 3), stride=(1, 1), padding=(1, 1), bias=False)
    )
    (18): Bottleneck(
      (bn_1): BatchNorm2d(678, eps=1e-05, momentum=0.1, affine=True, track_running_stats=True)
      (conv_1): Conv2d(678, 92, kernel_size=(1, 1), stride=(1, 1), bias=False)
      (bn_2): BatchNorm2d(92, eps=1e-05, momentum=0.1, affine=True, track_running_stats=True)
      (conv_2): Conv2d(92, 23, kernel_size=(3, 3), stride=(1, 1), padding=(1, 1), bias=False)
    )
    (19): Bottleneck(
      (bn_1): BatchNorm2d(701, eps=1e-05, momentum=0.1, affine=True, track_running_stats=True)
      (conv_1): Conv2d(701, 92, kernel_size=(1, 1), stride=(1, 1), bias=False)
      (bn_2): BatchNorm2d(92, eps=1e-05, momentum=0.1, affine=True, track_running_stats=True)
      (conv_2): Conv2d(92, 23, kernel_size=(3, 3), stride=(1, 1), padding=(1, 1), bias=False)
    )
    (20): Bottleneck(
      (bn_1): BatchNorm2d(724, eps=1e-05, momentum=0.1, affine=True, track_running_stats=True)
      (conv_1): Conv2d(724, 92, kernel_size=(1, 1), stride=(1, 1), bias=False)
      (bn_2): BatchNorm2d(92, eps=1e-05, momentum=0.1, affine=True, track_running_stats=True)
      (conv_2): Conv2d(92, 23, kernel_size=(3, 3), stride=(1, 1), padding=(1, 1), bias=False)
    )
  )
  (trans_2): Transition(
    (bn): BatchNorm2d(747, eps=1e-05, momentum=0.1, affine=True, track_running_stats=True)
    (conv): Conv2d(747, 373, kernel_size=(1, 1), stride=(1, 1), bias=False)
  )
  (dense_3): Sequential(
    (0): Bottleneck(
      (bn_1): BatchNorm2d(373, eps=1e-05, momentum=0.1, affine=True, track_running_stats=True)
      (conv_1): Conv2d(373, 92, kernel_size=(1, 1), stride=(1, 1), bias=False)
      (bn_2): BatchNorm2d(92, eps=1e-05, momentum=0.1, affine=True, track_running_stats=True)
      (conv_2): Conv2d(92, 23, kernel_size=(3, 3), stride=(1, 1), padding=(1, 1), bias=False)
    )
    (1): Bottleneck(
      (bn_1): BatchNorm2d(396, eps=1e-05, momentum=0.1, affine=True, track_running_stats=True)
      (conv_1): Conv2d(396, 92, kernel_size=(1, 1), stride=(1, 1), bias=False)
      (bn_2): BatchNorm2d(92, eps=1e-05, momentum=0.1, affine=True, track_running_stats=True)
      (conv_2): Conv2d(92, 23, kernel_size=(3, 3), stride=(1, 1), padding=(1, 1), bias=False)
    )
    (2): Bottleneck(
      (bn_1): BatchNorm2d(419, eps=1e-05, momentum=0.1, affine=True, track_running_stats=True)
      (conv_1): Conv2d(419, 92, kernel_size=(1, 1), stride=(1, 1), bias=False)
      (bn_2): BatchNorm2d(92, eps=1e-05, momentum=0.1, affine=True, track_running_stats=True)
      (conv_2): Conv2d(92, 23, kernel_size=(3, 3), stride=(1, 1), padding=(1, 1), bias=False)
    )
    (3): Bottleneck(
      (bn_1): BatchNorm2d(442, eps=1e-05, momentum=0.1, affine=True, track_running_stats=True)
      (conv_1): Conv2d(442, 92, kernel_size=(1, 1), stride=(1, 1), bias=False)
      (bn_2): BatchNorm2d(92, eps=1e-05, momentum=0.1, affine=True, track_running_stats=True)
      (conv_2): Conv2d(92, 23, kernel_size=(3, 3), stride=(1, 1), padding=(1, 1), bias=False)
    )
    (4): Bottleneck(
      (bn_1): BatchNorm2d(465, eps=1e-05, momentum=0.1, affine=True, track_running_stats=True)
      (conv_1): Conv2d(465, 92, kernel_size=(1, 1), stride=(1, 1), bias=False)
      (bn_2): BatchNorm2d(92, eps=1e-05, momentum=0.1, affine=True, track_running_stats=True)
      (conv_2): Conv2d(92, 23, kernel_size=(3, 3), stride=(1, 1), padding=(1, 1), bias=False)
    )
    (5): Bottleneck(
      (bn_1): BatchNorm2d(488, eps=1e-05, momentum=0.1, affine=True, track_running_stats=True)
      (conv_1): Conv2d(488, 92, kernel_size=(1, 1), stride=(1, 1), bias=False)
      (bn_2): BatchNorm2d(92, eps=1e-05, momentum=0.1, affine=True, track_running_stats=True)
      (conv_2): Conv2d(92, 23, kernel_size=(3, 3), stride=(1, 1), padding=(1, 1), bias=False)
    )
    (6): Bottleneck(
      (bn_1): BatchNorm2d(511, eps=1e-05, momentum=0.1, affine=True, track_running_stats=True)
      (conv_1): Conv2d(511, 92, kernel_size=(1, 1), stride=(1, 1), bias=False)
      (bn_2): BatchNorm2d(92, eps=1e-05, momentum=0.1, affine=True, track_running_stats=True)
      (conv_2): Conv2d(92, 23, kernel_size=(3, 3), stride=(1, 1), padding=(1, 1), bias=False)
    )
    (7): Bottleneck(
      (bn_1): BatchNorm2d(534, eps=1e-05, momentum=0.1, affine=True, track_running_stats=True)
      (conv_1): Conv2d(534, 92, kernel_size=(1, 1), stride=(1, 1), bias=False)
      (bn_2): BatchNorm2d(92, eps=1e-05, momentum=0.1, affine=True, track_running_stats=True)
      (conv_2): Conv2d(92, 23, kernel_size=(3, 3), stride=(1, 1), padding=(1, 1), bias=False)
    )
    (8): Bottleneck(
      (bn_1): BatchNorm2d(557, eps=1e-05, momentum=0.1, affine=True, track_running_stats=True)
      (conv_1): Conv2d(557, 92, kernel_size=(1, 1), stride=(1, 1), bias=False)
      (bn_2): BatchNorm2d(92, eps=1e-05, momentum=0.1, affine=True, track_running_stats=True)
      (conv_2): Conv2d(92, 23, kernel_size=(3, 3), stride=(1, 1), padding=(1, 1), bias=False)
    )
    (9): Bottleneck(
      (bn_1): BatchNorm2d(580, eps=1e-05, momentum=0.1, affine=True, track_running_stats=True)
      (conv_1): Conv2d(580, 92, kernel_size=(1, 1), stride=(1, 1), bias=False)
      (bn_2): BatchNorm2d(92, eps=1e-05, momentum=0.1, affine=True, track_running_stats=True)
      (conv_2): Conv2d(92, 23, kernel_size=(3, 3), stride=(1, 1), padding=(1, 1), bias=False)
    )
    (10): Bottleneck(
      (bn_1): BatchNorm2d(603, eps=1e-05, momentum=0.1, affine=True, track_running_stats=True)
      (conv_1): Conv2d(603, 92, kernel_size=(1, 1), stride=(1, 1), bias=False)
      (bn_2): BatchNorm2d(92, eps=1e-05, momentum=0.1, affine=True, track_running_stats=True)
      (conv_2): Conv2d(92, 23, kernel_size=(3, 3), stride=(1, 1), padding=(1, 1), bias=False)
    )
    (11): Bottleneck(
      (bn_1): BatchNorm2d(626, eps=1e-05, momentum=0.1, affine=True, track_running_stats=True)
      (conv_1): Conv2d(626, 92, kernel_size=(1, 1), stride=(1, 1), bias=False)
      (bn_2): BatchNorm2d(92, eps=1e-05, momentum=0.1, affine=True, track_running_stats=True)
      (conv_2): Conv2d(92, 23, kernel_size=(3, 3), stride=(1, 1), padding=(1, 1), bias=False)
    )
    (12): Bottleneck(
      (bn_1): BatchNorm2d(649, eps=1e-05, momentum=0.1, affine=True, track_running_stats=True)
      (conv_1): Conv2d(649, 92, kernel_size=(1, 1), stride=(1, 1), bias=False)
      (bn_2): BatchNorm2d(92, eps=1e-05, momentum=0.1, affine=True, track_running_stats=True)
      (conv_2): Conv2d(92, 23, kernel_size=(3, 3), stride=(1, 1), padding=(1, 1), bias=False)
    )
    (13): Bottleneck(
      (bn_1): BatchNorm2d(672, eps=1e-05, momentum=0.1, affine=True, track_running_stats=True)
      (conv_1): Conv2d(672, 92, kernel_size=(1, 1), stride=(1, 1), bias=False)
      (bn_2): BatchNorm2d(92, eps=1e-05, momentum=0.1, affine=True, track_running_stats=True)
      (conv_2): Conv2d(92, 23, kernel_size=(3, 3), stride=(1, 1), padding=(1, 1), bias=False)
    )
    (14): Bottleneck(
      (bn_1): BatchNorm2d(695, eps=1e-05, momentum=0.1, affine=True, track_running_stats=True)
      (conv_1): Conv2d(695, 92, kernel_size=(1, 1), stride=(1, 1), bias=False)
      (bn_2): BatchNorm2d(92, eps=1e-05, momentum=0.1, affine=True, track_running_stats=True)
      (conv_2): Conv2d(92, 23, kernel_size=(3, 3), stride=(1, 1), padding=(1, 1), bias=False)
    )
    (15): Bottleneck(
      (bn_1): BatchNorm2d(718, eps=1e-05, momentum=0.1, affine=True, track_running_stats=True)
      (conv_1): Conv2d(718, 92, kernel_size=(1, 1), stride=(1, 1), bias=False)
      (bn_2): BatchNorm2d(92, eps=1e-05, momentum=0.1, affine=True, track_running_stats=True)
      (conv_2): Conv2d(92, 23, kernel_size=(3, 3), stride=(1, 1), padding=(1, 1), bias=False)
    )
    (16): Bottleneck(
      (bn_1): BatchNorm2d(741, eps=1e-05, momentum=0.1, affine=True, track_running_stats=True)
      (conv_1): Conv2d(741, 92, kernel_size=(1, 1), stride=(1, 1), bias=False)
      (bn_2): BatchNorm2d(92, eps=1e-05, momentum=0.1, affine=True, track_running_stats=True)
      (conv_2): Conv2d(92, 23, kernel_size=(3, 3), stride=(1, 1), padding=(1, 1), bias=False)
    )
    (17): Bottleneck(
      (bn_1): BatchNorm2d(764, eps=1e-05, momentum=0.1, affine=True, track_running_stats=True)
      (conv_1): Conv2d(764, 92, kernel_size=(1, 1), stride=(1, 1), bias=False)
      (bn_2): BatchNorm2d(92, eps=1e-05, momentum=0.1, affine=True, track_running_stats=True)
      (conv_2): Conv2d(92, 23, kernel_size=(3, 3), stride=(1, 1), padding=(1, 1), bias=False)
    )
    (18): Bottleneck(
      (bn_1): BatchNorm2d(787, eps=1e-05, momentum=0.1, affine=True, track_running_stats=True)
      (conv_1): Conv2d(787, 92, kernel_size=(1, 1), stride=(1, 1), bias=False)
      (bn_2): BatchNorm2d(92, eps=1e-05, momentum=0.1, affine=True, track_running_stats=True)
      (conv_2): Conv2d(92, 23, kernel_size=(3, 3), stride=(1, 1), padding=(1, 1), bias=False)
    )
    (19): Bottleneck(
      (bn_1): BatchNorm2d(810, eps=1e-05, momentum=0.1, affine=True, track_running_stats=True)
      (conv_1): Conv2d(810, 92, kernel_size=(1, 1), stride=(1, 1), bias=False)
      (bn_2): BatchNorm2d(92, eps=1e-05, momentum=0.1, affine=True, track_running_stats=True)
      (conv_2): Conv2d(92, 23, kernel_size=(3, 3), stride=(1, 1), padding=(1, 1), bias=False)
    )
    (20): Bottleneck(
      (bn_1): BatchNorm2d(833, eps=1e-05, momentum=0.1, affine=True, track_running_stats=True)
      (conv_1): Conv2d(833, 92, kernel_size=(1, 1), stride=(1, 1), bias=False)
      (bn_2): BatchNorm2d(92, eps=1e-05, momentum=0.1, affine=True, track_running_stats=True)
      (conv_2): Conv2d(92, 23, kernel_size=(3, 3), stride=(1, 1), padding=(1, 1), bias=False)
    )
  )
  (bn): BatchNorm2d(856, eps=1e-05, momentum=0.1, affine=True, track_running_stats=True)
  (fc): Linear(in_features=856, out_features=10, bias=True)
)
[2019-10-21 20:35:37,212] - [train.py line:148] :  == total parameters: 4354029
[2019-10-21 20:35:47,315] - [train.py line:187] :             =======  Training  =======

[2019-10-21 20:35:47,321] - [train.py line:39] :  === Epoch: [1/300] === 
[2019-10-21 20:37:15,010] - [train.py line:75] :    == step: [100/196], train loss: 1.903 | train acc: 31.643% | lr: 0.100000
…
