…
0, 'dataset': 'cifar10', 'use_gpu': True, 'input_size': 32, 'epochs': 300, 'batch_size': 64, 'test_batch': 200, 'eval_freq': 2, 'workers': 4, 'optimize': {'momentum': 0.9, 'weight_decay': 0.0001, 'nesterov': True}, 'mixup': False, 'mixup_alpha': 0.4, 'augmentation': {'normalize': True, 'random_crop': True, 'random_horizontal_filp': True, 'cutout': False, 'holes': 1, 'length': 8}, 'lr_scheduler': {'type': 'STEP', 'base_lr': 0.1, 'lr_epochs': [150, 225], 'lr_mults': 0.1, 'min_lr': 0.0, 'lower_bound': -6.0, 'upper_bound': 3.0}}
[2019-10-21 15:49:28,665] - [train.py line:147] : DenseNet(
  (conv_1): Conv2d(3, 28, kernel_size=(3, 3), stride=(1, 1), padding=(1, 1), bias=False)
  (dense1): Sequential(
    (0): Bottleneck(
      (bn_1): BatchNorm2d(28, eps=1e-05, momentum=0.1, affine=True, track_running_stats=True)
      (conv_1): Conv2d(28, 56, kernel_size=(1, 1), stride=(1, 1), bias=False)
      (bn_2): BatchNorm2d(56, eps=1e-05, momentum=0.1, affine=True, track_running_stats=True)
      (conv_2): Conv2d(56, 14, kernel_size=(3, 3), stride=(1, 1), padding=(1, 1), bias=False)
    )
    (1): Bottleneck(
      (bn_1): BatchNorm2d(42, eps=1e-05, momentum=0.1, affine=True, track_running_stats=True)
      (conv_1): Conv2d(42, 56, kernel_size=(1, 1), stride=(1, 1), bias=False)
      (bn_2): BatchNorm2d(56, eps=1e-05, momentum=0.1, affine=True, track_running_stats=True)
      (conv_2): Conv2d(56, 14, kernel_size=(3, 3), stride=(1, 1), padding=(1, 1), bias=False)
    )
    (2): Bottleneck(
      (bn_1): BatchNorm2d(56, eps=1e-05, momentum=0.1, affine=True, track_running_stats=True)
      (conv_1): Conv2d(56, 56, kernel_size=(1, 1), stride=(1, 1), bias=False)
      (bn_2): BatchNorm2d(56, eps=1e-05, momentum=0.1, affine=True, track_running_stats=True)
      (conv_2): Conv2d(56, 14, kernel_size=(3, 3), stride=(1, 1), padding=(1, 1), bias=False)
    )
    (3): Bottleneck(
      (bn_1): BatchNorm2d(70, eps=1e-05, momentum=0.1, affine=True, track_running_stats=True)
      (conv_1): Conv2d(70, 56, kernel_size=(1, 1), stride=(1, 1), bias=False)
      (bn_2): BatchNorm2d(56, eps=1e-05, momentum=0.1, affine=True, track_running_stats=True)
      (conv_2): Conv2d(56, 14, kernel_size=(3, 3), stride=(1, 1), padding=(1, 1), bias=False)
    )
    (4): Bottleneck(
      (bn_1): BatchNorm2d(84, eps=1e-05, momentum=0.1, affine=True, track_running_stats=True)
      (conv_1): Conv2d(84, 56, kernel_size=(1, 1), stride=(1, 1), bias=False)
      (bn_2): BatchNorm2d(56, eps=1e-05, momentum=0.1, affine=True, track_running_stats=True)
      (conv_2): Conv2d(56, 14, kernel_size=(3, 3), stride=(1, 1), padding=(1, 1), bias=False)
    )
    (5): Bottleneck(
      (bn_1): BatchNorm2d(98, eps=1e-05, momentum=0.1, affine=True, track_running_stats=True)
      (conv_1): Conv2d(98, 56, kernel_size=(1, 1), stride=(1, 1), bias=False)
      (bn_2): BatchNorm2d(56, eps=1e-05, momentum=0.1, affine=True, track_running_stats=True)
      (conv_2): Conv2d(56, 14, kernel_size=(3, 3), stride=(1, 1), padding=(1, 1), bias=False)
    )
    (6): Bottleneck(
      (bn_1): BatchNorm2d(112, eps=1e-05, momentum=0.1, affine=True, track_running_stats=True)
      (conv_1): Conv2d(112, 56, kernel_size=(1, 1), stride=(1, 1), bias=False)
      (bn_2): BatchNorm2d(56, eps=1e-05, momentum=0.1, affine=True, track_running_stats=True)
      (conv_2): Conv2d(56, 14, kernel_size=(3, 3), stride=(1, 1), padding=(1, 1), bias=False)
    )
    (7): Bottleneck(
      (bn_1): BatchNorm2d(126, eps=1e-05, momentum=0.1, affine=True, track_running_stats=True)
      (conv_1): Conv2d(126, 56, kernel_size=(1, 1), stride=(1, 1), bias=False)
      (bn_2): BatchNorm2d(56, eps=1e-05, momentum=0.1, affine=True, track_running_stats=True)
      (conv_2): Conv2d(56, 14, kernel_size=(3, 3), stride=(1, 1), padding=(1, 1), bias=False)
    )
    (8): Bottleneck(
      (bn_1): BatchNorm2d(140, eps=1e-05, momentum=0.1, affine=True, track_running_stats=True)
      (conv_1): Conv2d(140, 56, kernel_size=(1, 1), stride=(1, 1), bias=False)
      (bn_2): BatchNorm2d(56, eps=1e-05, momentum=0.1, affine=True, track_running_stats=True)
      (conv_2): Conv2d(56, 14, kernel_size=(3, 3), stride=(1, 1), padding=(1, 1), bias=False)
    )
    (9): Bottleneck(
      (bn_1): BatchNorm2d(154, eps=1e-05, momentum=0.1, affine=True, track_running_stats=True)
      (conv_1): Conv2d(154, 56, kernel_size=(1, 1), stride=(1, 1), bias=False)
      (bn_2): BatchNorm2d(56, eps=1e-05, momentum=0.1, affine=True, track_running_stats=True)
      (conv_2): Conv2d(56, 14, kernel_size=(3, 3), stride=(1, 1), padding=(1, 1), bias=False)
    )
    (10): Bottleneck(
      (bn_1): BatchNorm2d(168, eps=1e-05, momentum=0.1, affine=True, track_running_stats=True)
      (conv_1): Conv2d(168, 56, kernel_size=(1, 1), stride=(1, 1), bias=False)
      (bn_2): BatchNorm2d(56, eps=1e-05, momentum=0.1, affine=True, track_running_stats=True)
      (conv_2): Conv2d(56, 14, kernel_size=(3, 3), stride=(1, 1), padding=(1, 1), bias=False)
    )
    (11): Bottleneck(
      (bn_1): BatchNorm2d(182, eps=1e-05, momentum=0.1, affine=True, track_running_stats=True)
      (conv_1): Conv2d(182, 56, kernel_size=(1, 1), stride=(1, 1), bias=False)
      (bn_2): BatchNorm2d(56, eps=1e-05, momentum=0.1, affine=True, track_running_stats=True)
      (conv_2): Conv2d(56, 14, kernel_size=(3, 3), stride=(1, 1), padding=(1, 1), bias=False)
    )
    (12): Bottleneck(
      (bn_1): BatchNorm2d(196, eps=1e-05, momentum=0.1, affine=True, track_running_stats=True)
      (conv_1): Conv2d(196, 56, kernel_size=(1, 1), stride=(1, 1), bias=False)
      (bn_2): BatchNorm2d(56, eps=1e-05, momentum=0.1, affine=True, track_running_stats=True)
      (conv_2): Conv2d(56, 14, kernel_size=(3, 3), stride=(1, 1), padding=(1, 1), bias=False)
    )
    (13): Bottleneck(
      (bn_1): BatchNorm2d(210, eps=1e-05, momentum=0.1, affine=True, track_running_stats=True)
      (conv_1): Conv2d(210, 56, kernel_size=(1, 1), stride=(1, 1), bias=False)
      (bn_2): BatchNorm2d(56, eps=1e-05, momentum=0.1, affine=True, track_running_stats=True)
      (conv_2): Conv2d(56, 14, kernel_size=(3, 3), stride=(1, 1), padding=(1, 1), bias=False)
    )
    (14): Bottleneck(
      (bn_1): BatchNorm2d(224, eps=1e-05, momentum=0.1, affine=True, track_running_stats=True)
      (conv_1): Conv2d(224, 56, kernel_size=(1, 1), stride=(1, 1), bias=False)
      (bn_2): BatchNorm2d(56, eps=1e-05, momentum=0.1, affine=True, track_running_stats=True)
      (conv_2): Conv2d(56, 14, kernel_size=(3, 3), stride=(1, 1), padding=(1, 1), bias=False)
    )
    (15): Bottleneck(
      (bn_1): BatchNorm2d(238, eps=1e-05, momentum=0.1, affine=True, track_running_stats=True)
      (conv_1): Conv2d(238, 56, kernel_size=(1, 1), stride=(1, 1), bias=False)
      (bn_2): BatchNorm2d(56, eps=1e-05, momentum=0.1, affine=True, track_running_stats=True)
      (conv_2): Conv2d(56, 14, kernel_size=(3, 3), stride=(1, 1), padding=(1, 1), bias=False)
    )
  )
  (trans_1): Transition(
    (bn): BatchNorm2d(252, eps=1e-05, momentum=0.1, affine=True, track_running_stats=True)
    (conv): Conv2d(252, 126, kernel_size=(1, 1), stride=(1, 1), bias=False)
  )
  (dense2): Sequential(
    (0): Bottleneck(
      (bn_1): BatchNorm2d(126, eps=1e-05, momentum=0.1, affine=True, track_running_stats=True)
      (conv_1): Conv2d(126, 56, kernel_size=(1, 1), stride=(1, 1), bias=False)
      (bn_2): BatchNorm2d(56, eps=1e-05, momentum=0.1, affine=True, track_running_stats=True)
      (conv_2): Conv2d(56, 14, kernel_size=(3, 3), stride=(1, 1), padding=(1, 1), bias=False)
    )
    (1): Bottleneck(
      (bn_1): BatchNorm2d(140, eps=1e-05, momentum=0.1, affine=True, track_running_stats=True)
      (conv_1): Conv2d(140, 56, kernel_size=(1, 1), stride=(1, 1), bias=False)
      (bn_2): BatchNorm2d(56, eps=1e-05, momentum=0.1, affine=True, track_running_stats=True)
      (conv_2): Conv2d(56, 14, kernel_size=(3, 3), stride=(1, 1), padding=(1, 1), bias=False)
    )
    (2): Bottleneck(
      (bn_1): BatchNorm2d(154, eps=1e-05, momentum=0.1, affine=True, track_running_stats=True)
      (conv_1): Conv2d(154, 56, kernel_size=(1, 1), stride=(1, 1), bias=False)
      (bn_2): BatchNorm2d(56, eps=1e-05, momentum=0.1, affine=True, track_running_stats=True)
      (conv_2): Conv2d(56, 14, kernel_size=(3, 3), stride=(1, 1), padding=(1, 1), bias=False)
    )
    (3): Bottleneck(
      (bn_1): BatchNorm2d(168, eps=1e-05, momentum=0.1, affine=True, track_running_stats=True)
      (conv_1): Conv2d(168, 56, kernel_size=(1, 1), stride=(1, 1), bias=False)
      (bn_2): BatchNorm2d(56, eps=1e-05, momentum=0.1, affine=True, track_running_stats=True)
      (conv_2): Conv2d(56, 14, kernel_size=(3, 3), stride=(1, 1), padding=(1, 1), bias=False)
    )
    (4): Bottleneck(
      (bn_1): BatchNorm2d(182, eps=1e-05, momentum=0.1, affine=True, track_running_stats=True)
      (conv_1): Conv2d(182, 56, kernel_size=(1, 1), stride=(1, 1), bias=False)
      (bn_2): BatchNorm2d(56, eps=1e-05, momentum=0.1, affine=True, track_running_stats=True)
      (conv_2): Conv2d(56, 14, kernel_size=(3, 3), stride=(1, 1), padding=(1, 1), bias=False)
    )
    (5): Bottleneck(
      (bn_1): BatchNorm2d(196, eps=1e-05, momentum=0.1, affine=True, track_running_stats=True)
      (conv_1): Conv2d(196, 56, kernel_size=(1, 1), stride=(1, 1), bias=False)
      (bn_2): BatchNorm2d(56, eps=1e-05, momentum=0.1, affine=True, track_running_stats=True)
      (conv_2): Conv2d(56, 14, kernel_size=(3, 3), stride=(1, 1), padding=(1, 1), bias=False)
    )
    (6): Bottleneck(
      (bn_1): BatchNorm2d(210, eps=1e-05, momentum=0.1, affine=True, track_running_stats=True)
      (conv_1): Conv2d(210, 56, kernel_size=(1, 1), stride=(1, 1), bias=False)
      (bn_2): BatchNorm2d(56, eps=1e-05, momentum=0.1, affine=True, track_running_stats=True)
      (conv_2): Conv2d(56, 14, kernel_size=(3, 3), stride=(1, 1), padding=(1, 1), bias=False)
    )
    (7): Bottleneck(
      (bn_1): BatchNorm2d(224, eps=1e-05, momentum=0.1, affine=True, track_running_stats=True)
      (conv_1): Conv2d(224, 56, kernel_size=(1, 1), stride=(1, 1), bias=False)
      (bn_2): BatchNorm2d(56, eps=1e-05, momentum=0.1, affine=True, track_running_stats=True)
      (conv_2): Conv2d(56, 14, kernel_size=(3, 3), stride=(1, 1), padding=(1, 1), bias=False)
    )
    (8): Bottleneck(
      (bn_1): BatchNorm2d(238, eps=1e-05, momentum=0.1, affine=True, track_running_stats=True)
      (conv_1): Conv2d(238, 56, kernel_size=(1, 1), stride=(1, 1), bias=False)
      (bn_2): BatchNorm2d(56, eps=1e-05, momentum=0.1, affine=True, track_running_stats=True)
      (conv_2): Conv2d(56, 14, kernel_size=(3, 3), stride=(1, 1), padding=(1, 1), bias=False)
    )
    (9): Bottleneck(
      (bn_1): BatchNorm2d(252, eps=1e-05, momentum=0.1, affine=True, track_running_stats=True)
      (conv_1): Conv2d(252, 56, kernel_size=(1, 1), stride=(1, 1), bias=False)
      (bn_2): BatchNorm2d(56, eps=1e-05, momentum=0.1, affine=True, track_running_stats=True)
      (conv_2): Conv2d(56, 14, kernel_size=(3, 3), stride=(1, 1), padding=(1, 1), bias=False)
    )
    (10): Bottleneck(
      (bn_1): BatchNorm2d(266, eps=1e-05, momentum=0.1, affine=True, track_running_stats=True)
      (conv_1): Conv2d(266, 56, kernel_size=(1, 1), stride=(1, 1), bias=False)
      (bn_2): BatchNorm2d(56, eps=1e-05, momentum=0.1, affine=True, track_running_stats=True)
      (conv_2): Conv2d(56, 14, kernel_size=(3, 3), stride=(1, 1), padding=(1, 1), bias=False)
    )
    (11): Bottleneck(
      (bn_1): BatchNorm2d(280, eps=1e-05, momentum=0.1, affine=True, track_running_stats=True)
      (conv_1): Conv2d(280, 56, kernel_size=(1, 1), stride=(1, 1), bias=False)
      (bn_2): BatchNorm2d(56, eps=1e-05, momentum=0.1, affine=True, track_running_stats=True)
      (conv_2): Conv2d(56, 14, kernel_size=(3, 3), stride=(1, 1), padding=(1, 1), bias=False)
    )
    (12): Bottleneck(
      (bn_1): BatchNorm2d(294, eps=1e-05, momentum=0.1, affine=True, track_running_stats=True)
      (conv_1): Conv2d(294, 56, kernel_size=(1, 1), stride=(1, 1), bias=False)
      (bn_2): BatchNorm2d(56, eps=1e-05, momentum=0.1, affine=True, track_running_stats=True)
      (conv_2): Conv2d(56, 14, kernel_size=(3, 3), stride=(1, 1), padding=(1, 1), bias=False)
    )
    (13): Bottleneck(
      (bn_1): BatchNorm2d(308, eps=1e-05, momentum=0.1, affine=True, track_running_stats=True)
      (conv_1): Conv2d(308, 56, kernel_size=(1, 1), stride=(1, 1), bias=False)
      (bn_2): BatchNorm2d(56, eps=1e-05, momentum=0.1, affine=True, track_running_stats=True)
      (conv_2): Conv2d(56, 14, kernel_size=(3, 3), stride=(1, 1), padding=(1, 1), bias=False)
    )
    (14): Bottleneck(
      (bn_1): BatchNorm2d(322, eps=1e-05, momentum=0.1, affine=True, track_running_stats=True)
      (conv_1): Conv2d(322, 56, kernel_size=(1, 1), stride=(1, 1), bias=False)
      (bn_2): BatchNorm2d(56, eps=1e-05, momentum=0.1, affine=True, track_running_stats=True)
      (conv_2): Conv2d(56, 14, kernel_size=(3, 3), stride=(1, 1), padding=(1, 1), bias=False)
    )
    (15): Bottleneck(
      (bn_1): BatchNorm2d(336, eps=1e-05, momentum=0.1, affine=True, track_running_stats=True)
      (conv_1): Conv2d(336, 56, kernel_size=(1, 1), stride=(1, 1), bias=False)
      (bn_2): BatchNorm2d(56, eps=1e-05, momentum=0.1, affine=True, track_running_stats=True)
      (conv_2): Conv2d(56, 14, kernel_size=(3, 3), stride=(1, 1), padding=(1, 1), bias=False)
    )
  )
  (trans_2): Transition(
    (bn): BatchNorm2d(350, eps=1e-05, momentum=0.1, affine=True, track_running_stats=True)
    (conv): Conv2d(350, 175, kernel_size=(1, 1), stride=(1, 1), bias=False)
  )
  (dense_3): Sequential(
    (0): Bottleneck(
      (bn_1): BatchNorm2d(175, eps=1e-05, momentum=0.1, affine=True, track_running_stats=True)
      (conv_1): Conv2d(175, 56, kernel_size=(1, 1), stride=(1, 1), bias=False)
      (bn_2): BatchNorm2d(56, eps=1e-05, momentum=0.1, affine=True, track_running_stats=True)
      (conv_2): Conv2d(56, 14, kernel_size=(3, 3), stride=(1, 1), padding=(1, 1), bias=False)
    )
    (1): Bottleneck(
      (bn_1): BatchNorm2d(189, eps=1e-05, momentum=0.1, affine=True, track_running_stats=True)
      (conv_1): Conv2d(189, 56, kernel_size=(1, 1), stride=(1, 1), bias=False)
      (bn_2): BatchNorm2d(56, eps=1e-05, momentum=0.1, affine=True, track_running_stats=True)
      (conv_2): Conv2d(56, 14, kernel_size=(3, 3), stride=(1, 1), padding=(1, 1), bias=False)
    )
    (2): Bottleneck(
      (bn_1): BatchNorm2d(203, eps=1e-05, momentum=0.1, affine=True, track_running_stats=True)
      (conv_1): Conv2d(203, 56, kernel_size=(1, 1), stride=(1, 1), bias=False)
      (bn_2): BatchNorm2d(56, eps=1e-05, momentum=0.1, affine=True, track_running_stats=True)
      (conv_2): Conv2d(56, 14, kernel_size=(3, 3), stride=(1, 1), padding=(1, 1), bias=False)
    )
    (3): Bottleneck(
      (bn_1): BatchNorm2d(217, eps=1e-05, momentum=0.1, affine=True, track_running_stats=True)
      (conv_1): Conv2d(217, 56, kernel_size=(1, 1), stride=(1, 1), bias=False)
      (bn_2): BatchNorm2d(56, eps=1e-05, momentum=0.1, affine=True, track_running_stats=True)
      (conv_2): Conv2d(56, 14, kernel_size=(3, 3), stride=(1, 1), padding=(1, 1), bias=False)
    )
    (4): Bottleneck(
      (bn_1): BatchNorm2d(231, eps=1e-05, momentum=0.1, affine=True, track_running_stats=True)
      (conv_1): Conv2d(231, 56, kernel_size=(1, 1), stride=(1, 1), bias=False)
      (bn_2): BatchNorm2d(56, eps=1e-05, momentum=0.1, affine=True, track_running_stats=True)
      (conv_2): Conv2d(56, 14, kernel_size=(3, 3), stride=(1, 1), padding=(1, 1), bias=False)
    )
    (5): Bottleneck(
      (bn_1): BatchNorm2d(245, eps=1e-05, momentum=0.1, affine=True, track_running_stats=True)
      (conv_1): Conv2d(245, 56, kernel_size=(1, 1), stride=(1, 1), bias=False)
      (bn_2): BatchNorm2d(56, eps=1e-05, momentum=0.1, affine=True, track_running_stats=True)
      (conv_2): Conv2d(56, 14, kernel_size=(3, 3), stride=(1, 1), padding=(1, 1), bias=False)
    )
    (6): Bottleneck(
      (bn_1): BatchNorm2d(259, eps=1e-05, momentum=0.1, affine=True, track_running_stats=True)
      (conv_1): Conv2d(259, 56, kernel_size=(1, 1), stride=(1, 1), bias=False)
      (bn_2): BatchNorm2d(56, eps=1e-05, momentum=0.1, affine=True, track_running_stats=True)
      (conv_2): Conv2d(56, 14, kernel_size=(3, 3), stride=(1, 1), padding=(1, 1), bias=False)
    )
    (7): Bottleneck(
      (bn_1): BatchNorm2d(273, eps=1e-05, momentum=0.1, affine=True, track_running_stats=True)
      (conv_1): Conv2d(273, 56, kernel_size=(1, 1), stride=(1, 1), bias=False)
      (bn_2): BatchNorm2d(56, eps=1e-05, momentum=0.1, affine=True, track_running_stats=True)
      (conv_2): Conv2d(56, 14, kernel_size=(3, 3), stride=(1, 1), padding=(1, 1), bias=False)
    )
    (8): Bottleneck(
      (bn_1): BatchNorm2d(287, eps=1e-05, momentum=0.1, affine=True, track_running_stats=True)
      (conv_1): Conv2d(287, 56, kernel_size=(1, 1), stride=(1, 1), bias=False)
      (bn_2): BatchNorm2d(56, eps=1e-05, momentum=0.1, affine=True, track_running_stats=True)
      (conv_2): Conv2d(56, 14, kernel_size=(3, 3), stride=(1, 1), padding=(1, 1), bias=False)
    )
    (9): Bottleneck(
      (bn_1): BatchNorm2d(301, eps=1e-05, momentum=0.1, affine=True, track_running_stats=True)
      (conv_1): Conv2d(301, 56, kernel_size=(1, 1), stride=(1, 1), bias=False)
      (bn_2): BatchNorm2d(56, eps=1e-05, momentum=0.1, affine=True, track_running_stats=True)
      (conv_2): Conv2d(56, 14, kernel_size=(3, 3), stride=(1, 1), padding=(1, 1), bias=False)
    )
    (10): Bottleneck(
      (bn_1): BatchNorm2d(315, eps=1e-05, momentum=0.1, affine=True, track_running_stats=True)
      (conv_1): Conv2d(315, 56, kernel_size=(1, 1), stride=(1, 1), bias=False)
      (bn_2): BatchNorm2d(56, eps=1e-05, momentum=0.1, affine=True, track_running_stats=True)
      (conv_2): Conv2d(56, 14, kernel_size=(3, 3), stride=(1, 1), padding=(1, 1), bias=False)
    )
    (11): Bottleneck(
      (bn_1): BatchNorm2d(329, eps=1e-05, momentum=0.1, affine=True, track_running_stats=True)
      (conv_1): Conv2d(329, 56, kernel_size=(1, 1), stride=(1, 1), bias=False)
      (bn_2): BatchNorm2d(56, eps=1e-05, momentum=0.1, affine=True, track_running_stats=True)
      (conv_2): Conv2d(56, 14, kernel_size=(3, 3), stride=(1, 1), padding=(1, 1), bias=False)
    )
    (12): Bottleneck(
      (bn_1): BatchNorm2d(343, eps=1e-05, momentum=0.1, affine=True, track_running_stats=True)
      (conv_1): Conv2d(343, 56, kernel_size=(1, 1), stride=(1, 1), bias=False)
      (bn_2): BatchNorm2d(56, eps=1e-05, momentum=0.1, affine=True, track_running_stats=True)
      (conv_2): Conv2d(56, 14, kernel_size=(3, 3), stride=(1, 1), padding=(1, 1), bias=False)
    )
    (13): Bottleneck(
      (bn_1): BatchNorm2d(357, eps=1e-05, momentum=0.1, affine=True, track_running_stats=True)
      (conv_1): Conv2d(357, 56, kernel_size=(1, 1), stride=(1, 1), bias=False)
      (bn_2): BatchNorm2d(56, eps=1e-05, momentum=0.1, affine=True, track_running_stats=True)
      (conv_2): Conv2d(56, 14, kernel_size=(3, 3), stride=(1, 1), padding=(1, 1), bias=False)
    )
    (14): Bottleneck(
      (bn_1): BatchNorm2d(371, eps=1e-05, momentum=0.1, affine=True, track_running_stats=True)
      (conv_1): Conv2d(371, 56, kernel_size=(1, 1), stride=(1, 1), bias=False)
      (bn_2): BatchNorm2d(56, eps=1e-05, momentum=0.1, affine=True, track_running_stats=True)
      (conv_2): Conv2d(56, 14, kernel_size=(3, 3), stride=(1, 1), padding=(1, 1), bias=False)
    )
    (15): Bottleneck(
      (bn_1): BatchNorm2d(385, eps=1e-05, momentum=0.1, affine=True, track_running_stats=True)
      (conv_1): Conv2d(385, 56, kernel_size=(1, 1), stride=(1, 1), bias=False)
      (bn_2): BatchNorm2d(56, eps=1e-05, momentum=0.1, affine=True, track_running_stats=True)
      (conv_2): Conv2d(56, 14, kernel_size=(3, 3), stride=(1, 1), padding=(1, 1), bias=False)
    )
  )
  (bn): BatchNorm2d(399, eps=1e-05, momentum=0.1, affine=True, track_running_stats=True)
  (fc): Linear(in_features=399, out_features=10, bias=True)
)
[2019-10-21 15:49:28,680] - [train.py line:148] :  == total parameters: 1041456
[2019-10-21 15:49:39,296] - [train.py line:187] :             =======  Training  =======

[2019-10-21 15:49:39,303] - [train.py line:39] :  === Epoch: [1/300] === 
[2019-10-21 15:50:21,524] - [train.py line:143] : {'architecture': 'densenet100bc', 'data_path': './data', 'ckpt_path': './', 'ckpt_name': 'densenet100bc', 'num_classes': 10, 'dataset': 'cifar10', 'use_gpu': True, 'input_size': 32, 'epochs': 300, 'batch_size': 64, 'test_batch': 200, 'eval_freq': 2, 'workers': 4, 'optimize': {'momentum': 0.9, 'weight_decay': 0.0001, 'nesterov': True}, 'mixup': False, 'mixup_alpha': 0.4, 'augmentation': {'normalize': True, 'random_crop': True, 'random_horizontal_filp': True, 'cutout': False, 'holes': 1, 'length': 8}, 'lr_scheduler': {'type': 'STEP', 'base_lr': 0.1, 'lr_epochs': [150, 225], 'lr_mults': 0.1, 'min_lr': 0.0, 'lower_bound': -6.0, 'upper_bound': 3.0}}
[2019-10-21 15:50:21,592] - [train.py line:147] : DenseNet(
  (conv_1): Conv2d(3, 26, kernel_size=(3, 3), stride=(1, 1), padding=(1, 1), bias=False)
  (dense1): Sequential(
    (0): Bottleneck(
      (bn_1): BatchNorm2d(26, eps=1e-05, momentum=0.1, affine=True, track_running_stats=True)
      (conv_1): Conv2d(26, 52, kernel_size=(1, 1), stride=(1, 1), bias=False)
      (bn_2): BatchNorm2d(52, eps=1e-05, momentum=0.1, affine=True, track_running_stats=True)
      (conv_2): Conv2d(52, 13, kernel_size=(3, 3), stride=(1, 1), padding=(1, 1), bias=False)
    )
    (1): Bottleneck(
      (bn_1): BatchNorm2d(39, eps=1e-05, momentum=0.1, affine=True, track_running_stats=True)
      (conv_1): Conv2d(39, 52, kernel_size=(1, 1), stride=(1, 1), bias=False)
      (bn_2): BatchNorm2d(52, eps=1e-05, momentum=0.1, affine=True, track_running_stats=True)
      (conv_2): Conv2d(52, 13, kernel_size=(3, 3), stride=(1, 1), padding=(1, 1), bias=False)
    )
    (2): Bottleneck(
      (bn_1): BatchNorm2d(52, eps=1e-05, momentum=0.1, affine=True, track_running_stats=True)
      (conv_1): Conv2d(52, 52, kernel_size=(1, 1), stride=(1, 1), bias=False)
      (bn_2): BatchNorm2d(52, eps=1e-05, momentum=0.1, affine=True, track_running_stats=True)
      (conv_2): Conv2d(52, 13, kernel_size=(3, 3), stride=(1, 1), padding=(1, 1), bias=False)
    )
    (3): Bottleneck(
      (bn_1): BatchNorm2d(65, eps=1e-05, momentum=0.1, affine=True, track_running_stats=True)
      (conv_1): Conv2d(65, 52, kernel_size=(1, 1), stride=(1, 1), bias=False)
      (bn_2): BatchNorm2d(52, eps=1e-05, momentum=0.1, affine=True, track_running_stats=True)
      (conv_2): Conv2d(52, 13, kernel_size=(3, 3), stride=(1, 1), padding=(1, 1), bias=False)
    )
    (4): Bottleneck(
      (bn_1): BatchNorm2d(78, eps=1e-05, momentum=0.1, affine=True, track_running_stats=True)
      (conv_1): Conv2d(78, 52, kernel_size=(1, 1), stride=(1, 1), bias=False)
      (bn_2): BatchNorm2d(52, eps=1e-05, momentum=0.1, affine=True, track_running_stats=True)
      (conv_2): Conv2d(52, 13, kernel_size=(3, 3), stride=(1, 1), padding=(1, 1), bias=False)
    )
    (5): Bottleneck(
      (bn_1): BatchNorm2d(91, eps=1e-05, momentum=0.1, affine=True, track_running_stats=True)
      (conv_1): Conv2d(91, 52, kernel_size=(1, 1), stride=(1, 1), bias=False)
      (bn_2): BatchNorm2d(52, eps=1e-05, momentum=0.1, affine=True, track_running_stats=True)
      (conv_2): Conv2d(52, 13, kernel_size=(3, 3), stride=(1, 1), padding=(1, 1), bias=False)
    )
    (6): Bottleneck(
      (bn_1): BatchNorm2d(104, eps=1e-05, momentum=0.1, affine=True, track_running_stats=True)
      (conv_1): Conv2d(104, 52, kernel_size=(1, 1), stride=(1, 1), bias=False)
      (bn_2): BatchNorm2d(52, eps=1e-05, momentum=0.1, affine=True, track_running_stats=True)
      (conv_2): Conv2d(52, 13, kernel_size=(3, 3), stride=(1, 1), padding=(1, 1), bias=False)
    )
    (7): Bottleneck(
      (bn_1): BatchNorm2d(117, eps=1e-05, momentum=0.1, affine=True, track_running_stats=True)
      (conv_1): Conv2d(117, 52, kernel_size=(1, 1), stride=(1, 1), bias=False)
      (bn_2): BatchNorm2d(52, eps=1e-05, momentum=0.1, affine=True, track_running_stats=True)
      (conv_2): Conv2d(52, 13, kernel_size=(3, 3), stride=(1, 1), padding=(1, 1), bias=False)
    )
    (8): Bottleneck(
      (bn_1): BatchNorm2d(130, eps=1e-05, momentum=0.1, affine=True, track_running_stats=True)
      (conv_1): Conv2d(130, 52, kernel_size=(1, 1), stride=(1, 1), bias=False)
      (bn_2): BatchNorm2d(52, eps=1e-05, momentum=0.1, affine=True, track_running_stats=True)
      (conv_2): Conv2d(52, 13, kernel_size=(3, 3), stride=(1, 1), padding=(1, 1), bias=False)
    )
    (9): Bottleneck(
      (bn_1): BatchNorm2d(143, eps=1e-05, momentum=0.1, affine=True, track_running_stats=True)
      (conv_1): Conv2d(143, 52, kernel_size=(1, 1), stride=(1, 1), bias=False)
      (bn_2): BatchNorm2d(52, eps=1e-05, momentum=0.1, affine=True, track_running_stats=True)
      (conv_2): Conv2d(52, 13, kernel_size=(3, 3), stride=(1, 1), padding=(1, 1), bias=False)
    )
    (10): Bottleneck(
      (bn_1): BatchNorm2d(156, eps=1e-05, momentum=0.1, affine=True, track_running_stats=True)
      (conv_1): Conv2d(156, 52, kernel_size=(1, 1), stride=(1, 1), bias=False)
      (bn_2): BatchNorm2d(52, eps=1e-05, momentum=0.1, affine=True, track_running_stats=True)
      (conv_2): Conv2d(52, 13, kernel_size=(3, 3), stride=(1, 1), padding=(1, 1), bias=False)
    )
    (11): Bottleneck(
      (bn_1): BatchNorm2d(169, eps=1e-05, momentum=0.1, affine=True, track_running_stats=True)
      (conv_1): Conv2d(169, 52, kernel_size=(1, 1), stride=(1, 1), bias=False)
      (bn_2): BatchNorm2d(52, eps=1e-05, momentum=0.1, affine=True, track_running_stats=True)
      (conv_2): Conv2d(52, 13, kernel_size=(3, 3), stride=(1, 1), padding=(1, 1), bias=False)
    )
    (12): Bottleneck(
      (bn_1): BatchNorm2d(182, eps=1e-05, momentum=0.1, affine=True, track_running_stats=True)
      (conv_1): Conv2d(182, 52, kernel_size=(1, 1), stride=(1, 1), bias=False)
      (bn_2): BatchNorm2d(52, eps=1e-05, momentum=0.1, affine=True, track_running_stats=True)
      (conv_2): Conv2d(52, 13, kernel_size=(3, 3), stride=(1, 1), padding=(1, 1), bias=False)
    )
    (13): Bottleneck(
      (bn_1): BatchNorm2d(195, eps=1e-05, momentum=0.1, affine=True, track_running_stats=True)
      (conv_1): Conv2d(195, 52, kernel_size=(1, 1), stride=(1, 1), bias=False)
      (bn_2): BatchNorm2d(52, eps=1e-05, momentum=0.1, affine=True, track_running_stats=True)
      (conv_2): Conv2d(52, 13, kernel_size=(3, 3), stride=(1, 1), padding=(1, 1), bias=False)
    )
    (14): Bottleneck(
      (bn_1): BatchNorm2d(208, eps=1e-05, momentum=0.1, affine=True, track_running_stats=True)
      (conv_1): Conv2d(208, 52, kernel_size=(1, 1), stride=(1, 1), bias=False)
      (bn_2): BatchNorm2d(52, eps=1e-05, momentum=0.1, affine=True, track_running_stats=True)
      (conv_2): Conv2d(52, 13, kernel_size=(3, 3), stride=(1, 1), padding=(1, 1), bias=False)
    )
    (15): Bottleneck(
      (bn_1): BatchNorm2d(221, eps=1e-05, momentum=0.1, affine=True, track_running_stats=True)
      (conv_1): Conv2d(221, 52, kernel_size=(1, 1), stride=(1, 1), bias=False)
      (bn_2): BatchNorm2d(52, eps=1e-05, momentum=0.1, affine=True, track_running_stats=True)
      (conv_2): Conv2d(52, 13, kernel_size=(3, 3), stride=(1, 1), padding=(1, 1), bias=False)
    )
  )
  (trans_1): Transition(
    (bn): BatchNorm2d(234, eps=1e-05, momentum=0.1, affine=True, track_running_stats=True)
    (conv): Conv2d(234, 117, kernel_size=(1, 1), stride=(1, 1), bias=False)
  )
  (dense2): Sequential(
    (0): Bottleneck(
      (bn_1): BatchNorm2d(117, eps=1e-05, momentum=0.1, affine=True, track_running_stats=True)
      (conv_1): Conv2d(117, 52, kernel_size=(1, 1), stride=(1, 1), bias=False)
      (bn_2): BatchNorm2d(52, eps=1e-05, momentum=0.1, affine=True, track_running_stats=True)
      (conv_2): Conv2d(52, 13, kernel_size=(3, 3), stride=(1, 1), padding=(1, 1), bias=False)
    )
    (1): Bottleneck(
      (bn_1): BatchNorm2d(130, eps=1e-05, momentum=0.1, affine=True, track_running_stats=True)
      (conv_1): Conv2d(130, 52, kernel_size=(1, 1), stride=(1, 1), bias=False)
      (bn_2): BatchNorm2d(52, eps=1e-05, momentum=0.1, affine=True, track_running_stats=True)
      (conv_2): Conv2d(52, 13, kernel_size=(3, 3), stride=(1, 1), padding=(1, 1), bias=False)
    )
    (2): Bottleneck(
      (bn_1): BatchNorm2d(143, eps=1e-05, momentum=0.1, affine=True, track_running_stats=True)
      (conv_1): Conv2d(143, 52, kernel_size=(1, 1), stride=(1, 1), bias=False)
      (bn_2): BatchNorm2d(52, eps=1e-05, momentum=0.1, affine=True, track_running_stats=True)
      (conv_2): Conv2d(52, 13, kernel_size=(3, 3), stride=(1, 1), padding=(1, 1), bias=False)
    )
    (3): Bottleneck(
      (bn_1): BatchNorm2d(156, eps=1e-05, momentum=0.1, affine=True, track_running_stats=True)
      (conv_1): Conv2d(156, 52, kernel_size=(1, 1), stride=(1, 1), bias=False)
      (bn_2): BatchNorm2d(52, eps=1e-05, momentum=0.1, affine=True, track_running_stats=True)
      (conv_2): Conv2d(52, 13, kernel_size=(3, 3), stride=(1, 1), padding=(1, 1), bias=False)
    )
    (4): Bottleneck(
      (bn_1): BatchNorm2d(169, eps=1e-05, momentum=0.1, affine=True, track_running_stats=True)
      (conv_1): Conv2d(169, 52, kernel_size=(1, 1), stride=(1, 1), bias=False)
      (bn_2): BatchNorm2d(52, eps=1e-05, momentum=0.1, affine=True, track_running_stats=True)
      (conv_2): Conv2d(52, 13, kernel_size=(3, 3), stride=(1, 1), padding=(1, 1), bias=False)
    )
    (5): Bottleneck(
      (bn_1): BatchNorm2d(182, eps=1e-05, momentum=0.1, affine=True, track_running_stats=True)
      (conv_1): Conv2d(182, 52, kernel_size=(1, 1), stride=(1, 1), bias=False)
      (bn_2): BatchNorm2d(52, eps=1e-05, momentum=0.1, affine=True, track_running_stats=True)
      (conv_2): Conv2d(52, 13, kernel_size=(3, 3), stride=(1, 1), padding=(1, 1), bias=False)
    )
    (6): Bottleneck(
      (bn_1): BatchNorm2d(195, eps=1e-05, momentum=0.1, affine=True, track_running_stats=True)
      (conv_1): Conv2d(195, 52, kernel_size=(1, 1), stride=(1, 1), bias=False)
      (bn_2): BatchNorm2d(52, eps=1e-05, momentum=0.1, affine=True, track_running_stats=True)
      (conv_2): Conv2d(52, 13, kernel_size=(3, 3), stride=(1, 1), padding=(1, 1), bias=False)
    )
    (7): Bottleneck(
      (bn_1): BatchNorm2d(208, eps=1e-05, momentum=0.1, affine=True, track_running_stats=True)
      (conv_1): Conv2d(208, 52, kernel_size=(1, 1), stride=(1, 1), bias=False)
      (bn_2): BatchNorm2d(52, eps=1e-05, momentum=0.1, affine=True, track_running_stats=True)
      (conv_2): Conv2d(52, 13, kernel_size=(3, 3), stride=(1, 1), padding=(1, 1), bias=False)
    )
    (8): Bottleneck(
      (bn_1): BatchNorm2d(221, eps=1e-05, momentum=0.1, affine=True, track_running_stats=True)
      (conv_1): Conv2d(221, 52, kernel_size=(1, 1), stride=(1, 1), bias=False)
      (bn_2): BatchNorm2d(52, eps=1e-05, momentum=0.1, affine=True, track_running_stats=True)
      (conv_2): Conv2d(52, 13, kernel_size=(3, 3), stride=(1, 1), padding=(1, 1), bias=False)
    )
    (9): Bottleneck(
      (bn_1): BatchNorm2d(234, eps=1e-05, momentum=0.1, affine=True, track_running_stats=True)
      (conv_1): Conv2d(234, 52, kernel_size=(1, 1), stride=(1, 1), bias=False)
      (bn_2): BatchNorm2d(52, eps=1e-05, momentum=0.1, affine=True, track_running_stats=True)
      (conv_2): Conv2d(52, 13, kernel_size=(3, 3), stride=(1, 1), padding=(1, 1), bias=False)
    )
    (10): Bottleneck(
      (bn_1): BatchNorm2d(247, eps=1e-05, momentum=0.1, affine=True, track_running_stats=True)
      (conv_1): Conv2d(247, 52, kernel_size=(1, 1), stride=(1, 1), bias=False)
      (bn_2): BatchNorm2d(52, eps=1e-05, momentum=0.1, affine=True, track_running_stats=True)
      (conv_2): Conv2d(52, 13, kernel_size=(3, 3), stride=(1, 1), padding=(1, 1), bias=False)
    )
    (11): Bottleneck(
      (bn_1): BatchNorm2d(260, eps=1e-05, momentum=0.1, affine=True, track_running_stats=True)
      (conv_1): Conv2d(260, 52, kernel_size=(1, 1), stride=(1, 1), bias=False)
      (bn_2): BatchNorm2d(52, eps=1e-05, momentum=0.1, affine=True, track_running_stats=True)
      (conv_2): Conv2d(52, 13, kernel_size=(3, 3), stride=(1, 1), padding=(1, 1), bias=False)
    )
    (12): Bottleneck(
      (bn_1): BatchNorm2d(273, eps=1e-05, momentum=0.1, affine=True, track_running_stats=True)
      (conv_1): Conv2d(273, 52, kernel_size=(1, 1), stride=(1, 1), bias=False)
      (bn_2): BatchNorm2d(52, eps=1e-05, momentum=0.1, affine=True, track_running_stats=True)
      (conv_2): Conv2d(52, 13, kernel_size=(3, 3), stride=(1, 1), padding=(1, 1), bias=False)
    )
    (13): Bottleneck(
      (bn_1): BatchNorm2d(286, eps=1e-05, momentum=0.1, affine=True, track_running_stats=True)
      (conv_1): Conv2d(286, 52, kernel_size=(1, 1), stride=(1, 1), bias=False)
      (bn_2): BatchNorm2d(52, eps=1e-05, momentum=0.1, affine=True, track_running_stats=True)
      (conv_2): Conv2d(52, 13, kernel_size=(3, 3), stride=(1, 1), padding=(1, 1), bias=False)
    )
    (14): Bottleneck(
      (bn_1): BatchNorm2d(299, eps=1e-05, momentum=0.1, affine=True, track_running_stats=True)
      (conv_1): Conv2d(299, 52, kernel_size=(1, 1), stride=(1, 1), bias=False)
      (bn_2): BatchNorm2d(52, eps=1e-05, momentum=0.1, affine=True, track_running_stats=True)
      (conv_2): Conv2d(52, 13, kernel_size=(3, 3), stride=(1, 1), padding=(1, 1), bias=False)
    )
    (15): Bottleneck(
      (bn_1): BatchNorm2d(312, eps=1e-05, momentum=0.1, affine=True, track_running_stats=True)
      (conv_1): Conv2d(312, 52, kernel_size=(1, 1), stride=(1, 1), bias=False)
      (bn_2): BatchNorm2d(52, eps=1e-05, momentum=0.1, affine=True, track_running_stats=True)
      (conv_2): Conv2d(52, 13, kernel_size=(3, 3), stride=(1, 1), padding=(1, 1), bias=False)
    )
  )
  (trans_2): Transition(
    (bn): BatchNorm2d(325, eps=1e-05, momentum=0.1, affine=True, track_running_stats=True)
    (conv): Conv2d(325, 162, kernel_size=(1, 1), stride=(1, 1), bias=False)
  )
  (dense_3): Sequential(
    (0): Bottleneck(
      (bn_1): BatchNorm2d(162, eps=1e-05, momentum=0.1, affine=True, track_running_stats=True)
      (conv_1): Conv2d(162, 52, kernel_size=(1, 1), stride=(1, 1), bias=False)
      (bn_2): BatchNorm2d(52, eps=1e-05, momentum=0.1, affine=True, track_running_stats=True)
      (conv_2): Conv2d(52, 13, kernel_size=(3, 3), stride=(1, 1), padding=(1, 1), bias=False)
    )
    (1): Bottleneck(
      (bn_1): BatchNorm2d(175, eps=1e-05, momentum=0.1, affine=True, track_running_stats=True)
      (conv_1): Conv2d(175, 52, kernel_size=(1, 1), stride=(1, 1), bias=False)
      (bn_2): BatchNorm2d(52, eps=1e-05, momentum=0.1, affine=True, track_running_stats=True)
      (conv_2): Conv2d(52, 13, kernel_size=(3, 3), stride=(1, 1), padding=(1, 1), bias=False)
    )
    (2): Bottleneck(
      (bn_1): BatchNorm2d(188, eps=1e-05, momentum=0.1, affine=True, track_running_stats=True)
      (conv_1): Conv2d(188, 52, kernel_size=(1, 1), stride=(1, 1), bias=False)
      (bn_2): BatchNorm2d(52, eps=1e-05, momentum=0.1, affine=True, track_running_stats=True)
      (conv_2): Conv2d(52, 13, kernel_size=(3, 3), stride=(1, 1), padding=(1, 1), bias=False)
    )
    (3): Bottleneck(
      (bn_1): BatchNorm2d(201, eps=1e-05, momentum=0.1, affine=True, track_running_stats=True)
      (conv_1): Conv2d(201, 52, kernel_size=(1, 1), stride=(1, 1), bias=False)
      (bn_2): BatchNorm2d(52, eps=1e-05, momentum=0.1, affine=True, track_running_stats=True)
      (conv_2): Conv2d(52, 13, kernel_size=(3, 3), stride=(1, 1), padding=(1, 1), bias=False)
    )
    (4): Bottleneck(
      (bn_1): BatchNorm2d(214, eps=1e-05, momentum=0.1, affine=True, track_running_stats=True)
      (conv_1): Conv2d(214, 52, kernel_size=(1, 1), stride=(1, 1), bias=False)
      (bn_2): BatchNorm2d(52, eps=1e-05, momentum=0.1, affine=True, track_running_stats=True)
      (conv_2): Conv2d(52, 13, kernel_size=(3, 3), stride=(1, 1), padding=(1, 1), bias=False)
    )
    (5): Bottleneck(
      (bn_1): BatchNorm2d(227, eps=1e-05, momentum=0.1, affine=True, track_running_stats=True)
      (conv_1): Conv2d(227, 52, kernel_size=(1, 1), stride=(1, 1), bias=False)
      (bn_2): BatchNorm2d(52, eps=1e-05, momentum=0.1, affine=True, track_running_stats=True)
      (conv_2): Conv2d(52, 13, kernel_size=(3, 3), stride=(1, 1), padding=(1, 1), bias=False)
    )
    (6): Bottleneck(
      (bn_1): BatchNorm2d(240, eps=1e-05, momentum=0.1, affine=True, track_running_stats=True)
      (conv_1): Conv2d(240, 52, kernel_size=(1, 1), stride=(1, 1), bias=False)
      (bn_2): BatchNorm2d(52, eps=1e-05, momentum=0.1, affine=True, track_running_stats=True)
      (conv_2): Conv2d(52, 13, kernel_size=(3, 3), stride=(1, 1), padding=(1, 1), bias=False)
    )
    (7): Bottleneck(
      (bn_1): BatchNorm2d(253, eps=1e-05, momentum=0.1, affine=True, track_running_stats=True)
      (conv_1): Conv2d(253, 52, kernel_size=(1, 1), stride=(1, 1), bias=False)
      (bn_2): BatchNorm2d(52, eps=1e-05, momentum=0.1, affine=True, track_running_stats=True)
      (conv_2): Conv2d(52, 13, kernel_size=(3, 3), stride=(1, 1), padding=(1, 1), bias=False)
    )
    (8): Bottleneck(
      (bn_1): BatchNorm2d(266, eps=1e-05, momentum=0.1, affine=True, track_running_stats=True)
      (conv_1): Conv2d(266, 52, kernel_size=(1, 1), stride=(1, 1), bias=False)
      (bn_2): BatchNorm2d(52, eps=1e-05, momentum=0.1, affine=True, track_running_stats=True)
      (conv_2): Conv2d(52, 13, kernel_size=(3, 3), stride=(1, 1), padding=(1, 1), bias=False)
    )
    (9): Bottleneck(
      (bn_1): BatchNorm2d(279, eps=1e-05, momentum=0.1, affine=True, track_running_stats=True)
      (conv_1): Conv2d(279, 52, kernel_size=(1, 1), stride=(1, 1), bias=False)
      (bn_2): BatchNorm2d(52, eps=1e-05, momentum=0.1, affine=True, track_running_stats=True)
      (conv_2): Conv2d(52, 13, kernel_size=(3, 3), stride=(1, 1), padding=(1, 1), bias=False)
    )
    (10): Bottleneck(
      (bn_1): BatchNorm2d(292, eps=1e-05, momentum=0.1, affine=True, track_running_stats=True)
      (conv_1): Conv2d(292, 52, kernel_size=(1, 1), stride=(1, 1), bias=False)
      (bn_2): BatchNorm2d(52, eps=1e-05, momentum=0.1, affine=True, track_running_stats=True)
      (conv_2): Conv2d(52, 13, kernel_size=(3, 3), stride=(1, 1), padding=(1, 1), bias=False)
    )
    (11): Bottleneck(
      (bn_1): BatchNorm2d(305, eps=1e-05, momentum=0.1, affine=True, track_running_stats=True)
      (conv_1): Conv2d(305, 52, kernel_size=(1, 1), stride=(1, 1), bias=False)
      (bn_2): BatchNorm2d(52, eps=1e-05, momentum=0.1, affine=True, track_running_stats=True)
      (conv_2): Conv2d(52, 13, kernel_size=(3, 3), stride=(1, 1), padding=(1, 1), bias=False)
    )
    (12): Bottleneck(
      (bn_1): BatchNorm2d(318, eps=1e-05, momentum=0.1, affine=True, track_running_stats=True)
      (conv_1): Conv2d(318, 52, kernel_size=(1, 1), stride=(1, 1), bias=False)
      (bn_2): BatchNorm2d(52, eps=1e-05, momentum=0.1, affine=True, track_running_stats=True)
      (conv_2): Conv2d(52, 13, kernel_size=(3, 3), stride=(1, 1), padding=(1, 1), bias=False)
    )
    (13): Bottleneck(
      (bn_1): BatchNorm2d(331, eps=1e-05, momentum=0.1, affine=True, track_running_stats=True)
      (conv_1): Conv2d(331, 52, kernel_size=(1, 1), stride=(1, 1), bias=False)
      (bn_2): BatchNorm2d(52, eps=1e-05, momentum=0.1, affine=True, track_running_stats=True)
      (conv_2): Conv2d(52, 13, kernel_size=(3, 3), stride=(1, 1), padding=(1, 1), bias=False)
    )
    (14): Bottleneck(
      (bn_1): BatchNorm2d(344, eps=1e-05, momentum=0.1, affine=True, track_running_stats=True)
      (conv_1): Conv2d(344, 52, kernel_size=(1, 1), stride=(1, 1), bias=False)
      (bn_2): BatchNorm2d(52, eps=1e-05, momentum=0.1, affine=True, track_running_stats=True)
      (conv_2): Conv2d(52, 13, kernel_size=(3, 3), stride=(1, 1), padding=(1, 1), bias=False)
    )
    (15): Bottleneck(
      (bn_1): BatchNorm2d(357, eps=1e-05, momentum=0.1, affine=True, track_running_stats=True)
      (conv_1): Conv2d(357, 52, kernel_size=(1, 1), stride=(1, 1), bias=False)
      (bn_2): BatchNorm2d(52, eps=1e-05, momentum=0.1, affine=True, track_running_stats=True)
      (conv_2): Conv2d(52, 13, kernel_size=(3, 3), stride=(1, 1), padding=(1, 1), bias=False)
    )
  )
  (bn): BatchNorm2d(370, eps=1e-05, momentum=0.1, affine=True, track_running_stats=True)
  (fc): Linear(in_features=370, out_features=10, bias=True)
)
[2019-10-21 15:50:21,606] - [train.py line:148] :  == total parameters: 899562
[2019-10-21 15:50:29,485] - [train.py line:187] :             =======  Training  =======

[2019-10-21 15:50:29,487] - [train.py line:39] :  === Epoch: [1/300] === 
[2019-10-21 16:44:48,708] - [train.py line:143] : {'architecture': 'densenet100bc', 'data_path': './data', 'ckpt_path': './', 'ckpt_name': 'densenet100bc', 'num_classes': 10, 'dataset': 'cifar10', 'use_gpu': True, 'input_size': 32, 'epochs': 300, 'batch_size': 256, 'test_batch': 200, 'eval_freq': 2, 'workers': 4, 'optimize': {'momentum': 0.9, 'weight_decay': 0.0001, 'nesterov': True}, 'mixup': False, 'mixup_alpha': 0.4, 'augmentation': {'normalize': True, 'random_crop': True, 'random_horizontal_filp': True, 'cutout': False, 'holes': 1, 'length': 8}, 'lr_scheduler': {'type': 'STEP', 'base_lr': 0.1, 'lr_epochs': [150, 225], 'lr_mults': 0.1, 'min_lr': 0.0, 'lower_bound': -6.0, 'upper_bound': 3.0}}
[2019-10-21 16:44:48,778] - [train.py line:147] : DenseNet(
  (conv_1): Conv2d(3, 26, kernel_size=(3, 3), stride=(1, 1), padding=(1, 1), bias=False)
  (dense1): Sequential(
    (0): Bottleneck(
      (bn_1): BatchNorm2d(26, eps=1e-05, momentum=0.1, affine=True, track_running_stats=True)
      (conv_1): Conv2d(26, 52, kernel_size=(1, 1), stride=(1, 1), bias=False)
      (bn_2): BatchNorm2d(52, eps=1e-05, momentum=0.1, affine=True, track_running_stats=True)
      (conv_2): Conv2d(52, 13, kernel_size=(3, 3), stride=(1, 1), padding=(1, 1), bias=False)
    )
    (1): Bottleneck(
      (bn_1): BatchNorm2d(39, eps=1e-05, momentum=0.1, affine=True, track_running_stats=True)
      (conv_1): Conv2d(39, 52, kernel_size=(1, 1), stride=(1, 1), bias=False)
      (bn_2): BatchNorm2d(52, eps=1e-05, momentum=0.1, affine=True, track_running_stats=True)
      (conv_2): Conv2d(52, 13, kernel_size=(3, 3), stride=(1, 1), padding=(1, 1), bias=False)
    )
    (2): Bottleneck(
      (bn_1): BatchNorm2d(52, eps=1e-05, momentum=0.1, affine=True, track_running_stats=True)
      (conv_1): Conv2d(52, 52, kernel_size=(1, 1), stride=(1, 1), bias=False)
      (bn_2): BatchNorm2d(52, eps=1e-05, momentum=0.1, affine=True, track_running_stats=True)
      (conv_2): Conv2d(52, 13, kernel_size=(3, 3), stride=(1, 1), padding=(1, 1), bias=False)
    )
    (3): Bottleneck(
      (bn_1): BatchNorm2d(65, eps=1e-05, momentum=0.1, affine=True, track_running_stats=True)
      (conv_1): Conv2d(65, 52, kernel_size=(1, 1), stride=(1, 1), bias=False)
      (bn_2): BatchNorm2d(52, eps=1e-05, momentum=0.1, affine=True, track_running_stats=True)
      (conv_2): Conv2d(52, 13, kernel_size=(3, 3), stride=(1, 1), padding=(1, 1), bias=False)
    )
    (4): Bottleneck(
      (bn_1): BatchNorm2d(78, eps=1e-05, momentum=0.1, affine=True, track_running_stats=True)
      (conv_1): Conv2d(78, 52, kernel_size=(1, 1), stride=(1, 1), bias=False)
      (bn_2): BatchNorm2d(52, eps=1e-05, momentum=0.1, affine=True, track_running_stats=True)
      (conv_2): Conv2d(52, 13, kernel_size=(3, 3), stride=(1, 1), padding=(1, 1), bias=False)
    )
    (5): Bottleneck(
      (bn_1): BatchNorm2d(91, eps=1e-05, momentum=0.1, affine=True, track_running_stats=True)
      (conv_1): Conv2d(91, 52, kernel_size=(1, 1), stride=(1, 1), bias=False)
      (bn_2): BatchNorm2d(52, eps=1e-05, momentum=0.1, affine=True, track_running_stats=True)
      (conv_2): Conv2d(52, 13, kernel_size=(3, 3), stride=(1, 1), padding=(1, 1), bias=False)
    )
    (6): Bottleneck(
      (bn_1): BatchNorm2d(104, eps=1e-05, momentum=0.1, affine=True, track_running_stats=True)
      (conv_1): Conv2d(104, 52, kernel_size=(1, 1), stride=(1, 1), bias=False)
      (bn_2): BatchNorm2d(52, eps=1e-05, momentum=0.1, affine=True, track_running_stats=True)
      (conv_2): Conv2d(52, 13, kernel_size=(3, 3), stride=(1, 1), padding=(1, 1), bias=False)
    )
    (7): Bottleneck(
      (bn_1): BatchNorm2d(117, eps=1e-05, momentum=0.1, affine=True, track_running_stats=True)
      (conv_1): Conv2d(117, 52, kernel_size=(1, 1), stride=(1, 1), bias=False)
      (bn_2): BatchNorm2d(52, eps=1e-05, momentum=0.1, affine=True, track_running_stats=True)
      (conv_2): Conv2d(52, 13, kernel_size=(3, 3), stride=(1, 1), padding=(1, 1), bias=False)
    )
    (8): Bottleneck(
      (bn_1): BatchNorm2d(130, eps=1e-05, momentum=0.1, affine=True, track_running_stats=True)
      (conv_1): Conv2d(130, 52, kernel_size=(1, 1), stride=(1, 1), bias=False)
      (bn_2): BatchNorm2d(52, eps=1e-05, momentum=0.1, affine=True, track_running_stats=True)
      (conv_2): Conv2d(52, 13, kernel_size=(3, 3), stride=(1, 1), padding=(1, 1), bias=False)
    )
    (9): Bottleneck(
      (bn_1): BatchNorm2d(143, eps=1e-05, momentum=0.1, affine=True, track_running_stats=True)
      (conv_1): Conv2d(143, 52, kernel_size=(1, 1), stride=(1, 1), bias=False)
      (bn_2): BatchNorm2d(52, eps=1e-05, momentum=0.1, affine=True, track_running_stats=True)
      (conv_2): Conv2d(52, 13, kernel_size=(3, 3), stride=(1, 1), padding=(1, 1), bias=False)
    )
    (10): Bottleneck(
      (bn_1): BatchNorm2d(156, eps=1e-05, momentum=0.1, affine=True, track_running_stats=True)
      (conv_1): Conv2d(156, 52, kernel_size=(1, 1), stride=(1, 1), bias=False)
      (bn_2): BatchNorm2d(52, eps=1e-05, momentum=0.1, affine=True, track_running_stats=True)
      (conv_2): Conv2d(52, 13, kernel_size=(3, 3), stride=(1, 1), padding=(1, 1), bias=False)
    )
    (11): Bottleneck(
      (bn_1): BatchNorm2d(169, eps=1e-05, momentum=0.1, affine=True, track_running_stats=True)
      (conv_1): Conv2d(169, 52, kernel_size=(1, 1), stride=(1, 1), bias=False)
      (bn_2): BatchNorm2d(52, eps=1e-05, momentum=0.1, affine=True, track_running_stats=True)
      (conv_2): Conv2d(52, 13, kernel_size=(3, 3), stride=(1, 1), padding=(1, 1), bias=False)
    )
    (12): Bottleneck(
      (bn_1): BatchNorm2d(182, eps=1e-05, momentum=0.1, affine=True, track_running_stats=True)
      (conv_1): Conv2d(182, 52, kernel_size=(1, 1), stride=(1, 1), bias=False)
      (bn_2): BatchNorm2d(52, eps=1e-05, momentum=0.1, affine=True, track_running_stats=True)
      (conv_2): Conv2d(52, 13, kernel_size=(3, 3), stride=(1, 1), padding=(1, 1), bias=False)
    )
    (13): Bottleneck(
      (bn_1): BatchNorm2d(195, eps=1e-05, momentum=0.1, affine=True, track_running_stats=True)
      (conv_1): Conv2d(195, 52, kernel_size=(1, 1), stride=(1, 1), bias=False)
      (bn_2): BatchNorm2d(52, eps=1e-05, momentum=0.1, affine=True, track_running_stats=True)
      (conv_2): Conv2d(52, 13, kernel_size=(3, 3), stride=(1, 1), padding=(1, 1), bias=False)
    )
    (14): Bottleneck(
      (bn_1): BatchNorm2d(208, eps=1e-05, momentum=0.1, affine=True, track_running_stats=True)
      (conv_1): Conv2d(208, 52, kernel_size=(1, 1), stride=(1, 1), bias=False)
      (bn_2): BatchNorm2d(52, eps=1e-05, momentum=0.1, affine=True, track_running_stats=True)
      (conv_2): Conv2d(52, 13, kernel_size=(3, 3), stride=(1, 1), padding=(1, 1), bias=False)
    )
    (15): Bottleneck(
      (bn_1): BatchNorm2d(221, eps=1e-05, momentum=0.1, affine=True, track_running_stats=True)
      (conv_1): Conv2d(221, 52, kernel_size=(1, 1), stride=(1, 1), bias=False)
      (bn_2): BatchNorm2d(52, eps=1e-05, momentum=0.1, affine=True, track_running_stats=True)
      (conv_2): Conv2d(52, 13, kernel_size=(3, 3), stride=(1, 1), padding=(1, 1), bias=False)
    )
  )
  (trans_1): Transition(
    (bn): BatchNorm2d(234, eps=1e-05, momentum=0.1, affine=True, track_running_stats=True)
    (conv): Conv2d(234, 117, kernel_size=(1, 1), stride=(1, 1), bias=False)
  )
  (dense2): Sequential(
    (0): Bottleneck(
      (bn_1): BatchNorm2d(117, eps=1e-05, momentum=0.1, affine=True, track_running_stats=True)
      (conv_1): Conv2d(117, 52, kernel_size=(1, 1), stride=(1, 1), bias=False)
      (bn_2): BatchNorm2d(52, eps=1e-05, momentum=0.1, affine=True, track_running_stats=True)
      (conv_2): Conv2d(52, 13, kernel_size=(3, 3), stride=(1, 1), padding=(1, 1), bias=False)
    )
    (1): Bottleneck(
      (bn_1): BatchNorm2d(130, eps=1e-05, momentum=0.1, affine=True, track_running_stats=True)
      (conv_1): Conv2d(130, 52, kernel_size=(1, 1), stride=(1, 1), bias=False)
      (bn_2): BatchNorm2d(52, eps=1e-05, momentum=0.1, affine=True, track_running_stats=True)
      (conv_2): Conv2d(52, 13, kernel_size=(3, 3), stride=(1, 1), padding=(1, 1), bias=False)
    )
    (2): Bottleneck(
      (bn_1): BatchNorm2d(143, eps=1e-05, momentum=0.1, affine=True, track_running_stats=True)
      (conv_1): Conv2d(143, 52, kernel_size=(1, 1), stride=(1, 1), bias=False)
      (bn_2): BatchNorm2d(52, eps=1e-05, momentum=0.1, affine=True, track_running_stats=True)
      (conv_2): Conv2d(52, 13, kernel_size=(3, 3), stride=(1, 1), padding=(1, 1), bias=False)
    )
    (3): Bottleneck(
      (bn_1): BatchNorm2d(156, eps=1e-05, momentum=0.1, affine=True, track_running_stats=True)
      (conv_1): Conv2d(156, 52, kernel_size=(1, 1), stride=(1, 1), bias=False)
      (bn_2): BatchNorm2d(52, eps=1e-05, momentum=0.1, affine=True, track_running_stats=True)
      (conv_2): Conv2d(52, 13, kernel_size=(3, 3), stride=(1, 1), padding=(1, 1), bias=False)
    )
    (4): Bottleneck(
      (bn_1): BatchNorm2d(169, eps=1e-05, momentum=0.1, affine=True, track_running_stats=True)
      (conv_1): Conv2d(169, 52, kernel_size=(1, 1), stride=(1, 1), bias=False)
      (bn_2): BatchNorm2d(52, eps=1e-05, momentum=0.1, affine=True, track_running_stats=True)
      (conv_2): Conv2d(52, 13, kernel_size=(3, 3), stride=(1, 1), padding=(1, 1), bias=False)
    )
    (5): Bottleneck(
      (bn_1): BatchNorm2d(182, eps=1e-05, momentum=0.1, affine=True, track_running_stats=True)
      (conv_1): Conv2d(182, 52, kernel_size=(1, 1), stride=(1, 1), bias=False)
      (bn_2): BatchNorm2d(52, eps=1e-05, momentum=0.1, affine=True, track_running_stats=True)
      (conv_2): Conv2d(52, 13, kernel_size=(3, 3), stride=(1, 1), padding=(1, 1), bias=False)
    )
    (6): Bottleneck(
      (bn_1): BatchNorm2d(195, eps=1e-05, momentum=0.1, affine=True, track_running_stats=True)
      (conv_1): Conv2d(195, 52, kernel_size=(1, 1), stride=(1, 1), bias=False)
      (bn_2): BatchNorm2d(52, eps=1e-05, momentum=0.1, affine=True, track_running_stats=True)
      (conv_2): Conv2d(52, 13, kernel_size=(3, 3), stride=(1, 1), padding=(1, 1), bias=False)
    )
    (7): Bottleneck(
      (bn_1): BatchNorm2d(208, eps=1e-05, momentum=0.1, affine=True, track_running_stats=True)
      (conv_1): Conv2d(208, 52, kernel_size=(1, 1), stride=(1, 1), bias=False)
      (bn_2): BatchNorm2d(52, eps=1e-05, momentum=0.1, affine=True, track_running_stats=True)
      (conv_2): Conv2d(52, 13, kernel_size=(3, 3), stride=(1, 1), padding=(1, 1), bias=False)
    )
    (8): Bottleneck(
      (bn_1): BatchNorm2d(221, eps=1e-05, momentum=0.1, affine=True, track_running_stats=True)
      (conv_1): Conv2d(221, 52, kernel_size=(1, 1), stride=(1, 1), bias=False)
      (bn_2): BatchNorm2d(52, eps=1e-05, momentum=0.1, affine=True, track_running_stats=True)
      (conv_2): Conv2d(52, 13, kernel_size=(3, 3), stride=(1, 1), padding=(1, 1), bias=False)
    )
    (9): Bottleneck(
      (bn_1): BatchNorm2d(234, eps=1e-05, momentum=0.1, affine=True, track_running_stats=True)
      (conv_1): Conv2d(234, 52, kernel_size=(1, 1), stride=(1, 1), bias=False)
      (bn_2): BatchNorm2d(52, eps=1e-05, momentum=0.1, affine=True, track_running_stats=True)
      (conv_2): Conv2d(52, 13, kernel_size=(3, 3), stride=(1, 1), padding=(1, 1), bias=False)
    )
    (10): Bottleneck(
      (bn_1): BatchNorm2d(247, eps=1e-05, momentum=0.1, affine=True, track_running_stats=True)
      (conv_1): Conv2d(247, 52, kernel_size=(1, 1), stride=(1, 1), bias=False)
      (bn_2): BatchNorm2d(52, eps=1e-05, momentum=0.1, affine=True, track_running_stats=True)
      (conv_2): Conv2d(52, 13, kernel_size=(3, 3), stride=(1, 1), padding=(1, 1), bias=False)
    )
    (11): Bottleneck(
      (bn_1): BatchNorm2d(260, eps=1e-05, momentum=0.1, affine=True, track_running_stats=True)
      (conv_1): Conv2d(260, 52, kernel_size=(1, 1), stride=(1, 1), bias=False)
      (bn_2): BatchNorm2d(52, eps=1e-05, momentum=0.1, affine=True, track_running_stats=True)
      (conv_2): Conv2d(52, 13, kernel_size=(3, 3), stride=(1, 1), padding=(1, 1), bias=False)
    )
    (12): Bottleneck(
      (bn_1): BatchNorm2d(273, eps=1e-05, momentum=0.1, affine=True, track_running_stats=True)
      (conv_1): Conv2d(273, 52, kernel_size=(1, 1), stride=(1, 1), bias=False)
      (bn_2): BatchNorm2d(52, eps=1e-05, momentum=0.1, affine=True, track_running_stats=True)
      (conv_2): Conv2d(52, 13, kernel_size=(3, 3), stride=(1, 1), padding=(1, 1), bias=False)
    )
    (13): Bottleneck(
      (bn_1): BatchNorm2d(286, eps=1e-05, momentum=0.1, affine=True, track_running_stats=True)
      (conv_1): Conv2d(286, 52, kernel_size=(1, 1), stride=(1, 1), bias=False)
      (bn_2): BatchNorm2d(52, eps=1e-05, momentum=0.1, affine=True, track_running_stats=True)
      (conv_2): Conv2d(52, 13, kernel_size=(3, 3), stride=(1, 1), padding=(1, 1), bias=False)
    )
    (14): Bottleneck(
      (bn_1): BatchNorm2d(299, eps=1e-05, momentum=0.1, affine=True, track_running_stats=True)
      (conv_1): Conv2d(299, 52, kernel_size=(1, 1), stride=(1, 1), bias=False)
      (bn_2): BatchNorm2d(52, eps=1e-05, momentum=0.1, affine=True, track_running_stats=True)
      (conv_2): Conv2d(52, 13, kernel_size=(3, 3), stride=(1, 1), padding=(1, 1), bias=False)
    )
    (15): Bottleneck(
      (bn_1): BatchNorm2d(312, eps=1e-05, momentum=0.1, affine=True, track_running_stats=True)
      (conv_1): Conv2d(312, 52, kernel_size=(1, 1), stride=(1, 1), bias=False)
      (bn_2): BatchNorm2d(52, eps=1e-05, momentum=0.1, affine=True, track_running_stats=True)
      (conv_2): Conv2d(52, 13, kernel_size=(3, 3), stride=(1, 1), padding=(1, 1), bias=False)
    )
  )
  (trans_2): Transition(
    (bn): BatchNorm2d(325, eps=1e-05, momentum=0.1, affine=True, track_running_stats=True)
    (conv): Conv2d(325, 162, kernel_size=(1, 1), stride=(1, 1), bias=False)
  )
  (dense_3): Sequential(
    (0): Bottleneck(
      (bn_1): BatchNorm2d(162, eps=1e-05, momentum=0.1, affine=True, track_running_stats=True)
      (conv_1): Conv2d(162, 52, kernel_size=(1, 1), stride=(1, 1), bias=False)
      (bn_2): BatchNorm2d(52, eps=1e-05, momentum=0.1, affine=True, track_running_stats=True)
      (conv_2): Conv2d(52, 13, kernel_size=(3, 3), stride=(1, 1), padding=(1, 1), bias=False)
    )
    (1): Bottleneck(
      (bn_1): BatchNorm2d(175, eps=1e-05, momentum=0.1, affine=True, track_running_stats=True)
      (conv_1): Conv2d(175, 52, kernel_size=(1, 1), stride=(1, 1), bias=False)
      (bn_2): BatchNorm2d(52, eps=1e-05, momentum=0.1, affine=True, track_running_stats=True)
      (conv_2): Conv2d(52, 13, kernel_size=(3, 3), stride=(1, 1), padding=(1, 1), bias=False)
    )
    (2): Bottleneck(
      (bn_1): BatchNorm2d(188, eps=1e-05, momentum=0.1, affine=True, track_running_stats=True)
      (conv_1): Conv2d(188, 52, kernel_size=(1, 1), stride=(1, 1), bias=False)
      (bn_2): BatchNorm2d(52, eps=1e-05, momentum=0.1, affine=True, track_running_stats=True)
      (conv_2): Conv2d(52, 13, kernel_size=(3, 3), stride=(1, 1), padding=(1, 1), bias=False)
    )
    (3): Bottleneck(
      (bn_1): BatchNorm2d(201, eps=1e-05, momentum=0.1, affine=True, track_running_stats=True)
      (conv_1): Conv2d(201, 52, kernel_size=(1, 1), stride=(1, 1), bias=False)
      (bn_2): BatchNorm2d(52, eps=1e-05, momentum=0.1, affine=True, track_running_stats=True)
      (conv_2): Conv2d(52, 13, kernel_size=(3, 3), stride=(1, 1), padding=(1, 1), bias=False)
    )
    (4): Bottleneck(
      (bn_1): BatchNorm2d(214, eps=1e-05, momentum=0.1, affine=True, track_running_stats=True)
      (conv_1): Conv2d(214, 52, kernel_size=(1, 1), stride=(1, 1), bias=False)
      (bn_2): BatchNorm2d(52, eps=1e-05, momentum=0.1, affine=True, track_running_stats=True)
      (conv_2): Conv2d(52, 13, kernel_size=(3, 3), stride=(1, 1), padding=(1, 1), bias=False)
    )
    (5): Bottleneck(
      (bn_1): BatchNorm2d(227, eps=1e-05, momentum=0.1, affine=True, track_running_stats=True)
      (conv_1): Conv2d(227, 52, kernel_size=(1, 1), stride=(1, 1), bias=False)
      (bn_2): BatchNorm2d(52, eps=1e-05, momentum=0.1, affine=True, track_running_stats=True)
      (conv_2): Conv2d(52, 13, kernel_size=(3, 3), stride=(1, 1), padding=(1, 1), bias=False)
    )
    (6): Bottleneck(
      (bn_1): BatchNorm2d(240, eps=1e-05, momentum=0.1, affine=True, track_running_stats=True)
      (conv_1): Conv2d(240, 52, kernel_size=(1, 1), stride=(1, 1), bias=False)
      (bn_2): BatchNorm2d(52, eps=1e-05, momentum=0.1, affine=True, track_running_stats=True)
      (conv_2): Conv2d(52, 13, kernel_size=(3, 3), stride=(1, 1), padding=(1, 1), bias=False)
    )
    (7): Bottleneck(
      (bn_1): BatchNorm2d(253, eps=1e-05, momentum=0.1, affine=True, track_running_stats=True)
      (conv_1): Conv2d(253, 52, kernel_size=(1, 1), stride=(1, 1), bias=False)
      (bn_2): BatchNorm2d(52, eps=1e-05, momentum=0.1, affine=True, track_running_stats=True)
      (conv_2): Conv2d(52, 13, kernel_size=(3, 3), stride=(1, 1), padding=(1, 1), bias=False)
    )
    (8): Bottleneck(
      (bn_1): BatchNorm2d(266, eps=1e-05, momentum=0.1, affine=True, track_running_stats=True)
      (conv_1): Conv2d(266, 52, kernel_size=(1, 1), stride=(1, 1), bias=False)
      (bn_2): BatchNorm2d(52, eps=1e-05, momentum=0.1, affine=True, track_running_stats=True)
      (conv_2): Conv2d(52, 13, kernel_size=(3, 3), stride=(1, 1), padding=(1, 1), bias=False)
    )
    (9): Bottleneck(
      (bn_1): BatchNorm2d(279, eps=1e-05, momentum=0.1, affine=True, track_running_stats=True)
      (conv_1): Conv2d(279, 52, kernel_size=(1, 1), stride=(1, 1), bias=False)
      (bn_2): BatchNorm2d(52, eps=1e-05, momentum=0.1, affine=True, track_running_stats=True)
      (conv_2): Conv2d(52, 13, kernel_size=(3, 3), stride=(1, 1), padding=(1, 1), bias=False)
    )
    (10): Bottleneck(
      (bn_1): BatchNorm2d(292, eps=1e-05, momentum=0.1, affine=True, track_running_stats=True)
      (conv_1): Conv2d(292, 52, kernel_size=(1, 1), stride=(1, 1), bias=False)
      (bn_2): BatchNorm2d(52, eps=1e-05, momentum=0.1, affine=True, track_running_stats=True)
      (conv_2): Conv2d(52, 13, kernel_size=(3, 3), stride=(1, 1), padding=(1, 1), bias=False)
    )
    (11): Bottleneck(
      (bn_1): BatchNorm2d(305, eps=1e-05, momentum=0.1, affine=True, track_running_stats=True)
      (conv_1): Conv2d(305, 52, kernel_size=(1, 1), stride=(1, 1), bias=False)
      (bn_2): BatchNorm2d(52, eps=1e-05, momentum=0.1, affine=True, track_running_stats=True)
      (conv_2): Conv2d(52, 13, kernel_size=(3, 3), stride=(1, 1), padding=(1, 1), bias=False)
    )
    (12): Bottleneck(
      (bn_1): BatchNorm2d(318, eps=1e-05, momentum=0.1, affine=True, track_running_stats=True)
      (conv_1): Conv2d(318, 52, kernel_size=(1, 1), stride=(1, 1), bias=False)
      (bn_2): BatchNorm2d(52, eps=1e-05, momentum=0.1, affine=True, track_running_stats=True)
      (conv_2): Conv2d(52, 13, kernel_size=(3, 3), stride=(1, 1), padding=(1, 1), bias=False)
    )
    (13): Bottleneck(
      (bn_1): BatchNorm2d(331, eps=1e-05, momentum=0.1, affine=True, track_running_stats=True)
      (conv_1): Conv2d(331, 52, kernel_size=(1, 1), stride=(1, 1), bias=False)
      (bn_2): BatchNorm2d(52, eps=1e-05, momentum=0.1, affine=True, track_running_stats=True)
      (conv_2): Conv2d(52, 13, kernel_size=(3, 3), stride=(1, 1), padding=(1, 1), bias=False)
    )
    (14): Bottleneck(
      (bn_1): BatchNorm2d(344, eps=1e-05, momentum=0.1, affine=True, track_running_stats=True)
      (conv_1): Conv2d(344, 52, kernel_size=(1, 1), stride=(1, 1), bias=False)
      (bn_2): BatchNorm2d(52, eps=1e-05, momentum=0.1, affine=True, track_running_stats=True)
      (conv_2): Conv2d(52, 13, kernel_size=(3, 3), stride=(1, 1), padding=(1, 1), bias=False)
    )
    (15): Bottleneck(
      (bn_1): BatchNorm2d(357, eps=1e-05, momentum=0.1, affine=True, track_running_stats=True)
      (conv_1): Conv2d(357, 52, kernel_size=(1, 1), stride=(1, 1), bias=False)
      (bn_2): BatchNorm2d(52, eps=1e-05, momentum=0.1, affine=True, track_running_stats=True)
      (conv_2): Conv2d(52, 13, kernel_size=(3, 3), stride=(1, 1), padding=(1, 1), bias=False)
    )
  )
  (bn): BatchNorm2d(370, eps=1e-05, momentum=0.1, affine=True, track_running_stats=True)
  (fc): Linear(in_features=370, out_features=10, bias=True)
)
[2019-10-21 16:44:48,792] - [train.py line:148] :  == total parameters: 899562
[2019-10-21 16:45:26,045] - [train.py line:143] : {'architecture': 'densenet100bc', 'data_path': './data', 'ckpt_path': './', 'ckpt_name': 'densenet100bc', 'num_classes': 10, 'dataset': 'cifar10', 'use_gpu': True, 'input_size': 32, 'epochs': 300, 'batch_size': 256, 'test_batch': 200, 'eval_freq': 2, 'workers': 4, 'optimize': {'momentum': 0.9, 'weight_decay': 0.0001, 'nesterov': True}, 'mixup': False, 'mixup_alpha': 0.4, 'augmentation': {'normalize': True, 'random_crop': True, 'random_horizontal_filp': True, 'cutout': False, 'holes': 1, 'length': 8}, 'lr_scheduler': {'type': 'STEP', 'base_lr': 0.1, 'lr_epochs': [150, 225], 'lr_mults': 0.1, 'min_lr': 0.0, 'lower_bound': -6.0, 'upper_bound': 3.0}}
[2019-10-21 16:45:26,113] - [train.py line:147] : DenseNet(
  (conv_1): Conv2d(3, 26, kernel_size=(3, 3), stride=(1, 1), padding=(1, 1), bias=False)
  (dense1): Sequential(
    (0): Bottleneck(
      (bn_1): BatchNorm2d(26, eps=1e-05, momentum=0.1, affine=True, track_running_stats=True)
      (conv_1): Conv2d(26, 52, kernel_size=(1, 1), stride=(1, 1), bias=False)
      (bn_2): BatchNorm2d(52, eps=1e-05, momentum=0.1, affine=True, track_running_stats=True)
      (conv_2): Conv2d(52, 13, kernel_size=(3, 3), stride=(1, 1), padding=(1, 1), bias=False)
    )
    (1): Bottleneck(
      (bn_1): BatchNorm2d(39, eps=1e-05, momentum=0.1, affine=True, track_running_stats=True)
      (conv_1): Conv2d(39, 52, kernel_size=(1, 1), stride=(1, 1), bias=False)
      (bn_2): BatchNorm2d(52, eps=1e-05, momentum=0.1, affine=True, track_running_stats=True)
      (conv_2): Conv2d(52, 13, kernel_size=(3, 3), stride=(1, 1), padding=(1, 1), bias=False)
    )
    (2): Bottleneck(
      (bn_1): BatchNorm2d(52, eps=1e-05, momentum=0.1, affine=True, track_running_stats=True)
      (conv_1): Conv2d(52, 52, kernel_size=(1, 1), stride=(1, 1), bias=False)
      (bn_2): BatchNorm2d(52, eps=1e-05, momentum=0.1, affine=True, track_running_stats=True)
      (conv_2): Conv2d(52, 13, kernel_size=(3, 3), stride=(1, 1), padding=(1, 1), bias=False)
    )
    (3): Bottleneck(
      (bn_1): BatchNorm2d(65, eps=1e-05, momentum=0.1, affine=True, track_running_stats=True)
      (conv_1): Conv2d(65, 52, kernel_size=(1, 1), stride=(1, 1), bias=False)
      (bn_2): BatchNorm2d(52, eps=1e-05, momentum=0.1, affine=True, track_running_stats=True)
      (conv_2): Conv2d(52, 13, kernel_size=(3, 3), stride=(1, 1), padding=(1, 1), bias=False)
    )
    (4): Bottleneck(
      (bn_1): BatchNorm2d(78, eps=1e-05, momentum=0.1, affine=True, track_running_stats=True)
      (conv_1): Conv2d(78, 52, kernel_size=(1, 1), stride=(1, 1), bias=False)
      (bn_2): BatchNorm2d(52, eps=1e-05, momentum=0.1, affine=True, track_running_stats=True)
      (conv_2): Conv2d(52, 13, kernel_size=(3, 3), stride=(1, 1), padding=(1, 1), bias=False)
    )
    (5): Bottleneck(
      (bn_1): BatchNorm2d(91, eps=1e-05, momentum=0.1, affine=True, track_running_stats=True)
      (conv_1): Conv2d(91, 52, kernel_size=(1, 1), stride=(1, 1), bias=False)
      (bn_2): BatchNorm2d(52, eps=1e-05, momentum=0.1, affine=True, track_running_stats=True)
      (conv_2): Conv2d(52, 13, kernel_size=(3, 3), stride=(1, 1), padding=(1, 1), bias=False)
    )
    (6): Bottleneck(
      (bn_1): BatchNorm2d(104, eps=1e-05, momentum=0.1, affine=True, track_running_stats=True)
      (conv_1): Conv2d(104, 52, kernel_size=(1, 1), stride=(1, 1), bias=False)
      (bn_2): BatchNorm2d(52, eps=1e-05, momentum=0.1, affine=True, track_running_stats=True)
      (conv_2): Conv2d(52, 13, kernel_size=(3, 3), stride=(1, 1), padding=(1, 1), bias=False)
    )
    (7): Bottleneck(
      (bn_1): BatchNorm2d(117, eps=1e-05, momentum=0.1, affine=True, track_running_stats=True)
      (conv_1): Conv2d(117, 52, kernel_size=(1, 1), stride=(1, 1), bias=False)
      (bn_2): BatchNorm2d(52, eps=1e-05, momentum=0.1, affine=True, track_running_stats=True)
      (conv_2): Conv2d(52, 13, kernel_size=(3, 3), stride=(1, 1), padding=(1, 1), bias=False)
    )
    (8): Bottleneck(
      (bn_1): BatchNorm2d(130, eps=1e-05, momentum=0.1, affine=True, track_running_stats=True)
      (conv_1): Conv2d(130, 52, kernel_size=(1, 1), stride=(1, 1), bias=False)
      (bn_2): BatchNorm2d(52, eps=1e-05, momentum=0.1, affine=True, track_running_stats=True)
      (conv_2): Conv2d(52, 13, kernel_size=(3, 3), stride=(1, 1), padding=(1, 1), bias=False)
    )
    (9): Bottleneck(
      (bn_1): BatchNorm2d(143, eps=1e-05, momentum=0.1, affine=True, track_running_stats=True)
      (conv_1): Conv2d(143, 52, kernel_size=(1, 1), stride=(1, 1), bias=False)
      (bn_2): BatchNorm2d(52, eps=1e-05, momentum=0.1, affine=True, track_running_stats=True)
      (conv_2): Conv2d(52, 13, kernel_size=(3, 3), stride=(1, 1), padding=(1, 1), bias=False)
    )
    (10): Bottleneck(
      (bn_1): BatchNorm2d(156, eps=1e-05, momentum=0.1, affine=True, track_running_stats=True)
      (conv_1): Conv2d(156, 52, kernel_size=(1, 1), stride=(1, 1), bias=False)
      (bn_2): BatchNorm2d(52, eps=1e-05, momentum=0.1, affine=True, track_running_stats=True)
      (conv_2): Conv2d(52, 13, kernel_size=(3, 3), stride=(1, 1), padding=(1, 1), bias=False)
    )
    (11): Bottleneck(
      (bn_1): BatchNorm2d(169, eps=1e-05, momentum=0.1, affine=True, track_running_stats=True)
      (conv_1): Conv2d(169, 52, kernel_size=(1, 1), stride=(1, 1), bias=False)
      (bn_2): BatchNorm2d(52, eps=1e-05, momentum=0.1, affine=True, track_running_stats=True)
      (conv_2): Conv2d(52, 13, kernel_size=(3, 3), stride=(1, 1), padding=(1, 1), bias=False)
    )
    (12): Bottleneck(
      (bn_1): BatchNorm2d(182, eps=1e-05, momentum=0.1, affine=True, track_running_stats=True)
      (conv_1): Conv2d(182, 52, kernel_size=(1, 1), stride=(1, 1), bias=False)
      (bn_2): BatchNorm2d(52, eps=1e-05, momentum=0.1, affine=True, track_running_stats=True)
      (conv_2): Conv2d(52, 13, kernel_size=(3, 3), stride=(1, 1), padding=(1, 1), bias=False)
    )
    (13): Bottleneck(
      (bn_1): BatchNorm2d(195, eps=1e-05, momentum=0.1, affine=True, track_running_stats=True)
      (conv_1): Conv2d(195, 52, kernel_size=(1, 1), stride=(1, 1), bias=False)
      (bn_2): BatchNorm2d(52, eps=1e-05, momentum=0.1, affine=True, track_running_stats=True)
      (conv_2): Conv2d(52, 13, kernel_size=(3, 3), stride=(1, 1), padding=(1, 1), bias=False)
    )
    (14): Bottleneck(
      (bn_1): BatchNorm2d(208, eps=1e-05, momentum=0.1, affine=True, track_running_stats=True)
      (conv_1): Conv2d(208, 52, kernel_size=(1, 1), stride=(1, 1), bias=False)
      (bn_2): BatchNorm2d(52, eps=1e-05, momentum=0.1, affine=True, track_running_stats=True)
      (conv_2): Conv2d(52, 13, kernel_size=(3, 3), stride=(1, 1), padding=(1, 1), bias=False)
    )
    (15): Bottleneck(
      (bn_1): BatchNorm2d(221, eps=1e-05, momentum=0.1, affine=True, track_running_stats=True)
      (conv_1): Conv2d(221, 52, kernel_size=(1, 1), stride=(1, 1), bias=False)
      (bn_2): BatchNorm2d(52, eps=1e-05, momentum=0.1, affine=True, track_running_stats=True)
      (conv_2): Conv2d(52, 13, kernel_size=(3, 3), stride=(1, 1), padding=(1, 1), bias=False)
    )
  )
  (trans_1): Transition(
    (bn): BatchNorm2d(234, eps=1e-05, momentum=0.1, affine=True, track_running_stats=True)
    (conv): Conv2d(234, 117, kernel_size=(1, 1), stride=(1, 1), bias=False)
  )
  (dense2): Sequential(
    (0): Bottleneck(
      (bn_1): BatchNorm2d(117, eps=1e-05, momentum=0.1, affine=True, track_running_stats=True)
      (conv_1): Conv2d(117, 52, kernel_size=(1, 1), stride=(1, 1), bias=False)
      (bn_2): BatchNorm2d(52, eps=1e-05, momentum=0.1, affine=True, track_running_stats=True)
      (conv_2): Conv2d(52, 13, kernel_size=(3, 3), stride=(1, 1), padding=(1, 1), bias=False)
    )
    (1): Bottleneck(
      (bn_1): BatchNorm2d(130, eps=1e-05, momentum=0.1, affine=True, track_running_stats=True)
      (conv_1): Conv2d(130, 52, kernel_size=(1, 1), stride=(1, 1), bias=False)
      (bn_2): BatchNorm2d(52, eps=1e-05, momentum=0.1, affine=True, track_running_stats=True)
      (conv_2): Conv2d(52, 13, kernel_size=(3, 3), stride=(1, 1), padding=(1, 1), bias=False)
    )
    (2): Bottleneck(
      (bn_1): BatchNorm2d(143, eps=1e-05, momentum=0.1, affine=True, track_running_stats=True)
      (conv_1): Conv2d(143, 52, kernel_size=(1, 1), stride=(1, 1), bias=False)
      (bn_2): BatchNorm2d(52, eps=1e-05, momentum=0.1, affine=True, track_running_stats=True)
      (conv_2): Conv2d(52, 13, kernel_size=(3, 3), stride=(1, 1), padding=(1, 1), bias=False)
    )
    (3): Bottleneck(
      (bn_1): BatchNorm2d(156, eps=1e-05, momentum=0.1, affine=True, track_running_stats=True)
      (conv_1): Conv2d(156, 52, kernel_size=(1, 1), stride=(1, 1), bias=False)
      (bn_2): BatchNorm2d(52, eps=1e-05, momentum=0.1, affine=True, track_running_stats=True)
      (conv_2): Conv2d(52, 13, kernel_size=(3, 3), stride=(1, 1), padding=(1, 1), bias=False)
    )
    (4): Bottleneck(
      (bn_1): BatchNorm2d(169, eps=1e-05, momentum=0.1, affine=True, track_running_stats=True)
      (conv_1): Conv2d(169, 52, kernel_size=(1, 1), stride=(1, 1), bias=False)
      (bn_2): BatchNorm2d(52, eps=1e-05, momentum=0.1, affine=True, track_running_stats=True)
      (conv_2): Conv2d(52, 13, kernel_size=(3, 3), stride=(1, 1), padding=(1, 1), bias=False)
    )
    (5): Bottleneck(
      (bn_1): BatchNorm2d(182, eps=1e-05, momentum=0.1, affine=True, track_running_stats=True)
      (conv_1): Conv2d(182, 52, kernel_size=(1, 1), stride=(1, 1), bias=False)
      (bn_2): BatchNorm2d(52, eps=1e-05, momentum=0.1, affine=True, track_running_stats=True)
      (conv_2): Conv2d(52, 13, kernel_size=(3, 3), stride=(1, 1), padding=(1, 1), bias=False)
    )
    (6): Bottleneck(
      (bn_1): BatchNorm2d(195, eps=1e-05, momentum=0.1, affine=True, track_running_stats=True)
      (conv_1): Conv2d(195, 52, kernel_size=(1, 1), stride=(1, 1), bias=False)
      (bn_2): BatchNorm2d(52, eps=1e-05, momentum=0.1, affine=True, track_running_stats=True)
      (conv_2): Conv2d(52, 13, kernel_size=(3, 3), stride=(1, 1), padding=(1, 1), bias=False)
    )
    (7): Bottleneck(
      (bn_1): BatchNorm2d(208, eps=1e-05, momentum=0.1, affine=True, track_running_stats=True)
      (conv_1): Conv2d(208, 52, kernel_size=(1, 1), stride=(1, 1), bias=False)
      (bn_2): BatchNorm2d(52, eps=1e-05, momentum=0.1, affine=True, track_running_stats=True)
      (conv_2): Conv2d(52, 13, kernel_size=(3, 3), stride=(1, 1), padding=(1, 1), bias=False)
    )
    (8): Bottleneck(
      (bn_1): BatchNorm2d(221, eps=1e-05, momentum=0.1, affine=True, track_running_stats=True)
      (conv_1): Conv2d(221, 52, kernel_size=(1, 1), stride=(1, 1), bias=False)
      (bn_2): BatchNorm2d(52, eps=1e-05, momentum=0.1, affine=True, track_running_stats=True)
      (conv_2): Conv2d(52, 13, kernel_size=(3, 3), stride=(1, 1), padding=(1, 1), bias=False)
    )
    (9): Bottleneck(
      (bn_1): BatchNorm2d(234, eps=1e-05, momentum=0.1, affine=True, track_running_stats=True)
      (conv_1): Conv2d(234, 52, kernel_size=(1, 1), stride=(1, 1), bias=False)
      (bn_2): BatchNorm2d(52, eps=1e-05, momentum=0.1, affine=True, track_running_stats=True)
      (conv_2): Conv2d(52, 13, kernel_size=(3, 3), stride=(1, 1), padding=(1, 1), bias=False)
    )
    (10): Bottleneck(
      (bn_1): BatchNorm2d(247, eps=1e-05, momentum=0.1, affine=True, track_running_stats=True)
      (conv_1): Conv2d(247, 52, kernel_size=(1, 1), stride=(1, 1), bias=False)
      (bn_2): BatchNorm2d(52, eps=1e-05, momentum=0.1, affine=True, track_running_stats=True)
      (conv_2): Conv2d(52, 13, kernel_size=(3, 3), stride=(1, 1), padding=(1, 1), bias=False)
    )
    (11): Bottleneck(
      (bn_1): BatchNorm2d(260, eps=1e-05, momentum=0.1, affine=True, track_running_stats=True)
      (conv_1): Conv2d(260, 52, kernel_size=(1, 1), stride=(1, 1), bias=False)
      (bn_2): BatchNorm2d(52, eps=1e-05, momentum=0.1, affine=True, track_running_stats=True)
      (conv_2): Conv2d(52, 13, kernel_size=(3, 3), stride=(1, 1), padding=(1, 1), bias=False)
    )
    (12): Bottleneck(
      (bn_1): BatchNorm2d(273, eps=1e-05, momentum=0.1, affine=True, track_running_stats=True)
      (conv_1): Conv2d(273, 52, kernel_size=(1, 1), stride=(1, 1), bias=False)
      (bn_2): BatchNorm2d(52, eps=1e-05, momentum=0.1, affine=True, track_running_stats=True)
      (conv_2): Conv2d(52, 13, kernel_size=(3, 3), stride=(1, 1), padding=(1, 1), bias=False)
    )
    (13): Bottleneck(
      (bn_1): BatchNorm2d(286, eps=1e-05, momentum=0.1, affine=True, track_running_stats=True)
      (conv_1): Conv2d(286, 52, kernel_size=(1, 1), stride=(1, 1), bias=False)
      (bn_2): BatchNorm2d(52, eps=1e-05, momentum=0.1, affine=True, track_running_stats=True)
      (conv_2): Conv2d(52, 13, kernel_size=(3, 3), stride=(1, 1), padding=(1, 1), bias=False)
    )
    (14): Bottleneck(
      (bn_1): BatchNorm2d(299, eps=1e-05, momentum=0.1, affine=True, track_running_stats=True)
      (conv_1): Conv2d(299, 52, kernel_size=(1, 1), stride=(1, 1), bias=False)
      (bn_2): BatchNorm2d(52, eps=1e-05, momentum=0.1, affine=True, track_running_stats=True)
      (conv_2): Conv2d(52, 13, kernel_size=(3, 3), stride=(1, 1), padding=(1, 1), bias=False)
    )
    (15): Bottleneck(
      (bn_1): BatchNorm2d(312, eps=1e-05, momentum=0.1, affine=True, track_running_stats=True)
      (conv_1): Conv2d(312, 52, kernel_size=(1, 1), stride=(1, 1), bias=False)
      (bn_2): BatchNorm2d(52, eps=1e-05, momentum=0.1, affine=True, track_running_stats=True)
      (conv_2): Conv2d(52, 13, kernel_size=(3, 3), stride=(1, 1), padding=(1, 1), bias=False)
    )
  )
  (trans_2): Transition(
    (bn): BatchNorm2d(325, eps=1e-05, momentum=0.1, affine=True, track_running_stats=True)
    (conv): Conv2d(325, 162, kernel_size=(1, 1), stride=(1, 1), bias=False)
  )
  (dense_3): Sequential(
    (0): Bottleneck(
      (bn_1): BatchNorm2d(162, eps=1e-05, momentum=0.1, affine=True, track_running_stats=True)
      (conv_1): Conv2d(162, 52, kernel_size=(1, 1), stride=(1, 1), bias=False)
      (bn_2): BatchNorm2d(52, eps=1e-05, momentum=0.1, affine=True, track_running_stats=True)
      (conv_2): Conv2d(52, 13, kernel_size=(3, 3), stride=(1, 1), padding=(1, 1), bias=False)
    )
    (1): Bottleneck(
      (bn_1): BatchNorm2d(175, eps=1e-05, momentum=0.1, affine=True, track_running_stats=True)
      (conv_1): Conv2d(175, 52, kernel_size=(1, 1), stride=(1, 1), bias=False)
      (bn_2): BatchNorm2d(52, eps=1e-05, momentum=0.1, affine=True, track_running_stats=True)
      (conv_2): Conv2d(52, 13, kernel_size=(3, 3), stride=(1, 1), padding=(1, 1), bias=False)
    )
    (2): Bottleneck(
      (bn_1): BatchNorm2d(188, eps=1e-05, momentum=0.1, affine=True, track_running_stats=True)
      (conv_1): Conv2d(188, 52, kernel_size=(1, 1), stride=(1, 1), bias=False)
      (bn_2): BatchNorm2d(52, eps=1e-05, momentum=0.1, affine=True, track_running_stats=True)
      (conv_2): Conv2d(52, 13, kernel_size=(3, 3), stride=(1, 1), padding=(1, 1), bias=False)
    )
    (3): Bottleneck(
      (bn_1): BatchNorm2d(201, eps=1e-05, momentum=0.1, affine=True, track_running_stats=True)
      (conv_1): Conv2d(201, 52, kernel_size=(1, 1), stride=(1, 1), bias=False)
      (bn_2): BatchNorm2d(52, eps=1e-05, momentum=0.1, affine=True, track_running_stats=True)
      (conv_2): Conv2d(52, 13, kernel_size=(3, 3), stride=(1, 1), padding=(1, 1), bias=False)
    )
    (4): Bottleneck(
      (bn_1): BatchNorm2d(214, eps=1e-05, momentum=0.1, affine=True, track_running_stats=True)
      (conv_1): Conv2d(214, 52, kernel_size=(1, 1), stride=(1, 1), bias=False)
      (bn_2): BatchNorm2d(52, eps=1e-05, momentum=0.1, affine=True, track_running_stats=True)
      (conv_2): Conv2d(52, 13, kernel_size=(3, 3), stride=(1, 1), padding=(1, 1), bias=False)
    )
    (5): Bottleneck(
      (bn_1): BatchNorm2d(227, eps=1e-05, momentum=0.1, affine=True, track_running_stats=True)
      (conv_1): Conv2d(227, 52, kernel_size=(1, 1), stride=(1, 1), bias=False)
      (bn_2): BatchNorm2d(52, eps=1e-05, momentum=0.1, affine=True, track_running_stats=True)
      (conv_2): Conv2d(52, 13, kernel_size=(3, 3), stride=(1, 1), padding=(1, 1), bias=False)
    )
    (6): Bottleneck(
      (bn_1): BatchNorm2d(240, eps=1e-05, momentum=0.1, affine=True, track_running_stats=True)
      (conv_1): Conv2d(240, 52, kernel_size=(1, 1), stride=(1, 1), bias=False)
      (bn_2): BatchNorm2d(52, eps=1e-05, momentum=0.1, affine=True, track_running_stats=True)
      (conv_2): Conv2d(52, 13, kernel_size=(3, 3), stride=(1, 1), padding=(1, 1), bias=False)
    )
    (7): Bottleneck(
      (bn_1): BatchNorm2d(253, eps=1e-05, momentum=0.1, affine=True, track_running_stats=True)
      (conv_1): Conv2d(253, 52, kernel_size=(1, 1), stride=(1, 1), bias=False)
      (bn_2): BatchNorm2d(52, eps=1e-05, momentum=0.1, affine=True, track_running_stats=True)
      (conv_2): Conv2d(52, 13, kernel_size=(3, 3), stride=(1, 1), padding=(1, 1), bias=False)
    )
    (8): Bottleneck(
      (bn_1): BatchNorm2d(266, eps=1e-05, momentum=0.1, affine=True, track_running_stats=True)
      (conv_1): Conv2d(266, 52, kernel_size=(1, 1), stride=(1, 1), bias=False)
      (bn_2): BatchNorm2d(52, eps=1e-05, momentum=0.1, affine=True, track_running_stats=True)
      (conv_2): Conv2d(52, 13, kernel_size=(3, 3), stride=(1, 1), padding=(1, 1), bias=False)
    )
    (9): Bottleneck(
      (bn_1): BatchNorm2d(279, eps=1e-05, momentum=0.1, affine=True, track_running_stats=True)
      (conv_1): Conv2d(279, 52, kernel_size=(1, 1), stride=(1, 1), bias=False)
      (bn_2): BatchNorm2d(52, eps=1e-05, momentum=0.1, affine=True, track_running_stats=True)
      (conv_2): Conv2d(52, 13, kernel_size=(3, 3), stride=(1, 1), padding=(1, 1), bias=False)
    )
    (10): Bottleneck(
      (bn_1): BatchNorm2d(292, eps=1e-05, momentum=0.1, affine=True, track_running_stats=True)
      (conv_1): Conv2d(292, 52, kernel_size=(1, 1), stride=(1, 1), bias=False)
      (bn_2): BatchNorm2d(52, eps=1e-05, momentum=0.1, affine=True, track_running_stats=True)
      (conv_2): Conv2d(52, 13, kernel_size=(3, 3), stride=(1, 1), padding=(1, 1), bias=False)
    )
    (11): Bottleneck(
      (bn_1): BatchNorm2d(305, eps=1e-05, momentum=0.1, affine=True, track_running_stats=True)
      (conv_1): Conv2d(305, 52, kernel_size=(1, 1), stride=(1, 1), bias=False)
      (bn_2): BatchNorm2d(52, eps=1e-05, momentum=0.1, affine=True, track_running_stats=True)
      (conv_2): Conv2d(52, 13, kernel_size=(3, 3), stride=(1, 1), padding=(1, 1), bias=False)
    )
    (12): Bottleneck(
      (bn_1): BatchNorm2d(318, eps=1e-05, momentum=0.1, affine=True, track_running_stats=True)
      (conv_1): Conv2d(318, 52, kernel_size=(1, 1), stride=(1, 1), bias=False)
      (bn_2): BatchNorm2d(52, eps=1e-05, momentum=0.1, affine=True, track_running_stats=True)
      (conv_2): Conv2d(52, 13, kernel_size=(3, 3), stride=(1, 1), padding=(1, 1), bias=False)
    )
    (13): Bottleneck(
      (bn_1): BatchNorm2d(331, eps=1e-05, momentum=0.1, affine=True, track_running_stats=True)
      (conv_1): Conv2d(331, 52, kernel_size=(1, 1), stride=(1, 1), bias=False)
      (bn_2): BatchNorm2d(52, eps=1e-05, momentum=0.1, affine=True, track_running_stats=True)
      (conv_2): Conv2d(52, 13, kernel_size=(3, 3), stride=(1, 1), padding=(1, 1), bias=False)
    )
    (14): Bottleneck(
      (bn_1): BatchNorm2d(344, eps=1e-05, momentum=0.1, affine=True, track_running_stats=True)
      (conv_1): Conv2d(344, 52, kernel_size=(1, 1), stride=(1, 1), bias=False)
      (bn_2): BatchNorm2d(52, eps=1e-05, momentum=0.1, affine=True, track_running_stats=True)
      (conv_2): Conv2d(52, 13, kernel_size=(3, 3), stride=(1, 1), padding=(1, 1), bias=False)
    )
    (15): Bottleneck(
      (bn_1): BatchNorm2d(357, eps=1e-05, momentum=0.1, affine=True, track_running_stats=True)
      (conv_1): Conv2d(357, 52, kernel_size=(1, 1), stride=(1, 1), bias=False)
      (bn_2): BatchNorm2d(52, eps=1e-05, momentum=0.1, affine=True, track_running_stats=True)
      (conv_2): Conv2d(52, 13, kernel_size=(3, 3), stride=(1, 1), padding=(1, 1), bias=False)
    )
  )
  (bn): BatchNorm2d(370, eps=1e-05, momentum=0.1, affine=True, track_running_stats=True)
  (fc): Linear(in_features=370, out_features=10, bias=True)
)
[2019-10-21 16:45:26,128] - [train.py line:148] :  == total parameters: 899562
[2019-10-21 16:45:36,769] - [train.py line:187] :             =======  Training  =======

[2019-10-21 16:45:36,774] - [train.py line:39] :  === Epoch: [1/300] === 
[2019-10-21 16:46:48,534] - [train.py line:75] :    == step: [100/196], train loss: 1.646 | train acc: 39.145% | lr: 0.100000
…
